model_storage/char_rnn/model.pth (torch, 147265 bytes, 7 tensors)

emb.weight f4 [88, 64]
000000 29 a5 f6 3f 53 5f be 3f 67 95 66 3f db c0 06 c0
       1.9269153 1.4872841 0.9007172 -2.105521
000010 d4 ac 2d 3f 91 05 9e bf 86 67 30 bd ba 65 cd bf
       0.6784184 -1.2345449 -0.043067478 -1.604667
000020 f0 8b 40 bf 5b 09 d3 3f f6 f2 c8 be 66 a9 b3 bf
       -0.7521353 1.648723 -0.39247864 -1.4036071
000030 6e 56 3a bf d1 36 0f bf a0 d2 44 bf 9f 2f 43 3f
       -0.7278813 -0.5594302 -0.7688389 0.7624454
000040 71 37 d2 3f 85 6d 23 be e4 aa fe be d8 11 e1 3e
       1.6423169 -0.15959747 -0.49739754 0.43958926
000050 e2 14 42 bf 50 06 8a 3f 44 01 4d 3f 93 1e d7 3f
       -0.75813115 1.0783176 0.80080056 1.6806206
000060 59 ba a3 3f 2f f1 a5 3f 88 47 1c 3f b0 d8 aa 3f
       1.2791244 1.2964228 0.6104665 1.3347378
000070 ed 2e 6d be 00 0c 2b 3d 7a ce 80 be b0 1f 5c 3f
       -0.23162432 0.04175949 -0.2515753 0.8598585
000080 fd 3c b1 bf 55 09 5f bf 09 ba 64 be 80 d2 db 3f
       -1.3846737 -0.87123615 -0.22336592 1.7173615
000090 48 44 a3 3e 8d 5a d9 be 74 87 9c 3e b2 4b 46 bf
       0.31888032 -0.42451897 0.30572093 -0.7745925
0000a0 89 5e c7 bf 02 e2 7e 3f a5 39 61 bf 72 e4 19 bf
       -1.5575725 0.9956361 -0.87978584 -0.60114205
0000b0 63 17 a3 bf b6 db 07 40 1d 09 9e bf d9 cf f9 be
       -1.2741512 2.122785 -1.2346531 -0.48791388
0000c0 4e f0 69 bf af 7b 28 bf fb ca 9f 3d 67 9b 06 3f
       -0.913823 -0.65813726 0.07802387 0.52580875
0000d0 0d da f9 be c8 7e 98 3f ce 62 50 bf 06 6a 3c bf
       -0.48799172 1.191369 -0.81400764 -0.7359928
0000e0 a0 9d b3 bf 95 78 13 3d 5f 00 82 bd 19 f5 2c 3f
       -1.4032478 0.036003668 -0.06347727 0.6756149
0000f0 fb 4e c8 bd a8 1b ec 3f ec 9e 97 bf 25 18 b1 3f
       -0.09780689 1.844594 -1.1845374 1.3835493
000100 00 00 00 00 00 00 00 00 00 00 00 00 00 00 00 00
       0.0 0.0 0.0 0.0
000110 00 00 00 00 00 00 00 00 00 00 00 00 00 00 00 00
       0.0 0.0 0.0 0.0
000120 00 00 00 00 00 00 00 00 00 00 00 00 00 00 00 00
       0.0 0.0 0.0 0.0
000130 00 00 00 00 00 00 00 00 00 00 00 00 00 00 00 00
       0.0 0.0 0.0 0.0
000140 00 00 00 00 00 00 00 00 00 00 00 00 00 00 00 00
       0.0 0.0 0.0 0.0
000150 00 00 00 00 00 00 00 00 00 00 00 00 00 00 00 00
       0.0 0.0 0.0 0.0
000160 00 00 00 00 00 00 00 00 00 00 00 00 00 00 00 00
       0.0 0.0 0.0 0.0
000170 00 00 00 00 00 00 00 00 00 00 00 00 00 00 00 00
       0.0 0.0 0.0 0.0
000180 00 00 00 00 00 00 00 00 00 00 00 00 00 00 00 00
       0.0 0.0 0.0 0.0
000190 00 00 00 00 00 00 00 00 00 00 00 00 00 00 00 00
       0.0 0.0 0.0 0.0
0001a0 00 00 00 00 00 00 00 00 00 00 00 00 00 00 00 00
       0.0 0.0 0.0 0.0
0001b0 00 00 00 00 00 00 00 00 00 00 00 00 00 00 00 00
       0.0 0.0 0.0 0.0
0001c0 00 00 00 00 00 00 00 00 00 00 00 00 00 00 00 00
       0.0 0.0 0.0 0.0
0001d0 00 00 00 00 00 00 00 00 00 00 00 00 00 00 00 00
       0.0 0.0 0.0 0.0
0001e0 00 00 00 00 00 00 00 00 00 00 00 00 00 00 00 00
       0.0 0.0 0.0 0.0
0001f0 00 00 00 00 00 00 00 00 00 00 00 00 00 00 00 00
       0.0 0.0 0.0 0.0
000200 19 1a 01 40 5a 7f 86 3f 0e ee c7 bf d2 23 a8 bf
       2.0172179 1.0507615 -1.5619524 -1.3135931
000210 97 8e 80 be 89 ca d8 3f ac c2 41 3f f3 97 4a 3f
       -0.25108787 1.6936809 0.7568767 0.79138106
000220 50 73 a9 3f bf 58 12 3b cb 1c e8 bf f3 1c 74 3f
       1.3238316 0.0022330729 -1.8133787 0.95356673
000230 3c 85 ca be 98 66 80 3f bf 74 25 bf 05 d0 31 3f
       -0.39554775 1.0031309 -0.64631265 0.6945804
000240 9c d9 78 bf 53 00 75 3f c2 d3 d0 3f d5 92 cb 3f
       -0.97207046 0.9570362 1.6314623 1.5904185
000250 cf 71 8d 3e a7 ef c3 bd 44 e4 4e bf a4 c0 1b 3e
       0.27625892 -0.095671944 -0.80817056 0.15210205
000260 8e 27 f4 3e e5 46 8f 3f 62 f6 0a bf f2 21 c3 3f
       0.47686428 1.119351 -0.542822 1.5244734
000270 d1 e6 22 c0 4f 3f e2 be cb d5 a9 bf 2d 1b 64 3f
       -2.545338 -0.44188926 -1.326837 0.89103967
000280 7b 31 fa bf 6d 19 9f 3e 67 71 5e bd 17 84 6e be
       -1.954635 0.31074086 -0.054307368 -0.23292576
000290 88 a4 a6 3e 4f 68 5b bf 79 ec 01 3e ec 50 91 bf
       0.32547402 -0.8570604 0.12687863 -1.135282
0002a0 5c c9 c9 bf 1d cf ba 3f 99 26 ac 3f 25 2a bf bd
       -1.5764575 1.4594456 1.3449279 -0.0933421
0002b0 86 ec d3 bf c1 18 6d 3f 3b f0 65 3f e6 7d 02 40
       -1.6556556 0.92615896 0.8981969 2.0389342
0002c0 fd 36 0c 3d 91 75 82 3d aa 82 59 bf af 2b b9 be
       0.03423213 0.0637008 -0.84965 -0.3616614
0002d0 d3 73 94 bf 85 54 cf bf 2d 69 95 bf 2c 67 0c bf
       -1.1597847 -1.6197668 -1.1672722 -0.5484493
0002e0 b1 69 23 bf c8 08 bf bf 97 94 ff bf bd 2a 29 3d
       -0.6383315 -1.4924555 -1.9967221 0.041300524
0002f0 53 43 89 3f 69 ec 14 bf a4 5a 3f 3f 20 9e 59 3f
       1.0723671 -0.58173233 0.7474768 0.85006905
000300 29 1f e3 3f c4 ea 6b bf 1e 63 76 3f 40 8d ac be
       1.7743884 -0.921551 0.9624499 -0.33701515
000310 55 71 96 bf 42 53 b7 3e 11 21 f5 3e 0b 46 ad 3f
       -1.1753336 0.35805708 0.4787679 1.3537
000320 01 ac 06 3f a1 2b 07 40 57 50 05 bf f4 97 6e bf
       0.5260621 2.112038 -0.52075714 -0.9320061
000330 ef 9a 3d 3e e5 ca 88 3f 85 3c a7 3f 6e 6f eb 3e
       0.18516134 1.0686918 1.3065344 0.45983452
000340 63 8b 50 bf f8 b7 82 bf 9f 66 fd be ce 9d 17 bf
       -0.8146269 -1.0212393 -0.49492356 -0.59225166
000350 00 05 1e 3e 39 ac e1 3e f0 d9 17 be 60 61 14 c0
       0.15431595 0.44076708 -0.1482923 -2.3184433
000360 0b c6 cb be 60 4d 8a 3f 5d f3 e3 bf a2 07 c1 3f
       -0.39799532 1.0804863 -1.7808644 1.5080454
000370 6b 6d 9e 3e 41 14 00 bf fc 7a 84 3f 5b 46 d8 3f
       0.30942854 -0.50030905 1.0350032 1.6896471
000380 1d 9f 93 bb 74 59 d5 3f 41 9d 1d 3e 5f b6 87 bf
       -0.0045050518 1.6667924 0.15392019 -1.060253
000390 b0 99 12 bf b8 25 ab 3d 65 c0 cc 3e 57 9e fe 3f
       -0.5726576 0.08356804 0.39990535 1.9892071
0003a0 30 6e 93 bd cf f5 67 bf 1a 1e 03 c0 07 60 8a bf
       -0.07198751 -0.9060945 -2.0487123 -1.0810555
0003b0 47 5e 90 3c f2 34 a0 3d 4a cb 45 3e b7 c0 d1 3e
       0.01762308 0.078225985 0.1931583 0.40967342
0003c0 7c db 6d bf e4 68 8d 3e bb f3 09 bf 97 d7 ec 3e
       -0.9291303 0.27619088 -0.5388753 0.46258232
0003d0 20 34 5f bf 53 27 de bc a1 dc b4 be aa 5f bb 3f
       -0.8718891 -0.02711836 -0.35324576 1.4638569
0003e0 12 b2 a0 3f 58 07 37 bf 75 9a 5a 3f 64 53 03 3f
       1.2554343 -0.7149558 0.8539193 0.5129912
0003f0 d0 2b 0a 3f f0 c4 10 3f 91 7b 01 3f e4 ca 63 3e
       0.539731 0.565505 0.5057917 0.22245365

rnn.weight_ih_l0 f4 [192, 64]
000000 b4 5f cb bd ab 80 92 be 25 7c 6c be 93 15 11 be
       -0.09930363 -0.2861379 -0.23094232 -0.14168386
000010 3e 80 11 be 33 84 46 3e e8 30 52 3d 99 51 1d be
       -0.14209077 0.19386367 0.051316172 -0.15363158
000020 7e c3 12 be e8 fb 83 bc e6 54 d4 3d c7 42 9c be
       -0.14332387 -0.01611133 0.103677556 -0.30519697
000030 ff 8b 11 be d2 7b 3d 3e fd 35 b4 3e 99 6f 64 bd
       -0.1421356 0.18504265 0.3519744 -0.05577049
000040 ec b8 03 be f8 72 cc 3d cf a8 86 3d 83 7b 97 be
       -0.12863511 0.09982866 0.065751664 -0.2958642
000050 8f ec ce 3c 45 73 9f bd 17 89 93 3c ff 43 b2 3e
       0.025259284 -0.07785658 0.018009705 0.34817502
000060 e7 10 4f 3e 90 74 a3 3d 16 f1 6f 3e 38 10 7a be
       0.20221291 0.07981217 0.2343181 -0.2442025
000070 5e 67 a2 be 23 dc cb 3d ca 51 8b 3d 63 4b dd bd
       -0.31719488 0.09954097 0.068027094 -0.108053945
000080 1f 5d 30 be 9b b6 85 bd eb 49 12 bc 86 52 05 bd
       -0.17223023 -0.0652897 -0.008928756 -0.032549404
000090 cf 3a 17 3d 76 58 5c be 2e f8 d3 3d de db b7 bd
       0.03692132 -0.2151812 0.10350071 -0.08977483
0000a0 39 3e 89 be 29 22 97 be 05 e3 57 3e 74 b9 5e 3e
       -0.26805285 -0.2951825 0.21082695 0.21750432
0000b0 a4 aa 1b 3e c9 f4 b2 3e 26 a0 81 3e a8 80 8b 3d
       0.15201813 0.3495238 0.25317496 0.068116486
0000c0 c0 c3 be 3d e8 83 c0 3e 53 f1 06 be 59 3e 96 bd
       0.0931468 0.37600636 -0.13177995 -0.073361106
0000d0 0c 0b d5 bd ec 73 24 3d aa 79 4b 3e c6 29 73 bd
       -0.10402498 0.040149614 0.1987063 -0.05936601
0000e0 23 d1 98 3e 45 49 24 3d f3 9f 07 be aa 55 20 3d
       0.2984706 0.040108938 -0.1324461 0.039144196
0000f0 2e 51 5c bd 8e 66 0a 3d 15 05 23 be 30 c2 ab bd
       -0.053788356 0.03378921 -0.15919907 -0.08386648
000100 88 34 c5 bd 2c 22 fd 3d 95 66 94 bc 98 3d 7d bd
       -0.0962916 0.123600334 -0.018115321 -0.06182632
000110 3c fb da be bc 70 32 3c 56 1e 00 bd cf bd 3d 3e
       -0.42769802 0.010891136 -0.03127893 0.18529437
000120 a6 ef 46 3b bd 39 6b bd 37 06 01 bd cf 12 26 be
       0.0030355244 -0.05742811 -0.031500068 -0.16218112
000130 15 dd 04 be f2 59 2a 3d d1 18 1d bd 5f 0a 8e 3e
       -0.12974961 0.041589685 -0.038353745 0.27742288
000140 a2 5a 61 3e 6b 93 32 be e4 76 e7 3d ca 4a 38 bc
       0.2200723 -0.17439048 0.113019735 -0.0112483
000150 a9 7e 93 3e 89 4c e5 3d 9d 22 c6 bc 0d 3a f1 3b
       0.28807572 0.111962385 -0.024186427 0.0073616565
000160 21 5c 08 3e b4 5e e9 3d 12 15 1e bd cb 9e 2f 3e
       0.13316394 0.11395016 -0.038594313 0.17150418
000170 70 ba 26 3e 46 ec 04 3e 99 6e c2 3d 99 cb 21 bd
       0.16282058 0.12980756 0.09493751 -0.039500806
000180 97 8f 33 3e 39 82 92 be d4 6f 1e be 00 6a 54 bd
       0.17535244 -0.28614977 -0.15472347 -0.051858902
000190 73 15 bb bc 73 d5 38 be 14 4b b5 3d b9 55 d2 bd
       -0.022837376 -0.18050174 0.08852211 -0.102702565
0001a0 cb 20 8a bd 68 fc d4 3c b5 ef 69 bb 96 32 3d be
       -0.06744536 0.025999263 -0.0035695855 -0.18476328
0001b0 d5 75 0b be 03 d5 fc bd 85 11 d4 be e2 44 e6 bc
       -0.13619168 -0.12345316 -0.41419616 -0.028109018
0001c0 43 1f 7a 3d ba 79 9c 3c 63 36 b7 3d b8 8f 6e bd
       0.06106497 0.019101012 0.0894592 -0.05824253
0001d0 49 be e2 3c 35 68 83 bd 29 1c 8b 3e db c9 6d 3e
       0.027678626 -0.0641636 0.27169922 0.23221533
0001e0 16 d3 5d bd 90 16 16 bc 70 04 61 be bc bb d1 bd
       -0.054156385 -0.009160653 -0.21974349 -0.102408856
0001f0 18 bb 28 3e fd 49 2d 3e 58 16 57 be bf 5b 90 3e
       0.1647762 0.16922756 -0.21004617 0.28194997
000200 73 7e 0a 3e be 47 8f 3d 25 6c 8e 3e 41 d2 eb bc
       0.13524799 0.069961056 0.27816883 -0.02878678
000210 04 bd 99 3d 45 66 79 bc 4d 08 c4 be 50 0c 05 bd
       0.07506755 -0.015222137 -0.38287583 -0.032482445
000220 3d 11 e6 3c aa ca 78 bd b8 0e ca 3d 7a 0d 2e 3d
       0.028084392 -0.06074015 0.09866089 0.04249332
000230 26 79 f0 bc a7 47 ec 3d 67 43 6f 3d a7 c9 0b 3d
       -0.029354643 0.11537104 0.05841389 0.034127858
000240 7a 83 33 3d a5 07 34 bd a7 d0 cc 3e f7 91 f5 bd
       0.043826558 -0.043952603 0.4000294 -0.11990731
000250 75 8f 05 bd a6 ef e7 bd c4 b5 f5 3d db 4b 4d be
       -0.032607514 -0.11325006 0.1199756 -0.20048468
000260 d6 c4 f4 bd b2 bb be bc 77 9f 87 3e 9a 85 b5 bd
       -0.11951606 -0.02328286 0.2648885 -0.08863373
000270 5b a1 cf 3c ea 5b b4 bd 41 17 35 3e 97 e9 11 bd
       0.025345495 -0.08806594 0.17684652 -0.03562316
000280 6e 53 7c be 16 b6 98 bd fc 3a aa 3d d4 3c ae be
       -0.24641201 -0.07456605 0.083120316 -0.34030783
000290 64 ae 91 bb 73 92 91 3c f1 fa ca bc 9e 54 ad bb
       -0.004445838 0.017770028 -0.024777861 -0.005289628
0002a0 c4 c0 df 3c 7d 6b c4 bd 72 29 45 3e 46 59 a0 3d
       0.027313598 -0.09590814 0.19254091 0.078295276
0002b0 2c 0c 60 be 82 15 bf bd 3a 6f 6f 3e b2 13 d3 3c
       -0.21879643 -0.09330274 0.23382273 0.025766227
0002c0 46 65 6a 3e 2f 3f 89 3e 33 41 67 bc 3e f0 13 be
       0.22890195 0.26806018 -0.014114666 -0.14447114
0002d0 3b 5b 08 be 4a cd 16 bd fd 3d 5e 3e 89 96 28 3e
       -0.13316052 -0.036816873 0.21703334 0.16463675
0002e0 c4 e2 c3 3d 3a a7 e2 bc 50 4c 97 3d 42 d0 49 3e
       0.095647365 -0.02766763 0.07387602 0.1970835
0002f0 78 0d c8 3d 86 3b 80 3e b4 0d 55 be a6 6a c7 3d
       0.09768194 0.25045413 -0.20806009 0.097371385
000300 0c 2c 71 bc d8 74 2e 3c 45 bb da bd 7b a7 18 3d
       -0.014719974 0.010647975 -0.1068025 0.037269097
000310 5a f2 92 3d be 59 59 bc 8d fc ae 3d 83 91 00 be
       0.07175131 -0.013266025 0.08544264 -0.12555508
000320 2e cf 9f 3e 4e 26 f5 bd 1a de 17 be a1 7a 8e be
       0.31212753 -0.11970197 -0.14830819 -0.27827933
000330 b0 ef a0 be 33 13 ae bd 23 55 0c bd 8b 7c 1f 3e
       -0.31432867 -0.08499756 -0.03426088 0.15574853
000340 c2 61 f4 3a 71 e8 4b 3c f5 27 40 3e 7a 03 43 be
       0.0018644857 0.012445555 0.18765242 -0.19044295
000350 61 c9 e2 3c 55 59 c0 bd ae b0 ac 3e 08 38 97 3d
       0.027683916 -0.09392039 0.33728546 0.07383734
000360 9a b9 7b 3d c1 c0 39 3e 72 00 de 3b ca 6a 36 3e
       0.0614563 0.18139936 0.0067749554 0.17814174
000370 83 fe 3a be 3f fe 1c 3e 7d f8 eb bd cd e1 1f bd
       -0.18261151 0.15331362 -0.11522005 -0.0390337
000380 be ec bf 3c 59 94 4d ba 20 b4 b7 bd 6b 59 9d 3e
       0.023428317 -0.0007842235 -0.08969903 0.30732283
000390 ae e0 c4 3d 69 3f 52 3e e9 2f 98 be 44 ff a0 bd
       0.09613167 0.20532002 -0.29724053 -0.07861188
0003a0 cf 28 ba bd 23 e4 13 be c7 d4 17 be ca 9a 7c 3d
       -0.09089815 -0.14442496 -0.14827262 0.061671056
0003b0 bb a9 81 3d 33 8b 20 be a2 0d 77 bd 91 9f 0c 3e
       0.06331202 -0.156781 -0.060315736 0.13732745
0003c0 06 3b 41 be 3a e9 57 be 56 7a 7f 3e 10 a8 bc 3e
       -0.18870172 -0.21085063 0.24949011 0.36846972
0003d0 c6 15 90 3e 87 6d a2 3e 77 85 38 3d 49 e8 f6 bc
       0.28141612 0.31724188 0.045049157 -0.03014006
0003e0 0d a7 ac 3e 75 c9 95 be 7c 28 62 3d 9d d8 33 3d
       0.337212 -0.29255262 0.05521439 0.04390775
0003f0 89 49 24 be a2 0c 05 3d cb 3b 2a 3e db 67 bf be
       -0.16043676 0.03248275 0.16624372 -0.37383923

rnn.weight_hh_l0 f4 [192, 64]
000000 68 88 97 be df c9 04 3c cf 5d d9 ba b9 3b 89 3e
       -0.29596257 0.00810477 -0.0016583743 0.26803377
000010 2a 99 cc 3e e3 36 20 3e 19 96 ee be 20 5f 9a 3e
       0.39960605 0.15645938 -0.4659889 0.301507
000020 ad d4 5a 3d ed c9 aa 3d fd d9 14 be 50 1b 31 bd
       0.05342548 0.083392955 -0.14536281 -0.043238938
000030 67 ce 5c 3e 89 63 99 3e 51 d3 9c 3d 48 29 0a be
       0.21563111 0.29958752 0.07657493 -0.1349231
000040 e6 3f 3a be b0 b7 41 3e 22 04 cc bc a0 87 9f 3e
       -0.18188438 0.18917727 -0.024904314 0.3115816
000050 26 e2 9a 3e 82 a8 4a 3e b9 8b 7c 3d 65 dc 4f 3e
       0.30250663 0.19790843 0.061656687 0.20298918
000060 49 35 06 be 72 68 7b 3e 8f 04 17 be ec ab 7f 3e
       -0.13106264 0.24551561 -0.14747833 0.24967927
000070 80 92 44 3e 0e 2e b4 bd f6 31 fe bd dc c0 70 3d
       0.1919651 -0.08797847 -0.12411873 0.058777675
000080 b3 ab a6 3c be 48 fc 3e 92 53 df 3c 54 57 21 be
       0.020345544 0.49274248 0.02726153 -0.1575597
000090 b3 21 b8 3e f7 85 29 3e 92 6f 27 be 5a 0a 00 be
       0.3596321 0.1655501 -0.16351154 -0.12503949
0000a0 b2 09 35 be 46 2e ee 3c 61 10 0f be 02 00 1e be
       -0.1767948 0.0290748 -0.13971092 -0.1542969
0000b0 4b 8e 6d 3e 56 4f 9f bd 25 73 f1 bd 85 e6 64 3b
       0.23198812 -0.07778804 -0.1178954 0.003492744
0000c0 60 2f 8e be 06 3a 9f be 50 6d 21 be fa c2 14 bd
       -0.2777052 -0.31098956 -0.15764356 -0.036318757
0000d0 aa 40 e6 be 60 71 20 be 8f d6 83 be 5a c3 c3 3c
       -0.4497121 -0.15668249 -0.25749633 0.023896862
0000e0 28 57 4d be 66 76 19 bd ea 76 4a be 42 9a 92 3d
       -0.20052779 -0.03746643 -0.19771925 0.071583286
0000f0 b1 4b 79 be 08 43 18 be 45 3a 07 bf 24 32 74 be
       -0.2434528 -0.1486932 -0.5282329 -0.23847252
000100 0a 51 f2 be 7d 8d 25 3d 31 1c 16 be b3 99 20 3e
       -0.47327453 0.040418137 -0.14659192 0.15683632
000110 7b c4 43 3e 7e f1 d4 bd 93 4f fa 3e 5c 11 1a be
       0.1911792 -0.103976235 0.48888835 -0.15045685
000120 e6 f7 85 3d 98 24 83 3e da f3 0a 3d 19 b3 58 bd
       0.065414235 0.25613856 0.03392396 -0.052905176
000130 c5 f7 29 bf 1c 14 7d be 4c 77 64 be 7e 92 93 be
       -0.6639369 -0.24714702 -0.22311133 -0.28822702
000140 49 9e 17 3e da ab 70 3e 07 19 dc 3d 3b 6d 9e 3e
       0.14806475 0.23503056 0.10746961 0.3094271
000150 c6 f1 1b be 1c f4 0a be 1c 1e a4 3d de 97 7c be
       -0.15228948 -0.13569683 0.080135554 -0.24667308
000160 64 c7 cd 3e e7 39 e3 3c 34 b6 d1 3d f1 a0 a9 3e
       0.40191185 0.02773757 0.102398306 0.331306
000170 3a ff 60 be 2a 83 41 3e 5a 77 20 bf 3f 92 25 3e
       -0.21972361 0.18897691 -0.62682116 0.1616907
000180 ee a9 52 bd 03 59 e0 3d 7b 08 00 bf 8d da 67 3d
       -0.05143159 0.10954478 -0.5001294 0.05660491
000190 ad 21 35 3e 14 13 a3 bd a5 b3 5f be 67 74 c3 bd
       0.17688628 -0.07962623 -0.21845873 -0.09543686
0001a0 65 42 5a 3d 58 d8 7c 3e b7 2c 96 3d 83 26 52 be
       0.053285975 0.24691904 0.073327474 -0.20522504
0001b0 1b d4 97 3d da cc e2 bd b1 23 cc bd 24 04 3a be
       0.07413503 -0.110742286 -0.09967745 -0.18165642
0001c0 bc cc 71 be 25 35 b3 3e c0 fc 02 bd 42 4c c8 3d
       -0.23613256 0.35001484 -0.031979322 0.0978017
0001d0 92 b9 b6 be be 79 55 3e 35 62 55 3e 32 20 3e be
       -0.35688454 0.20847222 0.20838244 -0.18566969
0001e0 a4 b1 29 be a3 64 b9 3e ed 68 c8 3d 51 92 3b bc
       -0.16571671 0.36209592 0.09785638 -0.011448459
0001f0 f3 eb 00 be a5 05 5c 3e cc 30 d8 be 49 78 cc 3e
       -0.12590007 0.21486528 -0.4222473 0.3993552
000200 bf 7d 68 3d 83 f4 b9 3c 4c e7 73 3e d0 18 05 3e
       0.056760546 0.0226996 0.23818702 0.12997746
000210 a4 05 df bd 06 f0 0a 3b 08 fb 9e bd 80 f5 a6 bd
       -0.10889748 0.0021200194 -0.07762724 -0.08152294
000220 68 f7 3d 3e b2 24 00 be 3b ea 19 be 23 80 3b bd
       0.18551409 -0.12513998 -0.15030758 -0.045776498
000230 a8 6d b4 be 1e 61 e3 bd 66 f5 13 3e f0 93 f5 bc
       -0.3523991 -0.11102508 0.14449081 -0.029977769
000240 1c 8b 2c be ce 64 10 be 54 ff 63 be 98 27 ed 3d
       -0.16849941 -0.14100954 -0.22265369 0.115798175
000250 6e d1 1a be b2 21 e5 bd 28 e3 d9 bd d6 c4 75 be
       -0.15118954 -0.111880675 -0.1063903 -0.24000868
000260 07 0c 96 3d 73 54 73 be 85 32 8f bd 9b 2c 08 3e
       0.07326513 -0.23762684 -0.06992058 0.13298266
000270 b8 87 f0 bd c4 05 a2 3d d9 b6 21 3e 80 8d bd 38
       -0.11744636 0.07911256 0.15792407 9.038579e-05
000280 67 c9 7e be 00 5d 8c bd 01 8e 91 3d 0c a8 3d be
       -0.24881516 -0.06853676 0.07107163 -0.18521136
000290 fc 92 6c 3c 61 0c 96 3d ab 92 38 3e 00 4e d2 3d
       0.014439341 0.0732658 0.180247 0.102687836
0002a0 b5 d5 07 3d 48 85 32 3e 9e 86 0c 3e e1 19 16 be
       0.03316279 0.17433655 0.13723227 -0.1465831
0002b0 7c d6 a8 3d 58 8c a7 bd 6d 04 1d bd ed ed a8 3d
       0.08244035 -0.08181065 -0.0383343 0.08248506
0002c0 82 e0 f6 3d aa 7b e2 bd b2 6a 44 be 79 e7 c7 3d
       0.1205454 -0.11058743 -0.19181326 0.09760947
0002d0 de 78 87 bd a2 43 11 3e 49 85 5e be e3 25 4f bd
       -0.066148505 0.14185956 -0.21730532 -0.05057324
0002e0 88 b8 b0 3e ae 8a 08 3e 4a 0e 01 3d f9 02 eb bd
       0.34515786 0.13334152 0.031507768 -0.11475176
0002f0 18 f0 a9 3d ab 2c 08 bc b4 24 ba 3d a8 59 1f 3e
       0.082977474 -0.008311431 0.09089032 0.15561545
000300 46 50 50 bc 61 e8 6f be 0c b1 64 3e c7 b1 5b be
       -0.012714451 -0.2342849 0.22333163 -0.21454535
000310 4b d2 0c be d0 e1 00 bd 73 b6 06 be b4 1c 90 bc
       -0.13752095 -0.03146535 -0.13155536 -0.017591812
000320 29 7b c0 bd 15 00 33 be 16 f5 6e be f1 7c 24 3d
       -0.09398491 -0.174805 -0.2333568 0.040158216
000330 d1 ce 42 bd 82 be 9b bd 44 66 c3 be d9 20 96 3e
       -0.047560517 -0.07604696 -0.3816396 0.29321936
000340 5c d2 07 3c 27 85 6b 3e 92 82 3b be 9e 95 a1 bd
       0.0082899 0.23000012 -0.18311527 -0.07889865
000350 40 c3 96 3d ae 2f a5 3c d7 a0 60 be 40 98 92 be
       0.0736146 0.020164337 -0.21936356 -0.28631783
000360 4f 78 20 3e ee d2 07 be 79 12 4a 3e 8e 4e 51 3c
       0.15670894 -0.13264057 0.1973361 0.012775077
000370 0a 14 8c 3e 08 27 2f bb c7 e4 35 be 81 e7 d0 bb
       0.2735904 -0.0026726145 -0.17763053 -0.0063752537
000380 f2 41 bd bd 20 0e 4c bd 15 86 e1 ba 11 cb 16 bd
       -0.09241094 -0.04981816 -0.0017206097 -0.036814753
000390 98 5b 45 3e 8e e5 0a 3e 5f 0f 12 3e d6 67 27 3e
       0.19273221 0.1356413 0.14263676 0.16348204
0003a0 79 52 93 bc 0f 42 fd bd 7b ff ad bd b8 e9 28 bc
       -0.017983662 -0.12366115 -0.08495995 -0.010309629
0003b0 d6 e6 65 bd 86 74 1e 3e 8f af fc 3d ca fb d5 3d
       -0.056128345 0.15474138 0.12338173 0.104484156
0003c0 4e 09 05 be 33 eb 80 be fb 03 5c be ef 16 7c bc
       -0.1299183 -0.25179443 -0.21485893 -0.015386327
0003d0 05 82 c2 be 83 6c 00 3e c1 1e 84 be b8 28 af 3e
       -0.37989822 0.12541394 -0.25804713 0.34210753
0003e0 b0 e3 09 bf 16 7c cc 3e 18 27 90 bd 18 ca 79 be
       -0.5386305 0.3993842 -0.070387065 -0.24393499
0003f0 1c 1b 99 3d 6e 8c 01 3e c9 84 c6 3d b8 79 80 be
       0.07475874 0.12651226 0.096932955 -0.25092864

rnn.bias_ih_l0 f4 [192]
000000 61 5e 6a 3d 25 eb d6 3d 08 d8 56 3e e9 f0 ae 3d
       0.057218913 0.10494069 0.20980847 0.08542044
000010 d1 2c c8 3d 81 89 2c 3e 74 07 a3 3c 0c 94 3c 3d
       0.09774173 0.16849329 0.019901015 0.046039626
000020 4b 7d 2e bc ac ac 66 3e 51 c1 1f 3e 24 d3 04 bd
       -0.010649989 0.22526807 0.15601088 -0.032427922
000030 dd 3d d5 3d 37 11 1d 3e 22 77 db 3d 3a 9a 05 bd
       0.1041219 0.15338598 0.10716082 -0.032617785
000040 4d c5 c7 bb d3 59 a6 bd ad 9c c7 3b f6 d6 67 3e
       -0.006096518 -0.08122601 0.0060916753 0.22640595
000050 a8 01 b1 3d ea b9 d2 3d e9 61 14 3e 4b e2 60 3e
       0.08642894 0.102893665 0.14490475 0.21961324
000060 7f 91 5a bd aa bc 85 bd 26 ec 78 3e b6 c4 40 bd
       -0.053361412 -0.065301254 0.24308833 -0.0470626
000070 20 b2 5b 3c 04 bf ec 3d 9f 23 11 3e 9c b6 e9 3c
       0.0134091675 0.11559871 0.14173745 0.028529458
000080 2d 5d 1b 3e 25 b3 ad 3d 7f 67 e7 bc aa 4c 74 3d
       0.15172262 0.08481435 -0.028247593 0.059643425
000090 be c2 08 bd 72 4a 69 3e ef 96 8a bd ef 96 b5 3d
       -0.033388846 0.22782305 -0.067670695 0.08866679
0000a0 e8 8c 05 3e 5d b4 0f bd fc 53 fc 3d 10 1f 84 bd
       0.13042033 -0.035084117 0.12320706 -0.06451237
0000b0 4c f0 4d 3e 85 3a 85 3c 1c af 10 3e 92 81 c4 bd
       0.20111197 0.016263256 0.14129299 -0.09595026
0000c0 06 69 cf 3d 18 3a 53 bd dc d9 06 3e b2 20 a6 3d
       0.101274535 -0.051569074 0.13169044 0.08111705
0000d0 6a 96 62 3d 73 73 9f 3d 68 2b 82 bc 96 cf 9e 3d
       0.055319227 0.07785692 -0.015889838 0.077544376
0000e0 cd 42 9a 3c d2 f6 f2 bc 8f a1 c7 bc 38 97 3d 3e
       0.018830681 -0.029658709 -0.02436903 0.18514717
0000f0 82 ea df 3d e5 11 6d 3c 0c 7a 62 bd 09 cb 11 3c
       0.10933401 0.014469598 -0.055292174 0.008898505
000100 11 18 b0 be 87 66 8f bd 52 67 4d be 1c dd 87 be
       -0.3439336 -0.070019774 -0.20058945 -0.2653588
000110 6a ac 6b bd 69 c4 87 be 28 0b 25 be 3e dd 78 be
       -0.057537474 -0.26517037 -0.16117537 -0.24303147
000120 50 51 1d 3d 7e 53 f7 bd 00 2c 53 be 32 da ef bd
       0.038407624 -0.12076472 -0.20622253 -0.11711539
000130 81 dc 2d be d7 26 17 be 43 ab 51 be 06 70 83 38
       -0.16978647 -0.1476091 -0.20475487 6.267433e-05
000140 b8 bf 60 3c 62 46 80 be 28 3c 17 3d 99 2f 46 be
       0.013717584 -0.25053698 0.036922604 -0.19354095
000150 68 31 20 bd 13 ad b2 be 75 eb da 3d 51 40 97 be
       -0.039109617 -0.3489767 0.10689441 -0.29541257
000160 b4 5a 85 be 4e 0a 27 be 3d f5 29 be da 45 0d be
       -0.26045763 -0.16312525 -0.16597457 -0.13796178
000170 df a1 25 be 6e b1 17 be 9f 9e da 3d ea 10 df bd
       -0.1617503 -0.14813778 0.10674786 -0.10891898
000180 57 23 5e bd e5 c5 b2 bd 14 b8 41 be be b9 b1 be
       -0.05423292 -0.08729152 -0.18917876 -0.34712023
000190 ca 01 7d be a6 13 5a be 8c 55 88 be 8b 21 31 be
       -0.24707714 -0.21296558 -0.26627767 -0.17297952
0001a0 b4 a5 5d be 51 1a 04 be 6d 37 0e be 0a bf 73 be
       -0.21645242 -0.12900664 -0.13888331 -0.23803344
0001b0 cc 7b f2 3c e5 96 94 bd 87 f2 62 be cf 50 a4 bc
       0.029600047 -0.07255343 -0.2216283 -0.020058064
0001c0 10 5d 9f be bc ca 30 bd f0 0a 53 bd fb 46 87 bb
       -0.3112569 -0.043162093 -0.051524103 -0.0041283346
0001d0 73 27 a4 be 62 1d d4 bd 04 cc 5a be cf 31 46 be
       -0.32061347 -0.10357167 -0.21366888 -0.19354938
0001e0 62 77 c7 3c 32 56 97 bd bd 86 3d be a5 7d 62 be
       0.024348918 -0.07389487 -0.1850843 -0.22118242
0001f0 cd 18 a1 be 32 b4 ae bc cc b6 92 be d2 c6 38 be
       -0.31464234 -0.021326158 -0.28655088 -0.18044594
000200 c9 9d 38 3e 9d a0 1b be 3c 11 93 3a 42 2c 00 be
       0.1802894 -0.15197988 0.0011220346 -0.12516883
000210 47 87 9c bd 08 ff 85 bd 37 e5 0d 3e 12 50 8a bd
       -0.076429896 -0.06542784 0.1385697 -0.067535535
000220 dc 5e 27 bc 0b 1d db 3d 8a bc cb bd 4c a7 80 bd
       -0.010215487 0.10698899 -0.0994807 -0.06281909
000230 5e bf 36 3d d8 de e8 bd 93 7b a9 3d a8 fe 1e 3e
       0.044616096 -0.11370629 0.08275523 0.15526831
000240 73 db 86 3d e5 26 c5 3c a3 c5 0d be 09 e7 d1 3c
       0.06584825 0.024066398 -0.13844924 0.025622861
000250 b3 7e e0 bd 4b 53 f6 bc 76 2c c1 3d a9 3e 1d be
       -0.10961666 -0.030069014 0.094323084 -0.15355934
000260 39 c3 1b be 66 93 0e 3e fd da c1 bd 38 72 a4 3a
       -0.1521119 0.13923416 -0.09465597 0.0012546247
000270 2c 98 85 3c 47 81 8e bc 04 b2 dc 3c f4 f0 79 3d
       0.016307913 -0.017395629 0.026940353 0.061020806
000280 20 ab 01 3c 3d 61 07 bd 52 75 31 3c 0f 7c 16 bd
       0.007914335 -0.033051718 0.010831194 -0.036739405
000290 87 8a 2a bd 3c ca c9 3a 84 41 3c bc 02 82 11 3d
       -0.041636016 0.0015395354 -0.0114902295 0.035524376
0002a0 b1 ce 92 3e 04 1b 88 3d de 28 6a be 20 f7 8f 3d
       0.28673318 0.06645778 -0.22867152 0.07029557
0002b0 1d e6 af 3d 68 90 49 3b a1 51 b3 bc e8 b5 4f 3b
       0.085888125 0.003075624 -0.02188951 0.0031694118
0002c0 ff 99 84 3c 6e 9b af 3c e8 d8 35 be b3 61 b8 bc
       0.016186712 0.02143642 -0.17758524 -0.022507524
0002d0 fa da 65 3e a3 bc 43 3e 0e 59 33 3d 75 c7 c9 3c
       0.22446814 0.19114928 0.0437861 0.024631241
0002e0 da a0 0b bd 1b be 94 bd 6a 8e e5 bc d4 da 00 be
       -0.034088947 -0.07262822 -0.02802201 -0.12583476
0002f0 db a6 d5 3c 56 07 75 3d 45 bb 3c 3e e0 da 9b bd
       0.02608054 0.05982145 0.18430813 -0.076101065

rnn.bias_hh_l0 f4 [192]
000000 5c 4e f0 bd 58 93 b1 3c 09 8e db 3d 85 20 89 3b
       -0.11733696 0.021676704 0.107204504 0.004184785
000010 e9 43 c8 bd 4f 70 6e 3d 66 48 86 bc 25 72 80 3c
       -0.09778578 0.058212575 -0.016391944 0.015679428
000020 1e 20 31 3e b2 31 97 3d 80 65 2f 3e 50 e8 72 3d
       0.17297408 0.073825255 0.17128563 0.05930358
000030 ff 2d 05 3d 33 ba 11 3e 94 36 c6 3d 4f 7a 6b 3d
       0.03251457 0.14231186 0.09678379 0.05748969
000040 bd 6a c4 3b fe 75 02 3e 89 48 03 3e 74 c1 14 3e
       0.0059941695 0.12740323 0.12820639 0.14526922
000050 b6 52 b9 3d 26 33 b5 bd 7d 62 b8 bc 90 e9 1c 3e
       0.09048979 -0.088476464 -0.0225079 0.15323472
000060 55 de 91 bd b8 a2 c2 3d 56 2e 65 3e 85 4e 52 3d
       -0.071224846 0.095036924 0.22380957 0.051344413
000070 83 87 50 3d 58 8c 37 3d eb 8a 26 bd ce 35 13 3e
       0.050910484 0.044811577 -0.040659826 0.14375994
000080 a8 97 8a 3d 16 7d 3d 3e bb 15 3e 3e c0 a5 88 bc
       0.067672074 0.18504748 0.18562977 -0.016680598
000090 9e 84 28 bc 52 2b 28 3e 32 b1 6f bd 2c 91 fa 3d
       -0.010285525 0.16422775 -0.058518596 0.122347206
0000a0 92 fd 52 3d 5c 10 91 3d 01 6d 00 bd 31 32 7f 3d
       0.051511355 0.070831984 -0.031353954 0.062303726
0000b0 2a 81 55 3b ea a3 ae 3d c8 44 6f 3d a5 f3 cc bd
       0.0032578208 0.08527358 0.058415204 -0.10007409
0000c0 67 a4 8c 3d 5a 2a 2a bd a8 12 b9 3c 02 e9 19 3e
       0.06867295 -0.041544296 0.022591904 0.15030292
0000d0 47 66 3e 3e 49 91 c2 3d 01 a7 f4 3c 59 a3 3a 3c
       0.18593703 0.09500367 0.02986479 0.011391484
0000e0 d0 31 91 3d fd 3e aa 3c d1 e5 c0 38 8c 23 9d 3d
       0.07089579 0.020781988 9.19808e-05 0.07672796
0000f0 06 de 75 3e 0f 94 3c bd 42 2a 2b 3d ec 9f 43 3d
       0.24010476 -0.046039637 0.041788347 0.047759935
000100 d4 38 11 be 1d 94 99 bb 19 c3 1c bd 89 0d 1f be
       -0.14181834 -0.004686846 -0.038271997 -0.15532507
000110 46 f0 2c be 7c 27 e8 bc 41 52 98 be 2d 13 80 be
       -0.16888532 -0.02833914 -0.29750255 -0.2501463
000120 93 dd 12 be 7e 94 0f bd ec 21 72 bd dd e4 92 be
       -0.14342336 -0.035053723 -0.05911438 -0.28690234
000130 9d a2 07 be 27 a6 2e be aa 5d e7 bd 41 f9 ca bd
       -0.13245626 -0.1705557 -0.11297162 -0.09910823
000140 62 7b d0 bd 87 5e 42 be cf 49 11 be 14 1a a1 3c
       -0.101797834 -0.18981372 -0.14188312 0.019665755
000150 7e 0a 34 be 15 fb 69 be 80 24 39 bd 4e c7 82 be
       -0.17582127 -0.22849686 -0.045200825 -0.25542682
000160 ce dd b9 bd 55 5c 85 be c4 a9 a0 bd 09 7b 12 be
       -0.09075509 -0.26047006 -0.0784488 -0.14304747
000170 ae 48 61 bd d1 5e 86 be b4 6e c9 3d bc 30 6c bd
       -0.055000953 -0.26244214 0.09835568 -0.057663664
000180 b4 a8 83 3c 12 86 2a bd 15 2b 81 bd ea 64 2d be
       0.016071655 -0.041631766 -0.06307045 -0.16933027
000190 0e 07 ff bd 72 bf 37 be df 6e 6e be e3 d8 2d be
       -0.124525174 -0.17944124 -0.23284481 -0.16977267
0001a0 5d a6 5d be 10 37 12 be cb 4b a2 be 8a 3b 7f be
       -0.21645494 -0.14278817 -0.3169845 -0.24925056
0001b0 a8 b6 2c be f7 26 0e be a1 29 4f be 3b 17 40 3d
       -0.16866553 -0.13882051 -0.20230724 0.046897154
0001c0 81 2b 54 be 65 7b d1 bb 14 dc cc bd 3c ec a9 bd
       -0.2071972 -0.0063928836 -0.10002914 -0.08297011
0001d0 d7 8f f5 bd 9b f3 23 bd be fa 53 be c0 43 c0 bc
       -0.11990326 -0.040027242 -0.2070112 -0.023469806
0001e0 d7 b7 b7 bc c6 a9 7e bd 1b 24 b0 be 63 df 50 be
       -0.022426529 -0.062173627 -0.34402546 -0.20397715
0001f0 13 60 f6 bd cb 47 31 bd b0 8a 82 be 91 0f fc bd
       -0.120300435 -0.043281358 -0.25496435 -0.123076566
000200 7b fe 93 3e bc ac 3e 3d 9f 5f 1b 3e 90 94 4f 3e
       0.2890509 0.04655145 0.15173195 0.20271516
000210 95 aa db bb 26 f2 d0 bd c7 c0 d2 bd 1a c3 7d be
       -0.0067036846 -0.10202436 -0.102906756 -0.24781457
000220 74 19 9e 3e d1 c1 2f 3d d0 da 57 be 0b 92 89 bd
       0.30878794 0.042909447 -0.21079564 -0.067173086
000230 c7 bf 2b be 8c e6 0e 3d c4 ff 00 3e 22 ad 7b be
       -0.16772376 0.034887835 0.12597567 -0.24577764
000240 2a 97 c0 bd 42 3d 2f be 2b 5f 82 bd 92 17 7b 3e
       -0.09403832 -0.17113212 -0.06365808 0.2452071
000250 39 7f 8f be 6e 57 7f bd a6 90 9a bc f1 b1 5d be
       -0.2802675 -0.06233924 -0.018867802 -0.2164991
000260 67 27 ef bb fd 63 56 be 57 30 58 be 8e 70 27 3d
       -0.0072983983 -0.2093658 -0.2111219 0.040878825
000270 83 a8 ff bd 45 17 1e 3e be 32 29 3e 02 d2 40 3e
       -0.12483313 0.15438564 0.16523263 0.18830112
000280 8e 9f 34 be 6c 97 96 3d a4 5d 53 be 6c a9 a3 be
       -0.1763899 0.073531 -0.2064119 -0.31965196
000290 68 71 a0 bc 17 b2 94 3e 4a 65 81 3e 17 8c f3 3c
       -0.019585326 0.29042122 0.2527259 0.029729886
0002a0 40 c0 b6 3c 3e 6c 62 3c 1c 62 31 3e 07 e3 33 be
       0.022308469 0.013819752 0.17322582 -0.17567073
0002b0 44 a3 93 bd 56 02 4d bd f0 de a7 b9 69 58 6b 3e
       -0.07208875 -0.050051056 -0.00032018824 0.22982945
0002c0 31 83 f1 3d 16 e4 0a be b2 ef 1e be a9 08 eb 3c
       0.11792601 -0.1356357 -0.15521124 0.028690653
0002d0 c9 16 87 be 3f e9 19 3e 71 37 16 be f7 ab 0f be
       -0.2638457 0.15030383 -0.14669587 -0.14030443
0002e0 c6 bc f4 3d d9 60 b4 3d f4 d3 62 3e 11 45 03 be
       0.11950068 0.08807535 0.22151166 -0.12819315
0002f0 21 e4 b1 3d 3d fa d2 bd 76 24 cc bd 82 8a 3c 3d
       0.0868609 -0.103016354 -0.09967892 0.04603053

fc.weight f4 [88, 64]
000000 ea 53 7d be 31 b1 bf be de 79 cc be d1 0f 91 be
       -0.24739042 -0.37439874 -0.39936727 -0.2833238
000010 be e1 93 be ec cf 93 3e f7 d5 18 3e ba 88 8d 3e
       -0.28883165 0.2886957 0.14925371 0.27643377
000020 1e c6 93 bd 15 d1 e7 bd 27 3e 8c 3e b3 37 13 3e
       -0.07215522 -0.11319176 0.27391168 0.14376716
000030 9b 27 de 3e 32 08 62 be 07 fd c2 be ed 7e 85 3e
       0.43389592 -0.22073439 -0.3808367 0.260734
000040 24 e4 ff 3e a0 ef 57 3e 54 1c df 3e 80 6e ee be
       0.49978745 0.21087503 0.435763 -0.4656868
000050 31 7e 95 3e ac d0 c6 3d 27 60 db be d0 4e 9e 3e
       0.2919784 0.0970777 -0.42846796 0.30919504
000060 35 dd 1b bd 64 77 c8 3e 01 97 a8 3e cb b5 f0 bd
       -0.038052756 0.39153588 0.32927707 -0.11753424
000070 31 dc fd 3c 00 cc 75 be 52 29 1e be ba eb 91 be
       0.030988785 -0.24003601 -0.1544545 -0.28500158
000080 28 95 36 3f 68 d1 51 be 80 1b 4c be 89 3d aa 3e
       0.71321344 -0.20490038 -0.19932365 0.33250073
000090 09 fd d9 3e 70 02 af be 0d ba a5 be 34 9d b7 be
       0.42575863 -0.34181547 -0.32368508 -0.35862124
0000a0 fb 82 bf be a6 f3 07 bf 09 3b e6 3d ee 3b 7b be
       -0.37404618 -0.53106153 0.11241729 -0.2453458
0000b0 b2 df 84 be 66 8d 9c 3e 3f 7d 24 be a8 f8 1c be
       -0.25951916 0.30576628 -0.16063403 -0.1532923
0000c0 7a 42 ce be b0 f8 53 3e c4 e0 a6 3e ad 4f 65 be
       -0.40285093 0.20700336 0.32593358 -0.22393675
0000d0 00 74 64 3e 57 35 cc be 3c 1b a7 be 6c d8 9b 3e
       0.22309875 -0.39884445 -0.32637966 0.30438554
0000e0 0d 50 a2 be 91 bb 38 3c a3 b6 9e bd fd d2 d7 3e
       -0.317017 0.011275188 -0.07749679 0.4215316
0000f0 6c 2f f4 bc 98 29 66 3e 81 db 42 3e 1e fc aa be
       -0.029807769 0.22476804 0.19029047 -0.33395475
000100 49 e3 2d be f4 62 ab be be dd c7 be 20 58 7b be
       -0.16981234 -0.33473933 -0.39036363 -0.24545336
000110 3c c1 8e be 9d 33 9a 3e c3 38 37 3e c9 10 82 3e
       -0.278818 0.30117503 0.17892747 0.2540343
000120 b2 2a b5 bd d5 12 a2 bd c5 df ac 3e a2 b9 87 3d
       -0.08846034 -0.07913748 0.33764473 0.066272035
000130 96 45 d3 3e f3 48 8b be 5c e7 c2 be 62 a2 ac 3e
       0.41264027 -0.27204093 -0.38067138 0.33717638
000140 dc 33 03 3f 91 05 5f 3e 72 c1 f2 3e 34 ad c5 be
       0.51251006 0.21779467 0.47413212 -0.38608706
000150 0c 36 80 3e 20 82 28 3e 1b 75 c1 be 23 77 b9 3e
       0.25041234 0.16455889 -0.37784657 0.36223707
000160 e6 58 52 bd f2 65 a3 3e eb 92 bf 3e 74 13 f3 bd
       -0.05135431 0.31913716 0.37416777 -0.11868945
000170 90 f4 a7 3d e0 2e 6d be b2 01 21 be 94 f5 88 be
       0.082009435 -0.23162413 -0.15723303 -0.2674986
000180 60 9b 26 3f 21 9a 97 be a8 4b 54 be de 7f bb 3e
       0.65080833 -0.2960978 -0.20731986 0.36620992
000190 b8 64 9b 3e 24 75 b7 be 4f 5a b3 be 88 3a a5 be
       0.3035028 -0.3583156 -0.35029837 -0.32271218
0001a0 6b f0 d5 be 84 2c f1 be e9 c5 e2 3d 2e 72 88 be
       -0.41784987 -0.47104275 0.110729046 -0.26649612
0001b0 f3 3a bf be f4 4e 91 3e 4b c6 14 be 4d d0 ed bd
       -0.37349662 0.2838055 -0.14528768 -0.11611996
0001c0 3e e7 9f be d1 9a 60 3e a3 dd a7 3e 5a fc 43 be
       -0.3123111 0.21934058 0.32786283 -0.19139233
0001d0 f9 f1 3c 3e f3 6a bf be 99 59 96 be dc dd 81 3e
       0.1845168 -0.37386283 -0.29365233 0.25364578
0001e0 c8 11 aa be 2d 8f a3 3c ae c3 ef bd 31 5b cd 3e
       -0.3321669 0.019965732 -0.11707245 0.40108636
0001f0 87 f2 be bc fc f2 08 3e f8 38 59 3e 60 fa a8 be
       -0.023309005 0.13373941 0.21213138 -0.3300352
000200 73 33 a1 be ac 86 dd be f9 80 d5 be ab a7 95 be
       -0.31484565 -0.4326681 -0.4169996 -0.29229483
000210 5d 1e 89 be 06 55 91 3e 49 d7 de 3d a0 6c 73 3e
       -0.26780978 0.2838518 0.10880906 0.23771906
000220 99 18 ce bc f8 e6 d8 bd 95 62 97 3e 43 70 ec 3d
       -0.025158213 -0.10590929 0.295674 0.1154485
000230 68 a9 e8 3e 52 46 6c be fd 36 d2 be c1 34 9d 3e
       0.45441747 -0.230737 -0.41057578 0.3070431
000240 6a 3e de 3e 6e f5 68 3e b7 d8 f5 3e f0 70 b7 be
       0.43406993 0.22749874 0.48016903 -0.35828352
000250 59 e5 a3 3e 2a 65 c0 3d 00 f7 b5 be 11 1d a4 3e
       0.32010916 0.093942955 -0.3554001 0.32053426
000260 ba 35 02 bd ec 3d cb 3e 21 96 ba 3e 3a 8d fe bd
       -0.03178952 0.3969568 0.36442664 -0.124292806
000270 52 38 cc 3c eb 81 74 be 34 4d 0d be d0 51 6a be
       0.0249292 -0.23877685 -0.13798982 -0.22882771
000280 57 d5 36 3f a1 e0 63 be df 63 44 be 1d 3c 90 3e
       0.7141928 -0.22253658 -0.19178723 0.28170863
000290 86 58 ba 3e 8a 12 b2 be ea fa bc be b7 47 9d be
       0.36395663 -0.3477977 -0.36910182 -0.30718777
0002a0 79 76 b7 be 03 47 1b bf d9 a7 bf 3d c8 c6 a0 be
       -0.35832575 -0.6065523 0.09358186 -0.31401658
0002b0 1e 21 af be 2f af a4 3e c7 ae cd bd bb 80 c2 bd
       -0.34204954 0.32164904 -0.10043102 -0.0949721
0002c0 65 d0 e1 be 70 03 35 3e d6 9d e9 3e 58 55 8d be
       -0.44104305 0.17677093 0.45628232 -0.27604175
0002d0 e2 1e 36 3e 23 08 ce be af 1d 91 be 55 92 90 3e
       0.17785218 -0.40240583 -0.2834296 0.28236642
0002e0 e5 a9 83 be 41 68 26 bc 51 8a 9e bd 4a f0 f4 3e
       -0.25715557 -0.010156692 -0.077412255 0.47839576
0002f0 73 3d a2 bd 8e 79 42 3e f4 c7 24 3e 91 d5 94 be
       -0.07921877 0.18991682 0.16091901 -0.29069188
000300 47 25 2c 3e 97 6b 34 3e 35 57 2f 3e 62 6e 35 3e
       0.16811095 0.17619167 0.1712311 0.17717889
000310 8d ab 2b 3e 1c 68 33 be 95 0f 1b be ab c3 6b 3e
       0.1676466 -0.17520183 -0.15142663 0.2302386
000320 f7 d7 36 3e a6 ba 99 be d2 e3 28 be a1 26 6d be
       0.17855822 -0.30025214 -0.16493157 -0.23159267
000330 49 66 ed bd 74 a2 0d 3e 9e 8b d0 be 30 a5 34 be
       -0.11591775 0.13831502 -0.4073152 -0.17641139
000340 d3 d8 3e be 31 68 18 be b6 eb 05 be b9 60 54 3e
       -0.186374 -0.14883496 -0.13078198 0.20740022
000350 e7 11 1e be 75 a3 04 be d4 ad ab be 18 94 1d be
       -0.15436517 -0.12952979 -0.33531058 -0.15388525
000360 8a a3 31 3e 98 21 b7 bd 09 09 4b be 26 3b 41 3e
       0.17347541 -0.089419544 -0.19827665 0.1887022
000370 85 c6 81 3e 86 65 2e 3e 85 a4 4a 3e dc bc 0f 3e
       0.2534677 0.17030916 0.19789322 0.14036888
000380 05 a3 22 be 2c a1 4d bd 42 df 81 be 83 85 07 be
       -0.158825 -0.050202534 -0.25365645 -0.13234524
000390 e7 1d 1f be d2 47 3d 3e 7b cf 33 3c f7 a6 1a 3e
       -0.1553875 0.18484429 0.01097476 0.15102755
0003a0 78 8e 99 be 66 56 c9 be 02 f5 22 3e d8 c8 c5 bd
       -0.29991508 -0.3932373 0.15913776 -0.096574485
0003b0 b6 70 8b be a9 47 37 be d9 9b 62 3e 8d 42 5b 3e
       -0.2723443 -0.1789843 0.22129764 0.21412106
0003c0 ca ea 4a 3e 20 5a 64 be f9 96 1f be b8 2b 4c 3e
       0.19816127 -0.22300005 -0.15584935 0.19938552
0003d0 9a 7c 1a ba 8a f9 80 be 9a 43 5f be 73 6b 57 be
       -0.0005893201 -0.25190383 -0.21803132 -0.21037082
0003e0 2a e4 6d 3e 96 6a 27 3e 0a 46 e7 3d 18 34 3b be
       0.23231569 0.16349253 0.11292656 -0.18281591
0003f0 20 53 41 be 3c db 62 be 60 4c 1b 3e af 63 e4 3d
       -0.18879366 -0.22153944 0.15165854 0.11151826

fc.bias f4 [88]
000000 22 a2 96 be ca 6c ba be ac e9 fe be 22 82 12 3f
       -0.29420573 -0.36411124 -0.49787652 0.57229817
000010 59 17 eb bd 4c 06 c1 3e fd 5d 5a 3e f1 99 fa 3e
       -0.114790626 0.37700117 0.21324916 0.48945573
000020 c0 da 8d 3d cc 50 c9 3c d1 c3 26 be 3d ab d2 3c
       0.06926489 0.02457466 -0.16285636 0.025716418
000030 be a9 af bd 76 45 b0 be 78 e4 4e 3e fb d5 32 3e
       -0.08577298 -0.34427994 0.20204341 0.1746444
000040 9e ad 4e be 79 41 01 bd cb 56 08 3f 01 da 3c be
       -0.20183417 -0.03155658 0.53257436 -0.18442537
000050 d4 8e 7b be 30 8f 07 be fe 59 a4 bd b3 e9 10 3f
       -0.24566203 -0.13238215 -0.08024977 0.56606597
000060 b2 64 9e bd b2 cf a8 3e e0 d3 a3 be e3 8c af 3e
       -0.0773405 0.3297096 -0.31997585 0.34287176
000070 47 bb 1c be 3a d9 0c be 3d f3 86 bc 9d bd 90 3e
       -0.15305816 -0.1375474 -0.016473407 0.28269663
000080 ef 36 31 bd 63 e6 bd be 36 c2 72 be 75 1b 94 be
       -0.04326528 -0.37089834 -0.23706898 -0.28927198
000090 2b 66 95 be 2f bc 0d be cc 08 de be 95 fa 17 bf
       -0.2917951 -0.13841318 -0.43366086 -0.5936673
0000a0 0f ba cc be fa 64 06 be b3 23 cb be 11 89 10 bd
       -0.399857 -0.13124457 -0.39675674 -0.035286967
0000b0 60 c8 5c be 94 55 c6 be 6a fb 68 be 79 6a 98 be
       -0.21560812 -0.38737166 -0.22752157 -0.29768732
0000c0 e3 f9 ad be 19 25 8e be ce e0 0f bf 88 f8 9b be
       -0.3397971 -0.27762678 -0.562024 -0.30463052
0000d0 9f 69 ee be c8 f2 f8 bd a7 8d e1 be 16 96 f5 be
       -0.46564957 -0.12155682 -0.44053385 -0.4796607
0000e0 8e e9 9d be 93 88 00 bf d4 92 f3 be c1 1a 02 bf
       -0.3084225 -0.50208396 -0.47572958 -0.50822073
0000f0 e0 3a 29 bf 15 b4 c6 be da 08 37 bf 7e 96 04 bf
       -0.6610546 -0.38809267 -0.7149788 -0.5179213
000100 68 7b ba be 6f d0 15 bf 0c 16 33 bf 44 85 21 bf
       -0.36422276 -0.5852117 -0.69955516 -0.6309397
000110 87 e7 10 bf 41 97 d8 be d2 04 02 bf 5b 61 c9 be
       -0.5660328 -0.42302898 -0.50788605 -0.3933209
000120 01 07 08 bf 8b bc 1d bf 9d 26 8a be 06 17 c2 be
       -0.5313569 -0.6161582 -0.26982585 -0.3790819
000130 41 3a ac be 3e cc 03 bf fd 74 d0 be 93 1b 1d bf
       -0.33638194 -0.51483524 -0.40714255 -0.613702
000140 34 3f ba be 61 66 f8 be 84 0c be be 1c e0 0e bf
       -0.36376345 -0.4851561 -0.37118924 -0.55810714
000150 68 e6 b5 be c2 2b 25 bf f7 1c c6 be ed 65 8c be
       -0.3552735 -0.64519894 -0.38693973 -0.27421513
