model.pth (torch, 98293 bytes, 9 tensors)

emb.weight f4 [80, 100]
0	0x3e5e1b15	0.21690018
1	0x3ee7ae46	0.45250148
2	0xc0049e82	-2.0721745
3	0xbd666ccd	-0.056256104
4	0x3fa1c98a	1.263963
5	0x3f07cc73	0.5304634
6	0xbecbdc46	-0.39816493
7	0xbf592a7c	-0.8483045
8	0x400e7b2b	2.2262676
9	0xbe6585fc	-0.22414392
10	0x3faeaa74	1.3645768
11	0xbfe4b103	-1.786652
12	0xbf9408fd	-1.1565243
13	0xbcaf29dc	-0.021382265
14	0x3f0adff7	0.54247993
15	0xbfa02e7a	-1.2514184
16	0x3ec600b0	0.386724
17	0xbf354147	-0.7080273
18	0xbf75ad49	-0.9596754
19	0x3ecc2dfd	0.39878836
20	0xbe385fd9	-0.18005313
21	0x3ea3aaa2	0.3196612
22	0xbfc90da7	-1.5707291
23	0xbf1f87e6	-0.6231674
24	0xbf91dc74	-1.1395402
25	0xbec8be08	-0.39207482
26	0x3edb73bc	0.42861736
27	0x3ee0e40c	0.43923986
28	0xbe153134	-0.14569551
29	0xbe46260a	-0.19350448
30	0xbec6bb87	-0.38814947
31	0xbe8d4089	-0.275883
32	0xbe5a8757	-0.2134069
33	0xbf8122c7	-1.0088738
34	0x3edaeea4	0.42760193
35	0xbd44cb37	-0.048045363
36	0xbe99e88b	-0.3006023
37	0x3f20ed68	0.62862253
38	0x3ee9c4cc	0.45657957
39	0x3ce60887	0.028080238
40	0x3eda1b15	0.42598787
41	0xbf88f88f	-1.0700854
42	0xbeba73f3	-0.36416587
43	0xbefc3623	-0.49260053
44	0x3f264eb5	0.6496385
45	0x3fa8356d	1.3141304
46	0x3f33d674	0.70249104
47	0x3f22e6af	0.63633245
48	0x3f0167df	0.5054912
49	0x3fbce160	1.4756279
50	0x3f86b57b	1.0524133
51	0xbe2c8184	-0.16846281
52	0xbe454b12	-0.19266918
53	0x3e612c37	0.21989523
54	0xbe259a78	-0.16172206
55	0xbea3e60d	-0.32011452
56	0x3cdc490f	0.026890306
57	0xbf6a2c2e	-0.9147366
58	0xbfb1a1e8	-1.3877535
59	0xbf9460ff	-1.1592101
60	0x3f732492	0.94977677
61	0x3f112aa9	0.5670572
62	0xbfaa0436	-1.3282535
63	0x3f8b0593	1.0861076
64	0x3ebf47a3	0.37359342
65	0xbf1bb352	-0.60820496
66	0xbec50dfd	-0.38487235
67	0xbefe4d03	-0.4966813
68	0x3f1da1ea	0.61575186
69	0x3f365f94	0.7123959
70	0x3e87c016	0.26513737
71	0x3f6b0370	0.9180212
72	0x3f0f5769	0.5599275
73	0xbf49002d	-0.78515893
74	0xbfa97e0a	-1.3241589
75	0x3f50d66d	0.8157719
76	0xbf6ca3eb	-0.9243762
77	0x3f0200db	0.50782555
78	0xbeda6548	-0.42655396
79	0x3f3763bb	0.7163655
80	0xbe779f9d	-0.24181981
81	0x3e7f1403	0.24909978
82	0x3fc4d2c8	1.5376825
83	0xbf48ec51	-0.7848559
84	0xbe19558b	-0.14974038
85	0x3d465732	0.048423
86	0x3f1e75d1	0.61898524
87	0xbf796145	-0.97414047
88	0xbfca06a3	-1.5783275
89	0xbeae2d9a	-0.34019166
90	0x3f5388ac	0.8263042
91	0x3f4f7caa	0.810496
92	0x3f5019be	0.8128928
93	0x3f254662	0.6456052
94	0xbdc781d4	-0.097415596
95	0xbd1ba804	-0.03800203
96	0x3f40cfbc	0.7531698
97	0xbe9a4df2	-0.30137593
98	0x3e1f74c1	0.15571882
99	0xc02e5241	-2.7237704
100	0xbe0ff500	-0.14058304
101	0x3f97a800	1.1848145
102	0x3dc614a8	0.096719086
103	0x3f9b02a5	1.2110182
104	0xbf166392	-0.5874568
105	0xbdc66477	-0.09687131
106	0x3ed6cbf8	0.4195249
107	0xbf59b074	-0.8503487
108	0xbf4354b4	-0.7630112
109	0xbf0e06a2	-0.5547887
110	0x3f7abfe2	0.9794904
111	0xbeb27967	-0.34858248
112	0x3bb79850	0.005602874
113	0x3ee56446	0.44803065
114	0xbed187fb	-0.40924057
115	0xbe5bd2bd	-0.21467109
116	0xbe6dad6b	-0.23210685
117	0xbf17fed6	-0.59373224
118	0x3f133402	0.5750123
119	0xbf3a3ec0	-0.72752
120	0xbf10de81	-0.56589514
121	0x3f37c59a	0.7178589
122	0x3e693b30	0.22776484
123	0xbffe6c34	-1.9876771
124	0xbe984868	-0.29742742
125	0xbfed7235	-1.8550478
126	0xbf8c5b7a	-1.0965416
127	0xbef83232	-0.48475796
128	0xbf97c80a	-1.1857922
129	0x3fbdae34	1.4818788
130	0x3f47798d	0.77919847
131	0xbeeaee51	-0.45884946
132	0x3f9b7543	1.214516
133	0xc014d321	-2.3253863
134	0xbf5015bb	-0.8128316
135	0x3e9ea97f	0.3098869
136	0xbf27f15a	-0.6560265
137	0xbe95f027	-0.29284784
138	0x402531fa	2.5811753
139	0x3fb2ed72	1.3978713
140	0xbf30b5a2	-0.6902715
141	0x3d8ac3d2	0.06775631
142	0xbf79e9fb	-0.9762265
143	0x3ebdb8b4	0.3705498
144	0x3f420895	0.75794345
145	0xbf5647f8	-0.83703566
146	0x3f85b923	1.0447124
147	0xbf2c784b	-0.6737105
148	0xbf6e5414	-0.93097043
149	0xbf33c220	-0.70218086
150	0xbe9855f8	-0.2975309
151	0x3f2ed702	0.68296826
152	0x3f366129	0.71242005
153	0xbf808221	-1.0039712
154	0x3eca77a9	0.39544418
155	0xc002213c	-2.0332785
156	0x3ee2169c	0.44157875
157	0xbfe17334	-1.7613282
158	0x3f3d7ca8	0.74018335
159	0xbf1ff845	-0.62488204
160	0xbf58ba87	-0.8465962
161	0x3fbf3a79	1.493972
162	0xbf4dfbec	-0.8046253
163	0xbf24d0d1	-0.6438113
164	0xbf774927	-0.96595997
165	0xbed3fbe1	-0.41403106
166	0x3f9eeec5	1.2416617
167	0x3fbff519	1.4996673
168	0x3f1eb8a2	0.6200048
169	0xbfc16f61	-1.5112115
170	0x3ff389b7	1.9026402
171	0xbec93e82	-0.39305502
172	0xbebaf6fd	-0.36516562
173	0x3fc858f0	1.5652142
174	0xbefff674	-0.49992716
175	0xbe7a8765	-0.24465711
176	0x3e60ce2b	0.21953647
177	0xbfb0cf24	-1.3813214
178	0x3f4da9bb	0.80337113
179	0xbf7f5e9f	-0.99753755
180	0x3effef75	0.4998738
181	0xbf2e64a1	-0.681223
182	0xbf85c094	-1.0449395
183	0xbfb36ed4	-1.4018197
184	0x3f6114bc	0.87922263
185	0xbe593525	-0.2121168
186	0xbf4bf85c	-0.7967584
187	0xbf0dbf47	-0.5536999
188	0xbf299604	-0.6624453
189	0xbfb8de70	-1.4442883
190	0x3eaab0da	0.33338052
191	0x3f987ebf	1.191368
192	0x3dd68237	0.10474055
193	0x3e5ac640	0.21364689
194	0xbd9113cd	-0.07083855
195	0xbee41383	-0.44546136
196	0xbf32650d	-0.6968544
197	0x3e9cd26d	0.30629292
198	0xbea42cb9	-0.3206537
199	0xbf4c40e4	-0.79786515
200	0xbf233d21	-0.6376515
201	0xbf96abaa	-1.1771138
202	0x3ecab384	0.39590085
203	0x3e4587a7	0.19290029
204	0x3fd06b46	1.6282737
205	0x3de319e5	0.11088923
206	0x3e34f642	0.17672065
207	0xbe860cbb	-0.26181588
208	0x4014d742	2.3256383
209	0x3f51311d	0.81715566
210	0x3f95c777	1.1701497
211	0xbdadae70	-0.08480537
212	0xbe9c534c	-0.305323
213	0x3f0f1dab	0.55904645
214	0x3d6ecdf2	0.058301874
215	0xbab9c6b8	-0.0014173603
216	0xbfcf0a8f	-1.6175097
217	0xbf157311	-0.583787
218	0x3f6fdebf	0.9369926
219	0xbf9a9698	-1.2077208
220	0xbf41822d	-0.7558926
221	0x3bb398ff	0.005480885
222	0x3f949dd3	1.1610664
223	0xbf6073ce	-0.87676704
224	0x3f25c0a8	0.64747095
225	0x3ff9100b	1.9458021
226	0x3f2b4d69	0.66914994
227	0xbe1ad07c	-0.15118593
228	0x3e577232	0.21039656
229	0xbf2891cb	-0.6584746
230	0xbfcf6686	-1.6203163
231	0x3e593f68	0.21215594
232	0x3efa5daa	0.48899585
233	0x3efcf60e	0.49406475
234	0x3f314bf0	0.69256496
235	0x3f9646b1	1.1740323
236	0x3f07711e	0.5290698
237	0xbfe8df49	-1.8193141
238	0x3fd4d4ac	1.6627402
239	0x3f8fd1f3	1.1235946
240	0xbe848175	-0.25880018
241	0x3f89df54	1.0771279
242	0x3f3ba848	0.7330365
243	0xbfed1cdd	-1.8524433
244	0x3e201329	0.15632309
245	0xbe07cfc6	-0.13262853
246	0xbf9e0ee4	-1.2348294
247	0x3dfefc1a	0.12450428
248	0xbe58ea2d	-0.21183081
249	0xbea88b48	-0.32918763
250	0x3f08b9ba	0.53408396
251	0xbf083453	-0.5320484
252	0xbf36dc4d	-0.714299
253	0xbf486c3f	-0.7829017
254	0xbf30d277	-0.69071144
255	0x401b9a31	2.431286

rnn.rnn_cell.weight_ih f4 [64, 100]
0	0xbdd3fa11	-0.10350431
1	0x3de025a0	0.109446764
2	0xbd1ab95c	-0.03777443
3	0xbcc61816	-0.024181407
4	0x3c27a60f	0.010232463
5	0xbdda90a4	-0.10672119
6	0x3e3be60c	0.18349475
7	0x3e409cda	0.18809834
8	0xbb59ad85	-0.0033214998
9	0xbdb4b2d9	-0.08823175
10	0x39b4fa17	0.00034518607
11	0x3db7ec46	0.089806125
12	0xbd841821	-0.06449915
13	0x3da13683	0.078717254
14	0x3c2f52b0	0.010700867
15	0xbe543d12	-0.20726421
16	0xbd7e6ef0	-0.062117517
17	0xbd8a349f	-0.06748318
18	0xbd85c8e8	-0.065324605
19	0x3dad1ace	0.08452378
20	0xbe337b3b	-0.17527477
21	0x3d898f2a	0.067167595
22	0x3df6b5db	0.12046405
23	0x3d0968ab	0.033547085
24	0x3d23c431	0.039982025
25	0xbe1770bd	-0.147891
26	0x39014666	0.00012328624
27	0x3bbbc36d	0.0057300837
28	0x3d0a8ea1	0.033827428
29	0xbcdcb22f	-0.026940433
30	0x3c196f73	0.0093649505
31	0xbd4d7790	-0.05016285
32	0x3d45c1a9	0.04828039
33	0xbd1d016b	-0.03833143
34	0xbdcd414a	-0.100222185
35	0xbe02f5f1	-0.12789132
36	0xbc927560	-0.017878234
37	0x3e3876a6	0.18014011
38	0xbc0f4e9d	-0.00874677
39	0x3c324ead	0.010883016
40	0x3dcffd99	0.10155792
41	0x3d79f6fa	0.06102655
42	0x3cd8c326	0.026460242
43	0x3cabc0d0	0.020965964
44	0x3be96432	0.00712254
45	0x3ccf6def	0.025320975
46	0x3d9deae1	0.07710815
47	0x3c11ac78	0.008891217
48	0x3dde4491	0.10852922
49	0xbe22b1d1	-0.15888144
50	0xbd91848a	-0.07105358
51	0xbda5d85d	-0.08097909
52	0x3db43058	0.08798283
53	0xbdb7a071	-0.08966149
54	0x3d2488b0	0.040169418
55	0x3b80be6d	0.0039289505
56	0x3e0b53e2	0.13606218
57	0x3d4c8b6c	0.04993765
58	0xbd6194a2	-0.055073388
59	0xbd8adafb	-0.067800485
60	0xbd0f9ffa	-0.035064675
61	0x3e12d1ed	0.14337893
62	0xbd688e10	-0.056776106
63	0x3e5d5022	0.216126
64	0x3d018789	0.031623397
65	0xbe342efe	-0.17596051
66	0x3e0ffdaf	0.14061616
67	0xbbe7cf95	-0.0070743063
68	0x3c5df012	0.013546007
69	0xbdc1a8c2	-0.09456016
70	0x3d906380	0.07050228
71	0xbd7305f9	-0.059331868
72	0x3d42acb2	0.047527976
73	0x3c02c526	0.007981574
74	0x3ceb6399	0.028734015
75	0xbdc6ee42	-0.09713413
76	0x3db822f0	0.08991039
77	0xbd344029	-0.0440065
78	0x3d371c7f	0.04470491
79	0x3e7921f5	0.2432936
80	0x3d902c2c	0.07039675
81	0xbbaf927b	-0.005358038
82	0xbe2ce316	-0.16883501
83	0x3e3b7d66	0.18309554
84	0x3e0d5468	0.1380173
85	0x3d6e889e	0.058235757
86	0xbdf2ce0e	-0.11855708
87	0x3cb194b1	0.021677347
88	0x3d822cc9	0.06356198
89	0xbdbc8bea	-0.09206374
90	0xbde09e55	-0.109676994
91	0x3e0307ca	0.1279594
92	0xbd449da8	-0.048001915
93	0xbd6871eb	-0.056749266
94	0x3dc8829b	0.09790536
95	0xbc834abb	-0.016026845
96	0x3d0587b6	0.032600127
97	0xbcf104ad	-0.029421175
98	0x3b8745f2	0.004128211
99	0x3ce26d0c	0.027639888
100	0xbd186fd3	-0.03721602
101	0xbe8a66a8	-0.27031446
102	0xbdce7e82	-0.10082723
103	0xbd3f22cf	-0.046664055
104	0x3dc282e0	0.09497619
105	0xbdb4883b	-0.088150464
106	0x3e78c773	0.24294834
107	0xbd1bf2d4	-0.038073376
108	0xbbe85729	-0.0070904684
109	0x3e1edbd4	0.15513545
110	0xbc370b25	-0.011172091
111	0xbc38c64b	-0.0112777455
112	0x3d915795	0.07096783
113	0x3b502a15	0.0031763364
114	0x3db2f49b	0.08738061
115	0xbc2458c0	-0.010030925
116	0xbccc9428	-0.02497299
117	0xbc954a79	-0.018223988
118	0x3d7fe5c5	0.062474985
119	0xbcf23e34	-0.029570676
120	0x3b6814e8	0.0035412852
121	0xbdb68de3	-0.089137815
122	0xbe0a7356	-0.1352056
123	0xbda06a96	-0.0783283
124	0x3e0abebe	0.13549325
125	0xbda082e1	-0.07837463
126	0x3e07dda3	0.13268141
127	0x3adf4762	0.0017034824
128	0xbdb9e9cb	-0.090777956
129	0x3d25df0e	0.040495925
130	0xbded64c1	-0.11591483
131	0x3df127cf	0.11775171
132	0x3de99707	0.11405759
133	0xbe1c61f0	-0.15271735
134	0x3cd44160	0.02591008
135	0xbe0411f6	-0.12897477
136	0xbdd4c6e7	-0.103895
137	0xbdc86f9e	-0.09786914
138	0xbe21a856	-0.15786871
139	0xbcd442b3	-0.02591071
140	0x3d09b8b0	0.033623397
141	0xbb2ad4e1	-0.0026066827
142	0xbde4f0e0	-0.11178756
143	0x3d99f54c	0.0751749
144	0xbd8e4d17	-0.069482975
145	0x3d6d4553	0.05792744
146	0x3daeb97d	0.08531473
147	0x3dd449fa	0.103656724
148	0x3dbb1bb0	0.0913614
149	0xbb82c68e	-0.0039909547
150	0xbdc959d4	-0.098315865
151	0x3ce59048	0.0280229
152	0x3df30548	0.11866242
153	0x3d1e14c0	0.038594007
154	0x3deaac1e	0.1145861
155	0x3deac760	0.11463809
156	0x3d967c42	0.07347919
157	0xbde6ef37	-0.11276095
158	0xbbbfe637	-0.005856301
159	0x3dea93c5	0.11453966
160	0xbc81ee8c	-0.015860818
161	0xbd1f8500	-0.038945198
162	0x3e002015	0.12512238
163	0x3cd1da3e	0.025616761
164	0xbe362aad	-0.17789717
165	0xbd094fef	-0.033523496
166	0xbe123daf	-0.14281343
167	0xbe00fea4	-0.12597138
168	0x3cce14a0	0.02515632
169	0x3e130471	0.14357163
170	0x3cd21b93	0.025647914
171	0xbe02e51b	-0.1278271
172	0xbd46741c	-0.048450574
173	0xbde1e706	-0.11030392
174	0x3d992f98	0.07479781
175	0x3c591452	0.013249474
176	0xbca9a190	-0.020706922
177	0xbd644a3a	-0.05573485
178	0x3dcd99dc	0.10039112
179	0xbd801e3e	-0.06255768
180	0xbd4957de	-0.049156062
181	0xbdf53edb	-0.11974879
182	0xbd07a48e	-0.033115916
183	0x3d3d06cf	0.04614907
184	0xbd833a48	-0.06407601
185	0x3d42cf7c	0.047561154
186	0xbde0e8a7	-0.10981875
187	0xbd080934	-0.0332119
188	0xbdaf76ae	-0.08567558
189	0xbd947132	-0.07248153
190	0x3d4101bf	0.047120806
191	0xbe4b4f2b	-0.19854419
192	0x3dde8957	0.10866039
193	0xbddf52f9	-0.10904498
194	0xbd29147a	-0.041279294
195	0xbdfcc04c	-0.12341365
196	0xbcb21233	-0.021737194
197	0xbc0f7521	-0.008755953
198	0x3de9a81e	0.11409019
199	0x3dfd677a	0.12373252
200	0x3dffc284	0.12488273
201	0xbde1e0cd	-0.110292055
202	0x3d9b4f04	0.075834304
203	0x3cd4145f	0.02588862
204	0x3b7567f0	0.0037445985
205	0xbe0af846	-0.13571271
206	0xbd751578	-0.059834927
207	0xbd9e4fee	-0.07730089
208	0xbbcea8a9	-0.006306727
209	0xbd82bb34	-0.063833624
210	0xbe24a93e	-0.16080186
211	0x3ddec924	0.10878208
212	0x3d3bb26d	0.045824457
213	0x3dd0b5ab	0.101909004
214	0xbc852154	-0.016251244
215	0xbd746ee7	-0.059676077
216	0x3ce0766f	0.027400224
217	0x3ca107ad	0.01965698
218	0xbd82ac70	-0.06380546
219	0xbd7f2a3d	-0.06229614
220	0x3e69c00b	0.22827165
221	0xbd98dfc4	-0.07464555
222	0xbd7d5be0	-0.061855197
223	0xbe4ab5f8	-0.19795978
224	0xbda2f060	-0.07956004
225	0xbdad2fa1	-0.0845635
226	0xbd06ebab	-0.032939594
227	0xbdf49f3f	-0.11944436
228	0x3da7a52e	0.081858024
229	0x3dafa29a	0.08575936
230	0x3bd4e246	0.0064967005
231	0xbd916df4	-0.0710105
232	0x3e0d0a12	0.13773373
233	0xbdfa85e3	-0.12232568
234	0x3c58e2ff	0.013237714
235	0x3c8e3571	0.017359467
236	0xbd8f0bbd	-0.06984661
237	0xbd51cef1	-0.051222745
238	0x3d03b3a7	0.03215375
239	0x3c03da15	0.0080476
240	0xbdc8750c	-0.0978795
241	0x3e5bf781	0.21481134
242	0xbcfeb352	-0.031091366
243	0x3da4cb33	0.0804657
244	0x3d81f024	0.06344631
245	0x3b4a41b6	0.003086192
246	0x3da6c3c9	0.08142812
247	0xbcbfdc30	-0.023420423
248	0x3da51a33	0.08061638
249	0x3d640ace	0.055674367
250	0x3d540119	0.05175886
251	0xbe0a79ac	-0.13522977
252	0x3cbeca3d	0.023289794
253	0x3d7ad3b1	0.06123704
254	0x3c90ae51	0.017661246
255	0xbe539f9e	-0.20666358

rnn.rnn_cell.weight_hh f4 [64, 64]
0	0x3debb60f	0.11509334
1	0xbd6fa95f	-0.058511134
2	0xbdb104d9	-0.08643503
3	0x3e0d3272	0.13788775
4	0xbea57cbf	-0.32321736
5	0xbe636592	-0.22206715
6	0xbcce3af9	-0.025174605
7	0x3cab95ce	0.020945456
8	0x3d649cae	0.055813484
9	0xbc7be17f	-0.015373587
10	0x3ea35e9a	0.31908113
11	0x3d9b83bc	0.07593486
12	0x3c7b8836	0.015352299
13	0xbc475203	-0.012165549
14	0x3e145105	0.14484031
15	0x3d5ab865	0.05339851
16	0xbdc56762	-0.09638859
17	0x3c83bb13	0.016080415
18	0xbe35828c	-0.17725581
19	0x3dadcfe5	0.08486918
20	0x3e2e878e	0.17043898
21	0xbb6b119d	-0.0035868653
22	0xbe7f07ee	-0.24905369
23	0xbdfc9290	-0.12332642
24	0xbdb8bd83	-0.090205215
25	0x3afc2f4a	0.0019240167
26	0xbe461432	-0.19343641
27	0xbe02008f	-0.12695526
28	0x3e00a363	0.12562327
29	0xbe5077fb	-0.20358269
30	0xbe1b2329	-0.15150131
31	0xbec39ea0	-0.3820696
32	0x3e0f0315	0.1396602
33	0xbe04ca23	-0.12967734
34	0x3e21578d	0.15756054
35	0xbe5148c5	-0.20437916
36	0x3e00bca9	0.12571968
37	0x3e129f65	0.14318617
38	0xbcc17dc6	-0.023619544
39	0xbdb6b533	-0.0892128
40	0xbe221a7d	-0.15830417
41	0x3de5269f	0.11189007
42	0xbe428249	-0.18995012
43	0x3c99a29d	0.018754298
44	0xbe129327	-0.14313947
45	0xbd7e7144	-0.062119737
46	0x3cf3ccc8	0.029760733
47	0xbe2b4d50	-0.16728711
48	0x3e1737f8	0.14767444
49	0xbc78a6f1	-0.015176521
50	0x3e46f145	0.19427975
51	0xbe93dc3e	-0.2887897
52	0xbd0c16d3	-0.034201454
53	0x3dec8886	0.11549477
54	0xbea343e4	-0.31887734
55	0x3e35b84e	0.17746088
56	0xbd9e7f41	-0.077391155
57	0xbdffa525	-0.12482671
58	0x3e06467c	0.13112825
59	0xbe6dc849	-0.23220934
60	0x3e3aefbf	0.18255518
61	0x3ba1faf6	0.004943247
62	0x3e154843	0.14578347
63	0xbcfe921a	-0.031075526
64	0xbe784b1b	-0.242474
65	0x3e7849e5	0.24246939
66	0x3e025823	0.12728934
67	0xbdfdc5d8	-0.12391251
68	0x3dd03241	0.10165835
69	0x3e47b4a2	0.195025
70	0x3eaab70a	0.33342773
71	0xbc440e32	-0.011966275
72	0xbe562810	-0.2091372
73	0xbeef6f8c	-0.4676479
74	0xbe1cab98	-0.15299833
75	0xbdeaf161	-0.114718206
76	0x3da73aa1	0.081654795
77	0x3e0105e6	0.12599906
78	0xbe6b596b	-0.22983329
79	0xbdc55c9e	-0.09636806
80	0xbd41fb60	-0.04735887
81	0xbe948ae4	-0.29012215
82	0x3defc68c	0.11707792
83	0xbe3e1593	-0.18562917
84	0x3a8c191c	0.0010688636
85	0xbe49b1ab	-0.19696681
86	0x3eadf514	0.33976042
87	0x3d5211b1	0.051286403
88	0x3b572e33	0.0032833933
89	0x3d0aa4dc	0.03384863
90	0xb8890524	-6.5336266e-05
91	0xbda941a6	-0.082644746
92	0xbd93aa10	-0.07210171
93	0xbe3776e0	-0.17916441
94	0x3e18d91d	0.14926572
95	0x3d34d7b5	0.044151027
96	0xbdd11548	-0.10209137
97	0x3d162e30	0.03666514
98	0xbd7cadc3	-0.06168915
99	0x3e9c4df5	0.30528226
100	0x3d4828a2	0.048866875
101	0xbdeda2d4	-0.116033226
102	0xbea49f8c	-0.32152975
103	0xbce94847	-0.028476847
104	0xbd94e63f	-0.072704785
105	0x3e653f1d	0.22387357
106	0x3d913ed3	0.07092061
107	0x3e88141b	0.2657784
108	0xbdb373c4	-0.08762315
109	0xbe2d391e	-0.1691632
110	0x3e57ec24	0.21086174
111	0x3e294471	0.16530015
112	0xbd468660	-0.048467994
113	0x3e85b46a	0.26114208
114	0xbdc3f46f	-0.095681064
115	0x3d018d1d	0.031628717
116	0x3c23043e	0.009949742
117	0x3cb2c455	0.021822134
118	0xbd764438	-0.060123652
119	0xbea1c9ce	-0.31599277
120	0x3c6a0186	0.01428259
121	0x3cfcba84	0.030850656
122	0xbdd00724	-0.10157612
123	0xbd8a11b7	-0.0674166
124	0xbdc7de08	-0.09759146
125	0x3e647fb5	0.22314341
126	0xbce61fd6	-0.028091352
127	0x3c5d75c9	0.013516852
128	0xbeaf4473	-0.3423191
129	0x3e45e57d	0.19325824
130	0x3eb0718d	0.34461632
131	0xbdbfdd50	-0.09368384
132	0xbe149cf1	-0.14512993
133	0x3d85c50a	0.06531723
134	0x3d4e5e6f	0.050383028
135	0x3d5209e0	0.05127895
136	0xbd1f1994	-0.038842753
137	0xbe309c53	-0.17247133
138	0xbe649a34	-0.22324449
139	0xbde7b4be	-0.11313771
140	0xbe4c5a56	-0.19956335
141	0x3cad0c67	0.021124078
142	0xbe7c2bd4	-0.24626094
143	0x3cfdce56	0.030982178
144	0x3d4932fa	0.04912088
145	0x3e4d8622	0.20070699
146	0xbd606ecb	-0.05479316
147	0xbe237446	-0.15962324
148	0xbe1df1a4	-0.1542421
149	0xbcbbbeda	-0.022918154
150	0x3d9699d8	0.07353562
151	0x3e06405b	0.13110487
152	0x3c43b4f4	0.011944998
153	0x3c367bf2	0.011137949
154	0xbd461945	-0.048363943
155	0x3e34b752	0.17648056
156	0x3e05ea10	0.13077569
157	0x3e28a4ea	0.1646916
158	0x3db425d3	0.08796277
159	0xbd8bc595	-0.06824795
160	0x3d4ba09c	0.049713716
161	0x3d4cee49	0.050031934
162	0x3dc0defd	0.09417532
163	0x3dcc49ec	0.09975037
164	0xbd8a4976	-0.06752293
165	0x3d0cb783	0.034354698
166	0x3e4e5a70	0.20151687
167	0x3e1564fc	0.14589304
168	0xbd6471ad	-0.055772472
169	0x3e3b4729	0.18288864
170	0x3c23c872	0.00999652
171	0x3c917ea9	0.017760592
172	0x3de051ac	0.10953078
173	0xbafe6299	-0.0019408047
174	0x3dfadb8f	0.12248909
175	0x3d99208c	0.07476911
176	0xbe4072b6	-0.18793759
177	0xbd9e8ca5	-0.077416696
178	0xbe10d8c7	-0.14145194
179	0x3dd7c9ae	0.10536514
180	0xbd079edc	-0.033110484
181	0x3db46085	0.08807472
182	0xbdefe7e2	-0.1171415
183	0x3c3faf43	0.0116995005
184	0xbe2ee8e2	-0.17081025
185	0x3c83ba20	0.016079962
186	0x3c2ea1f6	0.010658732
187	0x3d06f051	0.032944027
188	0xbe313786	-0.17306337
189	0xbd5b0ff3	-0.053482007
190	0xbded028e	-0.11572753
191	0xbbf04945	-0.007332953
192	0xbda2dfaa	-0.07952817
193	0xbe0eaf20	-0.13933992
194	0xbc83a6b0	-0.016070694
195	0xbe274b32	-0.16337278
196	0x3c2c9b7c	0.010535117
197	0xbd8261e7	-0.0636633
198	0x3dec80a7	0.11547976
199	0xbe145273	-0.14484577
200	0xbe4e7308	-0.20161068
201	0x3e3f91ee	0.18708012
202	0x3d8c6864	0.068558484
203	0x3e28e686	0.16494188
204	0xbd8a98b6	-0.067674085
205	0x3dd2bb8f	0.1028968
206	0x3e1c56b7	0.15267454
207	0xbcfd4d35	-0.030920604
208	0x3cb2d041	0.021827819
209	0x3d364c53	0.044506382
210	0x3d89c7e4	0.06727579
211	0xbdfff50e	-0.12497912
212	0x3de273e2	0.11057259
213	0x3cef3b9a	0.029203225
214	0x3dc85201	0.09781266
215	0xbb19bd26	-0.0023458689
216	0xbe5b7b2f	-0.2143371
217	0xbe34ad95	-0.17644341
218	0x3e818177	0.25294086
219	0x3bb67b4b	0.005568897
220	0x3d05fb1d	0.032710183
221	0x3d07d800	0.033164978
222	0xbd843823	-0.0645602
223	0x3e47de49	0.19518389
224	0xbc8a6e30	-0.016898245
225	0x3da55963	0.0807369
226	0xbe04fa6c	-0.12986153
227	0x3c1f1963	0.0097106425
228	0xbd91252f	-0.0708717
229	0x3d512221	0.05105794
230	0x3e3b105f	0.18267964
231	0xbea3ea2f	-0.32014605
232	0x3db76540	0.08954859
233	0xbe3b5d57	-0.18297325
234	0x3e99e1a9	0.30054978
235	0xbdb4ae18	-0.08822268
236	0x3e81b72b	0.2533506
237	0xbdeba17f	-0.11505412
238	0x3dcaffb6	0.09912054
239	0x3d7cdcf1	0.061734144
240	0x3e05b627	0.13057767
241	0xbea19dd5	-0.3156573
242	0xbe024d02	-0.12724689
243	0xbcd4e046	-0.025985848
244	0x3ea39eca	0.31957084
245	0x3dccb8fa	0.09996219
246	0x3e19f792	0.15035847
247	0x3b837a40	0.004012376
248	0xbd3da61c	-0.046300992
249	0xbe1c3e61	-0.1525817
250	0xbd3d2e4d	-0.046186734
251	0xbe521f17	-0.20519672
252	0x3d527a6a	0.051386274
253	0x3df0201a	0.11724873
254	0xbc9ef0bd	-0.019401902
255	0x3d306505	0.04306509

rnn.rnn_cell.bias_ih f4 [64]
0	0x3cdbc059	0.026825117
1	0x3db446ad	0.08802543
2	0xbdcf0680	-0.10108662
3	0xbdb1bd57	-0.08678692
4	0xbcc548c8	-0.024082556
5	0x3b9b5e6d	0.004741481
6	0x3c23c12a	0.009994784
7	0xbd9e5a73	-0.077320956
8	0x3dda589e	0.10661434
9	0xbdc68c24	-0.096946985
10	0x3dbf6127	0.09344702
11	0xbdd4e440	-0.10395098
12	0x3adbef2f	0.0016779656
13	0xbdc37cc0	-0.095452785
14	0xbd302487	-0.043003585
15	0xbcb1f93c	-0.02172529
16	0x3d04a45a	0.0323833
17	0xbd63230d	-0.05545335
18	0xbd0f4320	-0.034976125
19	0x3dc07ee9	0.09399206
20	0xbd802469	-0.06256945
21	0x3d0c24db	0.034214836
22	0xbca519db	-0.02015393
23	0xbd0ad3da	-0.033893444
24	0xbd1bb44c	-0.03801374
25	0xbd819fe1	-0.063293226
26	0xbdcdb3a9	-0.10044033
27	0xbdf9b0db	-0.12191936
28	0x3d5cb448	0.053882867
29	0xbcf3cea1	-0.029761614
30	0xbc002480	-0.007821202
31	0xbe44ce27	-0.19219266
32	0x3d76c2ae	0.060244255
33	0x3db89719	0.090131946
34	0xbdd28dc4	-0.10280946
35	0xbde9590d	-0.11393938
36	0x3da207ab	0.07911619
37	0xbd01d8ab	-0.03170077
38	0x3db4d4eb	0.088296734
39	0x3dab7bfe	0.08373259
40	0xbdaf36f2	-0.08555402
41	0x3e0c9596	0.13728938
42	0xbd578c31	-0.05262393
43	0xbd39e1ef	-0.045381483
44	0x3e012c92	0.12614658
45	0x3d936abd	0.07198093
46	0xbc192696	-0.0093475785
47	0x3b977f60	0.0046233386
48	0xbdfcba5b	-0.12340232
49	0xbd88e76a	-0.06684764
50	0x3e08d534	0.1336258
51	0xbe3f1ff6	-0.18664536
52	0xbdadc73c	-0.084852666
53	0x3cf09a32	0.029370401
54	0xbd3aad09	-0.045575175
55	0x3e1df3cd	0.15425034
56	0xbd70db98	-0.05880317
57	0x3e05c4c3	0.1306334
58	0x3dc52535	0.09626237
59	0xbbc696be	-0.0060604503
60	0x3d989f8e	0.07452308
61	0xbcd19ffc	-0.025588982
62	0xbd172f95	-0.036910612
63	0x3ddac16c	0.106814235

rnn.rnn_cell.bias_hh f4 [64]
0	0x3da06574	0.07831851
1	0xbdac79e3	-0.084216855
2	0x3d0aef5a	0.03391967
3	0x3de5f7a9	0.11228878
4	0x3de1d132	0.11026229
5	0xbd16f8cb	-0.03685836
6	0x3d8700dc	0.06591961
7	0x3e04c86d	0.12967081
8	0x3cd853c4	0.02640713
9	0x3c67257b	0.014108057
10	0xbd6a4d70	-0.057202756
11	0x3d58edf0	0.05296129
12	0xbdd7822d	-0.10522876
13	0x3dc3a2c0	0.095525265
14	0xbda86ae5	-0.082235135
15	0x3e022dc3	0.12712769
16	0x3d78e3ea	0.06076423
17	0x3d8b995c	0.0681636
18	0x3e0c1f28	0.1368376
19	0x3dc7daa9	0.09758503
20	0xbddb1640	-0.10697603
21	0xbd7527ae	-0.059852295
22	0x3e05e6f2	0.1307638
23	0xbd3220b8	-0.043488234
24	0xbd01193e	-0.031518213
25	0xbe2286a6	-0.15871677
26	0xbd2bd94c	-0.041955277
27	0x3d6c9800	0.057762146
28	0xbd99add6	-0.0750386
29	0x3dc3ea64	0.09566191
30	0xbd0cda56	-0.03438791
31	0xbdd9e49e	-0.106393084
32	0x3e3ae3c7	0.18250953
33	0xbd5fa230	-0.054598033
34	0x3cfd4d14	0.030920543
35	0xbd98409f	-0.074342005
36	0xbdaca071	-0.08429039
37	0x3c97713a	0.018486608
38	0x3d70c806	0.058784507
39	0x3d1ca892	0.0382467
40	0xbdbb5a52	-0.091480866
41	0xbdc57a24	-0.09642437
42	0xbe0b0d6d	-0.1357934
43	0x3cefd322	0.02927548
44	0x3d1a51bd	0.037675608
45	0x3da22505	0.07917217
46	0xbddce33f	-0.10785531
47	0xbd1211f2	-0.035661645
48	0xbcd0bd74	-0.025480963
49	0x3cb795c5	0.022410283
50	0xbd71f99c	-0.059075937
51	0xbe2ee788	-0.1708051
52	0xbd2fd22b	-0.04292504
53	0x3cd820ae	0.02638277
54	0xbdb1d9aa	-0.08684094
55	0x3b919227	0.0044424715
56	0xbde9bf1c	-0.11413404
57	0xbda6b61a	-0.08140202
58	0x3d023760	0.03179109
59	0xbc894a11	-0.01675895
60	0x3d38c95d	0.04511391
61	0x3c8b57a7	0.01700957
62	0xbcd2e113	-0.02574209
63	0xbda5ffd4	-0.08105436

fc1.weight f4 [64, 64]
0	0xbe130a29	-0.14359345
1	0xbdf297bd	-0.11845348
2	0xbd4e8845	-0.050422926
3	0x3d91ab39	0.07112736
4	0xbce7d115	-0.02829794
5	0xbd1e0812	-0.038581915
6	0x3d9fe920	0.07808137
7	0xbdceb1ba	-0.100924924
8	0xbcbf7112	-0.023369346
9	0xbd63d9f8	-0.055627793
10	0x3e724aa8	0.23661292
11	0xbd804b7e	-0.06264399
12	0xbdba0ba6	-0.09084253
13	0x3e3e0a41	0.18558599
14	0xbd2552ae	-0.040362053
15	0x3e4a0032	0.19726637
16	0x3d0cb8e1	0.034356
17	0x3da43ca6	0.0801938
18	0x3db54a0d	0.08852015
19	0xbd9df014	-0.07711807
20	0x3ddfd3be	0.109290585
21	0x3ea3ca11	0.31990102
22	0xbe4d686c	-0.20059365
23	0xbe361f51	-0.17785384
24	0x3c1f2f50	0.00971587
25	0x3e05f344	0.1308108
26	0xbddd551f	-0.10807251
27	0xbdde46c4	-0.10853341
28	0xbe73e3e0	-0.23817396
29	0xbdbebd3e	-0.09313439
30	0xbe3fab3a	-0.18717661
31	0xbd92fc69	-0.0717705
32	0xbdf1453f	-0.11780786
33	0x3e6125d3	0.21987085
34	0xbe1a9473	-0.15095691
35	0xbcba8f0f	-0.022773294
36	0xbe03ddaa	-0.12877527
37	0xbe35ba48	-0.17746842
38	0x3e3134ef	0.17305349
39	0x3e8615f1	0.26188615
40	0x3baf073f	0.00534144
41	0xbe1941a8	-0.14966452
42	0xbdeb2f40	-0.114836216
43	0x3e02eff7	0.12786852
44	0x3e6263e7	0.22108422
45	0x3d8f16ca	0.069867685
46	0xbe168205	-0.14698036
47	0x3dc89616	0.097942516
48	0xbdc02e4c	-0.093838304
49	0x3dfeb814	0.12437454
50	0x3e4c078d	0.19924755
51	0x3ddb4347	0.107061915
52	0xbce73b9f	-0.028226672
53	0xbe290250	-0.16504788
54	0xbd1dd86d	-0.038536478
55	0x3eb8bcd7	0.36081573
56	0x3d87d989	0.066332884
57	0xbe5ec55f	-0.21754979
58	0xbcfd9463	-0.030954545
59	0xbcf06b97	-0.029348178
60	0x3de4d726	0.11173849
61	0x3e1ad49a	0.15120164
62	0xbcf15696	-0.029460233
63	0xbd2027d5	-0.039100487
64	0xbe843591	-0.25822118
65	0xbdd9d0bf	-0.10635518
66	0x3d2e4705	0.0425482
67	0x3e128add	0.14310785
68	0x3e70a0ed	0.23498888
69	0x3d8dcd19	0.06923885
70	0xbccdcc5a	-0.025121856
71	0x3cd66fef	0.026176421
72	0xbd95ebd7	-0.073203735
73	0x3e05fc2c	0.13084477
74	0x3de8f7b7	0.11375373
75	0x3e2a5152	0.16632584
76	0x3dcc0639	0.099621244
77	0x3d29c02c	0.041443035
78	0xbe2d6bfb	-0.16935723
79	0x3dfbbda0	0.122920275
80	0xbc891097	-0.016731543
81	0xbd098fff	-0.03358459
82	0xbe15ab32	-0.14616087
83	0xbe0001e8	-0.12500727
84	0xbe371869	-0.17880405
85	0xbd536248	-0.0516074
86	0xbca05f20	-0.01957661
87	0x3d99263b	0.07477995
88	0x3db6ae52	0.08919968
89	0xbdb1ae2d	-0.086757995
90	0xbd93137e	-0.07181452
91	0x3e07b535	0.13252719
92	0xbcba0f00	-0.02271223
93	0x3cb10721	0.021609845
94	0xbc119dcd	-0.00888772
95	0xbd3e49bb	-0.046457034
96	0x3e4f67a3	0.20254378
97	0xbcdc8bca	-0.026922125
98	0xbb16119c	-0.002289868
99	0x3da20e4a	0.07912882
100	0xbe0660d1	-0.1312287
101	0x3e4a15bb	0.19734852
102	0xbd5a6146	-0.053315423
103	0xbcb6eac4	-0.022328742
104	0xbdd78d0e	-0.10524951
105	0x3d029b32	0.031886287
106	0x3c8d67be	0.017261382
107	0x3ddb8fe7	0.107208066
108	0x3e033870	0.12814498
109	0x3e0685ba	0.1313695
110	0x3d8a4dfa	0.06753154
111	0x3c46a05c	0.012123194
112	0x3dc40a5c	0.095722884
113	0xbda0a244	-0.0784345
114	0x3d9a0528	0.07520515
115	0xbe95ac09	-0.29232815
116	0xbc15647c	-0.009118196
117	0xbd9d3bb6	-0.076774046
118	0x3e25022a	0.16114107
119	0xbe46726e	-0.19379589
120	0x3c70e47f	0.014702915
121	0x3d062ab0	0.032755554
122	0xbe20403b	-0.15649502
123	0x3da04496	0.07825582
124	0xbd4822e2	-0.04886139
125	0x3e1b0614	0.15139037
126	0xbd23d67a	-0.039999463
127	0x3dfda563	0.12385061
128	0x3dadc2dc	0.08484432
129	0xbe7c721a	-0.24652901
130	0x3c31d0e1	0.010853023
131	0x3cf427e4	0.029804178
132	0x3cd73892	0.026272092
133	0x3e4ccaa2	0.19999173
134	0xbe2678f7	-0.16257082
135	0xbe4b2d5d	-0.19841523
136	0xbdc372cb	-0.095433794
137	0xbe3790fb	-0.179264
138	0xbc674c16	-0.014117261
139	0xbb19ae2e	-0.0023449766
140	0xbd44d5de	-0.048055522
141	0xbc6fb3ee	-0.014630301
142	0xbe965225	-0.29359546
143	0x3dc656fe	0.09684561
144	0xbe01683d	-0.1263742
145	0x3e8ba7a8	0.2727635
146	0x3e1dcc06	0.1540986
147	0xbe96e36b	-0.2947038
148	0x3dade268	0.08490449
149	0x3e39c203	0.18140416
150	0x3deb4ac5	0.114888705
151	0x3cc9e20f	0.024643926
152	0xbb69d7d8	-0.0035681631
153	0x3df96de1	0.12179161
154	0xbc8bb48c	-0.017053865
155	0xbdbdf485	-0.09275154
156	0xbe0783fc	-0.13233942
157	0x3d71621b	0.05893145
158	0xbe97fc2c	-0.2968458
159	0xbd198475	-0.037479836
160	0xbe4fb67b	-0.20284455
161	0xbd18efff	-0.037338253
162	0xbdac1f4b	-0.08404406
163	0xbd0429f2	-0.032266565
164	0xbce7f0e3	-0.028313106
165	0xbb39e68f	-0.0028366183
166	0x3d76bab6	0.060236655
167	0xbdc19f01	-0.09454156
168	0xbd960016	-0.07324235
169	0xbe1f8032	-0.15576246
170	0xbda77d60	-0.0817821
171	0x3daf7808	0.08567816
172	0xbe242c5f	-0.16032551
173	0x3d1b1acd	0.037867356
174	0xbe4c8094	-0.19970924
175	0x3e784513	0.242451
176	0xbd69f75d	-0.05712067
177	0xbcc73eb9	-0.0243219
178	0x3e07763d	0.13228698
179	0xbd201ac0	-0.03908801
180	0x3e072c42	0.13200477
181	0xbd97f319	-0.07419414
182	0x3e31f799	0.17379607
183	0x3e58dde2	0.21178392
184	0x3e754cdb	0.239551
185	0x3c932bd5	0.017965237
186	0x3e177f47	0.14794646
187	0xbe31a8f5	-0.17349608
188	0xbdea0127	-0.11426001
189	0x3dce91bb	0.1008639
190	0x3d8f178d	0.06986914
191	0x3da4b583	0.08042433
192	0xbe046452	-0.12928894
193	0x3db86303	0.0900326
194	0xbe09bcbf	-0.13450907
195	0x3d5cf08b	0.053940337
196	0xbd090579	-0.033452485
197	0xbd60710c	-0.05479531
198	0xbe29064d	-0.1650631
199	0xbdbc10a4	-0.091828614
200	0x3e0260b4	0.12732202
201	0x3e3614c5	0.1778136
202	0x3df32617	0.118724994
203	0x3d2adf4c	0.04171686
204	0xbe455332	-0.19270018
205	0xbc28da7a	-0.010305995
206	0xbe6e8ebf	-0.23296641
207	0x3e803002	0.25036627
208	0xbe2ac466	-0.16676483
209	0x3e081fc2	0.13293365
210	0x3d39e344	0.045382753
211	0xbe13d8ef	-0.14438222
212	0x3d10117b	0.03517292
213	0xbc08740a	-0.008328447
214	0x3cc0960c	0.023509048
215	0x3e6a0923	0.22855048
216	0x3e012eb1	0.12615468
217	0xbe5db127	-0.2164961
218	0xbdf6eb50	-0.12056601
219	0x3dcc93dd	0.0998914
220	0xbc8ddc99	-0.017317103
221	0xbe862a03	-0.26203927
222	0xbdb604ed	-0.08887658
223	0xbe51f46b	-0.20503394
224	0x3c4a79cc	0.01235814
225	0x3e715564	0.2356773
226	0xbe31b7ae	-0.17355224
227	0x3d25ec0e	0.040508322
228	0xbe4d520c	-0.2005083
229	0x3bb24800	0.005440712
230	0x3d6d0eda	0.05787549
231	0xbde07640	-0.109600544
232	0xbe0bc114	-0.13647872
233	0x3c4efab1	0.012633012
234	0x3d3413f3	0.043964338
235	0x3bebf0cf	0.0072003375
236	0x3df4eca4	0.11959198
237	0x3e0e029c	0.13868183
238	0x3e34cbd3	0.17655878
239	0x3bc055cb	0.0058696023
240	0xbe6f18f9	-0.2334937
241	0x3e363550	0.17793775
242	0xbeb8457e	-0.35990518
243	0x3d480c92	0.048840113
244	0x3e43fbcf	0.19139026
245	0xbe4054cf	-0.18782352
246	0xbe476069	-0.19470371
247	0x3e2c0838	0.1680001
248	0x3e19526f	0.14972852
249	0xbdaa56c6	-0.08317332
250	0x3e4acc01	0.19804384
251	0xbe737ec8	-0.23778832
252	0x3db4eb14	0.088339
253	0x3d4d2516	0.050084196
254	0xbe194345	-0.14967068
255	0xbe10e1f7	-0.14148699

fc1.bias f4 [64]
0	0xbb1943c1	-0.0023386332
1	0xbab0226a	-0.001343799
2	0x3c30960c	0.010777961
3	0x3e2ff38e	0.17182752
4	0x3d54392e	0.051812343
5	0xbc96445c	-0.018343143
6	0x3dd66220	0.104679346
7	0x3e5c6291	0.21521975
8	0x3d1368e7	0.035988715
9	0x3d921370	0.07132614
10	0x3db211b2	0.08694781
11	0x3e0b3383	0.13593869
12	0xb9f7dffb	-0.0004727839
13	0x3cedcbb2	0.029027794
14	0x3dd1810a	0.102296904
15	0x3c82b15a	0.015953708
16	0xbcd5416f	-0.026032178
17	0x3d82d638	0.06388515
18	0xbc0a9fca	-0.008460948
19	0x3def0d58	0.11672467
20	0x3e073f4b	0.13207738
21	0xbc837a94	-0.01604966
22	0x3e123781	0.14278986
23	0x3e5ce4d0	0.2157166
24	0x3badf50c	0.005308753
25	0x3df5cf09	0.120023794
26	0xbd37cd50	-0.044873536
27	0xbd7bafc9	-0.06144694
28	0x3cb7775e	0.022395786
29	0xbce7e1be	-0.028305884
30	0xbd196089	-0.03744558
31	0xbc8111bb	-0.015755525
32	0x3d623ed3	0.055235695
33	0x3c089005	0.008335118
34	0xbd061804	-0.032737747
35	0x3c714c75	0.014727701
36	0xbdbe3ef0	-0.09289348
37	0x3e250da3	0.16118483
38	0xbc824daf	-0.015906183
39	0x3e0d0bdc	0.13774055
40	0xbcc6f975	-0.024288872
41	0xbcab66cd	-0.020923043
42	0x3df29ee5	0.11846713
43	0xbd86233c	-0.06549689
44	0x3bd96a77	0.006635006
45	0x3e2afb5c	0.16697448
46	0x3d48c798	0.049018472
47	0x3cc954c5	0.024576554
48	0x3e244621	0.16042377
49	0xbd180b26	-0.037120007
50	0x3db21ad9	0.08696527
51	0xbd1b20ac	-0.037872955
52	0x3e4e78e5	0.20163305
53	0x3e2b501a	0.16729775
54	0x3d467250	0.04844886
55	0x3d744cd0	0.059643567
56	0xbcc6495b	-0.0242049
57	0x3d7d0cde	0.06177985
58	0x3e1adad8	0.15122545
59	0x3dc0e11e	0.09417938
60	0x3e500952	0.20316055
61	0xbc0fae08	-0.00876952
62	0xbc2716d8	-0.0101983175
63	0x3d135484	0.035969272

fc2.weight f4 [18, 64]
0	0xbe38e6c0	-0.18056774
1	0x3d85dd16	0.065363094
2	0xbdd9217f	-0.10602092
3	0x3df26f8c	0.11837682
4	0x3d133cca	0.035946645
5	0xbe79b065	-0.24383695
6	0xbe19df9b	-0.15026705
7	0xbf26519f	-0.64968294
8	0x3ec003e4	0.37502968
9	0x3eabccb8	0.33554626
10	0xbdf6eb53	-0.12056603
11	0x3e04aec9	0.129573
12	0xbe8084a8	-0.2510121
13	0x3ca4d73b	0.020122161
14	0x3e3f2c57	0.18669258
15	0xbe114156	-0.1418508
16	0xbee4691b	-0.4461144
17	0x3e899591	0.26871923
18	0xbe5c3be3	-0.2150722
19	0x3c9ae613	0.018908536
20	0x3cfb4a4d	0.030675078
21	0x3d32368b	0.043509047
22	0xbe639131	-0.22223355
23	0xbe0d9823	-0.13827567
24	0xbf296d0d	-0.66182023
25	0xbe8b6ab9	-0.2722986
26	0xbd9dc85a	-0.0770423
27	0x3e0fc591	0.1404021
28	0x3e2890f9	0.16461553
29	0xbe961471	-0.2931247
30	0xbd6c70a3	-0.057724606
31	0x3e48e058	0.1961683
32	0x3e7cbc5b	0.24681227
33	0x3e509d8c	0.203726
34	0x3ecfcc3c	0.40585506
35	0xbf282af2	-0.6569053
36	0x3e9a5e43	0.3015004
37	0xbe8e9817	-0.2785041
38	0xbc120998	-0.00891342
39	0x3e82eb06	0.25569934
40	0x3cc1fd9e	0.023680504
41	0xbe55d3d4	-0.20881587
42	0x3dd9ec61	0.10640789
43	0x3b6ca6ff	0.003611028
44	0xbef3cdf6	-0.47618073
45	0xbd2d0d5f	-0.04224908
46	0xbe84d1ef	-0.25941417
47	0x3ce24483	0.02762056
48	0x3e815ad7	0.25264618
49	0x3def05b2	0.11671008
50	0xbe1b552e	-0.15169212
51	0x3c5dd19f	0.013538747
52	0x3d7a762e	0.06114786
53	0xbe8ec0a8	-0.2788136
54	0xbe0671ff	-0.13129424
55	0x3c9f3d4c	0.019438408
56	0x3e59366e	0.2121217
57	0xbd722245	-0.059114713
58	0xbdb1e976	-0.08687107
59	0xbe3085d7	-0.17238556
60	0xbeb38453	-0.35061893
61	0x3d2b3664	0.041799918
62	0x3d8ec011	0.069702275
63	0x3e52d2b2	0.20588186
64	0x3da09e7a	0.07842727
65	0xbe165766	-0.14681777
66	0xbe2e34ea	-0.17012373
67	0xbee0069c	-0.43755043
68	0xbafa47d1	-0.0019094889
69	0x3e00aa2b	0.12564914
70	0xbe6d67ca	-0.23184124
71	0xbd569004	-0.052383438
72	0xbd1a71a8	-0.037706047
73	0xbe8205aa	-0.25394946
74	0xbcd40555	-0.025881449
75	0x3d933c8e	0.07189284
76	0xbe7ad093	-0.24493627
77	0x3dcee1a1	0.10101629
78	0x3c528d46	0.012851065
79	0x3e371b56	0.17881522
80	0xbe6af1a5	-0.22943743
81	0xbedfcc72	-0.43710667
82	0x3d5e92e5	0.05433931
83	0xbe275b2b	-0.16343372
84	0x3dc21c56	0.09478061
85	0xbe8be262	-0.27321154
86	0xbdc62a60	-0.09676051
87	0xbea6ff30	-0.32616568
88	0x3d947742	0.07249309
89	0x3d21414a	0.039368905
90	0x3db6b8d8	0.08921975
91	0xbdc62f8c	-0.096770376
92	0x3e30e0ee	0.17273304
93	0xbe897fde	-0.26855367
94	0xbe020bf9	-0.1269988
95	0x3d41abb0	0.047282875
96	0xbe1c75a4	-0.15279251
97	0xbe14486e	-0.14480755
98	0x3df13675	0.11777965
99	0x3dc73273	0.09726419
100	0xbc7118c2	-0.014715375
101	0x3d60529f	0.054766294
102	0xbe3caa18	-0.1842426
103	0x3db6a610	0.08918393
104	0xbeb52641	-0.35380748
105	0x3d57bfe7	0.052673247
106	0x3e2849a9	0.16434349
107	0xbd212369	-0.03934041
108	0xbef18839	-0.47174242
109	0xbf20aaf2	-0.6276084
110	0x3dfe65c2	0.124217525
111	0x3da772f1	0.0817622
112	0xbd015ad9	-0.03158078
113	0x3e4b64c1	0.19862653
114	0xbce682af	-0.028138487
115	0xbcf64748	-0.030063286
116	0x3e30aa0c	0.17252368
117	0xbea687bd	-0.32525435
118	0xbead5a49	-0.33857945
119	0xbe53ed7b	-0.2069606
120	0xbb8f26df	-0.0043686475
121	0xbea1e855	-0.31622568
122	0x3ce84332	0.028352354
123	0xbe96478a	-0.29351455
124	0xbe0ff017	-0.14056431
125	0xbe15e639	-0.14638604
126	0xbbfa9912	-0.007647642
127	0xbe8f70cc	-0.28015745
128	0xbda41541	-0.08011866
129	0x3e214f5e	0.15752932
130	0x3e5fec0a	0.21867386
131	0x3dbd7e5a	0.09252615
132	0x3d89f42c	0.06736025
133	0x3e31671a	0.17324486
134	0x3e04facb	0.12986295
135	0xbda8b60b	-0.08237847
136	0xbd72241f	-0.05911648
137	0xbd311019	-0.043228243
138	0xbd6e6410	-0.058200896
139	0x3d4befbd	0.04978918
140	0x3ac7d591	0.0015246143
141	0x3de4cd6f	0.11171996
142	0xbd6977aa	-0.056998886
143	0xbdbc9068	-0.09207231
144	0xbcb89e3c	-0.02253639
145	0xbe3d2d78	-0.18474376
146	0xbd65ecff	-0.05613422
147	0xbdc287e6	-0.09498577
148	0xbe2c026e	-0.16797802
149	0x3e4b0730	0.1982696
150	0xbd3ba557	-0.045811977
151	0xbdd1a0a0	-0.10235715
152	0xbdf95f37	-0.12176364
153	0xbe84c620	-0.25932407
154	0xbcaf1056	-0.021370094
155	0xbda69842	-0.081345096
156	0xbc066a3e	-0.008204041
157	0x3dd71b4f	0.105032556
158	0xbe0e69ed	-0.13907595
159	0xbe91b7e6	-0.28460616
160	0x3e5b6aff	0.21427535
161	0x3d9fa7a4	0.07795647
162	0xbe068864	-0.13137966
163	0x3bd4c3ea	0.0064930813
164	0xbe9a390c	-0.30121648
165	0xbc16bb7d	-0.009199974
166	0xbb65a402	-0.0035040383
167	0xbe9b5bce	-0.3034348
168	0xbcb01e03	-0.021498686
169	0xbd7ab7c1	-0.061210398
170	0xbe565696	-0.20931467
171	0x3dd16eaf	0.10226189
172	0x3e5d9852	0.21640137
173	0x3d48af73	0.048995446
174	0xbe15faa3	-0.14646392
175	0x3e1fd75a	0.15609494
176	0x3e04cef7	0.12969576
177	0xbb80f433	-0.003935361
178	0xbe90dddb	-0.28294262
179	0xbe1c8436	-0.1528481
180	0xbd773353	-0.06035168
181	0x3e103f25	0.14086588
182	0x3e6c2d6b	0.230642
183	0x3db0599a	0.0861084
184	0xbe5f77d7	-0.21823059
185	0xbdb36e69	-0.087612934
186	0xbcbc9bed	-0.02302357
187	0xbd6b30e7	-0.057419684
188	0xbd936ad5	-0.07198111
189	0x3dddfd98	0.10839385
190	0xbe6ae589	-0.22939123
191	0x3e573011	0.2101443
192	0xbb78ea26	-0.003798136
193	0xbe7d556f	-0.24739622
194	0xbd664c78	-0.05622527
195	0x3e3d9d7a	0.18517104
196	0x3ded5dc4	0.1159015
197	0xbd886024	-0.06658962
198	0x3e026fd2	0.12737969
199	0xbd928aee	-0.07155405
200	0x3c886869	0.01665135
201	0xbe315cff	-0.17320631
202	0x3e44c234	0.19214708
203	0xbd193432	-0.037403293
204	0x3d8ac1b7	0.067752294
205	0xbda134d6	-0.07871406
206	0xbe8913d2	-0.26772934
207	0x3e287f27	0.16454755
208	0xbe5e5100	-0.21710587
209	0xbe2cf4d7	-0.16890274
210	0xbe285608	-0.16439068
211	0x3e5590ab	0.20855968
212	0xbdd76c69	-0.105187245
213	0xbd705d70	-0.05868286
214	0xbc89e09d	-0.016830737
215	0x3d99a386	0.07501893
216	0xbde67d46	-0.11254363
217	0x3d00e4f3	0.031468343
218	0xbe097661	-0.13424064
219	0x3e595596	0.21224055
220	0x3e210319	0.15723838
221	0x3dcdc273	0.10046854
222	0xbe7427de	-0.23843333
223	0xbec21585	-0.37907043
224	0xbe480dd5	-0.19536527
225	0xbd9b453c	-0.07581565
226	0xbd5e49d0	-0.05426961
227	0xbd607e64	-0.054808035
228	0xbe8e566d	-0.27800313
229	0x3d9e4bb0	0.0772928
230	0xbc81d8a5	-0.015850374
231	0xbcc6ff85	-0.024291763
232	0xbecae77b	-0.3962973
233	0xbdd8c510	-0.10584462
234	0xbe492db2	-0.19646338
235	0xbd8a431b	-0.067510806
236	0xbe0e8b9e	-0.13920447
237	0x3dedbd86	0.11608414
238	0xbd779adb	-0.060450416
239	0x3baa8f4d	0.005205071
240	0xbdb87c8a	-0.09008129
241	0xbdc17077	-0.09445279
242	0x3e978b11	0.29598287
243	0xbd9f3dcb	-0.07775458
244	0x3d8308bf	0.063981526
245	0xbe62b04e	-0.22137567
246	0x3e5f8a21	0.21830036
247	0xbc85a5ee	-0.016314473
248	0x3d151442	0.036396272
249	0x3d8b30d8	0.067964256
250	0xbe810bb9	-0.25204256
251	0x3d9a9938	0.075487554
252	0x3d4c5103	0.049881946
253	0xbe1caeb1	-0.15301014
254	0xbe312175	-0.17297919
255	0xbe1206f4	-0.14260465

fc2.bias f4 [18]
0	0xbdcabcd0	-0.098992944
1	0x3d89d5e0	0.067302465
2	0x3db1906a	0.08670123
3	0x3d81a6a8	0.06330615
4	0xbd394886	-0.04523518
5	0x3d48002c	0.04882829
6	0xbde49e4a	-0.11163004
7	0xbd930dd5	-0.071803726
8	0x3da8b4c7	0.082376055
9	0xbcdc8491	-0.026918681
10	0x3ccdf032	0.025138948
11	0xbd3158a9	-0.043297444
12	0xbdd6fc9f	-0.104974024
13	0x3d80b14d	0.062838174
14	0xbda507a6	-0.080580994
15	0xbdb3590a	-0.08757217
16	0xbd992585	-0.074778594
17	0xbdc94c85	-0.09829048
