model_storage/model.pth (torch, 98293 bytes, 9 tensors)

emb.weight f4 [80, 100]
0.0 0.0 0.0 0.0 0.0 0.0 0.0 0.0
0.0 0.0 0.0 0.0 0.0 0.0 0.0 0.0
0.0 0.0 0.0 0.0 0.0 0.0 0.0 0.0
0.0 0.0 0.0 0.0 0.0 0.0 0.0 0.0
0.0 0.0 0.0 0.0 0.0 0.0 0.0 0.0
0.0 0.0 0.0 0.0 0.0 0.0 0.0 0.0
0.0 0.0 0.0 0.0 0.0 0.0 0.0 0.0
0.0 0.0 0.0 0.0 0.0 0.0 0.0 0.0
0.0 0.0 0.0 0.0 0.0 0.0 0.0 0.0
0.0 0.0 0.0 0.0 0.0 0.0 0.0 0.0
0.0 0.0 0.0 0.0 0.0 0.0 0.0 0.0
0.0 0.0 0.0 0.0 0.0 0.0 0.0 0.0
0.0 0.0 0.0 0.0 0.03154889 -0.7419016 -0.29778957 0.017165666
-0.1772239 -0.13342951 0.29395735 1.3849541 0.12091276 2.5417871 -0.64046 -1.9740105
-0.32956925 0.007958851 0.9262348 -1.8845556 0.1669616 0.45862234 -1.7662065 0.5859862
1.7510315 0.28072214 0.31096315 -0.65375805 -0.65762633 0.31844944 -0.5495865 -1.4649245
-2.0555017 1.8274626 1.3035277 -0.450132 1.3471215 1.6909801 -0.12444574 -1.6823665
-0.026608044 0.07404919 1.0517149 0.6778932 0.30665475 -0.7472333 0.7434943 0.88765764
2.2874365 0.96113855 -1.5296903 -0.29122463 -0.11395203 -0.31366795 -0.6293117 1.1385068
-0.99127394 0.1699892 1.2248735 -0.23453896 -1.0571605 -0.65426755 1.590885 -0.6994915
-0.89605623 0.0661913 -0.056280244 2.341223 -2.723433 0.509673 -0.8144687 -0.2460404
0.0045085433 2.0474298 -0.15754561 -0.21867052 -1.3519301 -0.057280593 -1.853978 -1.38489
-0.34539968 -1.1625037 0.14448078 0.16632313 0.75069964 0.9131729 -1.7277395 1.3055398
0.95932335 1.0599629 0.62986356 -1.2866658 -0.68748116 2.1382189 0.51141226 1.21909
0.19098009 -0.3425078 1.7955087 1.3914595 1.0785228 -0.6149516 -0.45885316 0.5674816
-0.032298964 -1.7023631 1.2241652 0.33807254 -1.154345 -1.0648392 -0.16640966 0.12592584
0.14298871 -0.6899821 -0.4209577 -0.46655774 0.83927 0.5790847 1.1783468 0.7772303
0.4494604 0.79093695 -0.18834773 -0.75824577 -0.5866812 0.2978154 -0.48021296 -0.5024116
-0.5317325 -0.1775529 -0.15210532 -0.24076267 0.11106802 0.72822225 -0.08384433 -0.5672264
0.8751213 -1.6911719 0.7272031 -2.0435555 -1.0715947 0.041644067 -0.31039616 -0.39480782
1.515987 -0.15396053 -0.87371117 -1.0919602 0.3584281 -0.32541445 -0.06320228 -0.8705245
-0.12466794 0.27575055 -0.84058326 -1.342584 1.1094484 -1.6694129 -0.470191 1.10903
00000000: 0000 0000 0000 0000 0000 0000 0000 0000
00000010: 0000 0000 0000 0000 0000 0000 0000 0000
00000020: 0000 0000 0000 0000 0000 0000 0000 0000
00000030: 0000 0000 0000 0000 0000 0000 0000 0000
00000040: 0000 0000 0000 0000 0000 0000 0000 0000
00000050: 0000 0000 0000 0000 0000 0000 0000 0000
00000060: 0000 0000 0000 0000 0000 0000 0000 0000
00000070: 0000 0000 0000 0000 0000 0000 0000 0000
00000080: 0000 0000 0000 0000 0000 0000 0000 0000
00000090: 0000 0000 0000 0000 0000 0000 0000 0000
000000a0: 0000 0000 0000 0000 0000 0000 0000 0000
000000b0: 0000 0000 0000 0000 0000 0000 0000 0000
000000c0: 0000 0000 0000 0000 0000 0000 0000 0000
000000d0: 0000 0000 0000 0000 0000 0000 0000 0000
000000e0: 0000 0000 0000 0000 0000 0000 0000 0000
000000f0: 0000 0000 0000 0000 0000 0000 0000 0000
00000100: 0000 0000 0000 0000 0000 0000 0000 0000
00000110: 0000 0000 0000 0000 0000 0000 0000 0000
00000120: 0000 0000 0000 0000 0000 0000 0000 0000
00000130: 0000 0000 0000 0000 0000 0000 0000 0000
00000140: 0000 0000 0000 0000 0000 0000 0000 0000
00000150: 0000 0000 0000 0000 0000 0000 0000 0000
00000160: 0000 0000 0000 0000 0000 0000 0000 0000
00000170: 0000 0000 0000 0000 0000 0000 0000 0000
00000180: 0000 0000 0000 0000 0000 0000 0000 0000
00000190: 6939 013d 43ed 3dbf e077 98be 039f 8c3c
000001a0: 2f7a 35be bfa1 08be 9481 963e 2d46 b13f
000001b0: 1ca1 f73d a4ac 2240 30f5 23bf 60ac fcbf
000001c0: 4dbd a8be d765 023c b91d 6d3f 1e39 f1bf
000001d0: fbf7 2a3e 8cd0 ea3e 0e13 e2bf 3103 163f
000001e0: cd21 e03f d0ba 8f3e 9036 9f3e b05c 27bf
000001f0: 335a 28bf ce0b a33e b3b1 0cbf a582 bbbf
00000200: 578d 03c0 4bea e93f ffd9 a63f b477 e6be
00000210: 7a6e ac3f 0972 d83f 68dd febd c957 d7bf
00000220: 1df9 d9bc 1aa7 973d 989e 863f 698a 2d3f
00000230: da01 9d3e ae4a 3fbf a455 3e3f 883d 633f
00000240: 5c65 1240 2d0d 763f e4cc c3bf 651b 95be
00000250: af5f e9bd 1699 a0be 921a 21bf 97ba 913f
00000260: 21c4 7dbf a611 2e3e a8c8 9c3f fb2a 70be
00000270: 0951 87bf 147e 27bf 1fa2 cb3f e011 33bf
00000280: f163 65bf 4e8f 873d 1d86 66bd 99d6 1540
00000290: ba4c 2ec0 ee79 023f 0581 50bf 04f2 7bbe
000002a0: 67bc 933b 1709 0340 a353 21be 2aeb 5fbe
000002b0: 0c0c adbf 0e9f 6abd 274f edbf 1344 b1bf
000002c0: 3ad8 b0be eccc 94bf c5f2 133e 9c50 2a3e
000002d0: da2d 403f b3c5 693f 9126 ddbf ee1b a73f
000002e0: 3796 753f ddac 873f bd3e 213f 77b1 a4bf
000002f0: c4fe 2fbf 94d8 0840 eaeb 023f 240b 9c3f
00000300: 4990 433e 2f5d afbe 3bd3 e53f 581b b23f
00000310: 090d 8a3f 786d 1dbf cdee eabe 7946 113f
00000320: eb4b 04bd 09e7 d9bf 72b1 9c3f d817 ad3e
00000330: 94c1 93bf a74c 88bf 4b67 2abe b4f2 003e
00000340: a26b 123e aba2 30bf c587 d7be a8e0 eebe
00000350: 66da 563f e53e 143f 11d4 963f 91f8 463f
00000360: ac1f e63e d87a 4a3f 3ade 40be 651c 42bf
00000370: bd30 16bf 437b 983e 79de f5be 0c9e 00bf
00000380: 9f1f 08bf 6dd0 35be 7fc1 1bbe 7d8a 76be
00000390: a177 e33d c66c 3a3f 93b6 abbd c035 11bf
000003a0: f307 603f 5278 d8bf fb29 3a3f 9dc9 02c0
000003b0: 042a 89bf f892 2a3d 3fec 9ebe 4024 cabe
000003c0: dd0b c23f d4a7 1dbe 89ab 5fbf 5ac5 8bbf
000003d0: e383 b73e b99c a6be 3270 81bd b2da 5ebf
000003e0: e851 ffbd 2d2f 8d3e 7730 57bf cbd9 abbf
000003f0: 6802 8e3f 52af d5bf e0bc f0be b2f4 8d3f

rnn.rnn_cell.weight_ih f4 [64, 100]
-0.069374576 0.01514222 -0.017620051 -0.089274265 -0.014210992 0.13083409 -0.0644696 0.12863964
-0.06531307 -0.069521464 0.024852818 0.12702027 -0.07820923 -0.10395457 -0.13539478 -0.13479711
-0.044718053 0.09145172 -0.0489243 -0.11468086 -0.08114557 -0.02142465 -0.032373857 -0.011261967
0.113231406 0.024526956 0.14288874 -0.11265832 -0.02679757 -0.042832118 -0.008956883 0.11427422
-0.13653058 0.12639804 -0.13528779 0.1424066 0.15089229 0.09048854 0.14257436 0.09466834
-0.10171843 -0.14246981 -0.08245728 -0.020809494 0.10569516 0.13378891 -0.020791471 0.05060974
0.0039187833 -0.01912792 -0.10911025 -0.12439369 -0.120581396 0.07927961 -0.0771935 -0.19096111
0.017403876 0.025065811 -0.09178392 0.06441652 -0.013517976 0.113361195 0.080061965 -0.026627092
-0.09360872 0.08629835 -0.13899666 -0.0069262893 -0.060375795 -0.12888558 -0.022263303 -0.09896828
-0.11689994 -0.031043358 0.0066414345 0.12745275 -0.10964833 0.065955184 -0.05305579 -0.0021412862
0.12138648 0.08162272 -0.1345524 0.16267063 0.011309177 0.06102741 -0.06056654 0.01607867
0.0017450235 0.025249027 0.14904894 -0.047307994 0.14316571 -0.15049249 -0.1265155 -0.11873764
0.08849592 -0.044688877 0.13715912 0.1282894 0.16918024 -0.006232449 0.01088699 0.054462593
-0.16578355 -0.020282803 0.0021550627 0.05169107 -0.069600835 0.04031591 0.14458382 0.0113339955
0.18079793 -0.08114989 0.012596037 -0.011848423 0.15136729 -0.037439104 -0.00981589 -0.017232373
0.01227196 -0.1496069 -0.004069576 0.12832844 -0.010684353 0.11961526 -0.06642992 -0.15270463
-0.12638918 -0.012365746 0.12591888 0.10871555 0.017235097 -0.10720702 0.10254515 0.04797947
0.06507294 -0.07790565 -0.052265204 0.008865261 0.009723287 -0.04346027 -0.04574967 0.06437161
-0.17719774 -0.24398945 -0.07977733 -0.19065133 0.06585583 0.014788197 -0.1197364 -0.25315765
0.07363 -0.074999325 0.06559697 0.17535202 0.16754211 -0.08093934 -0.12475487 -0.11290976
-0.12866533 -0.0087489905 -0.1601025 0.09364593 -0.019693885 0.10285452 0.09667683 0.06998416
-0.1758789 -0.040390853 0.05825778 0.23373733 0.16373733 -0.06634235 -0.08985418 0.05114949
-0.010624667 0.038595587 -0.04863121 -0.04971153 0.0090376325 0.15351865 0.07732029 -0.16353773
-0.08430014 -0.07450744 0.09438301 -0.14948831 -0.15687875 0.19174427 -0.082902126 -0.031136736
0.0406553 -0.0076628327 -0.029679257 0.049000755 0.06866646 -0.17904489 -0.19326413 0.10671244
0.036560245 0.02716449 0.00877901 0.0040541594 0.028535673 0.07986121 0.11456429 -0.105842754
-0.020116735 -0.024730524 -0.08104563 -0.07681616 0.06299484 -0.04896207 0.09552931 -0.005926306
0.084169604 -0.16324233 -0.02584885 -0.023553964 -0.015691925 0.07459762 0.045991033 0.10429599
0.027482716 0.066687964 0.05815137 -0.03289067 0.03651317 -0.124250256 0.06509305 -0.10184276
-0.021092052 -0.063620366 -0.071361005 0.111675315 -0.12232175 0.061147016 0.09284905 0.027767187
-0.101351365 -0.09858753 0.05617605 0.0047419644 -0.0990253 -0.06967689 0.053315412 -0.021272559
-0.13299532 0.0040911855 -0.14561854 0.14533092 0.03371148 -0.0076020956 0.0707054 -0.16783398
00000000: 4214 8ebd 1317 783c ed57 90bc 6dd5 b6bd
00000010: 38d5 68bc 5ff9 053e a308 84bd 1cba 033e
00000020: dcc2 85bd 4561 8ebd 2398 cb3c 9a11 023e
00000030: 292c a0bd 22e6 d4bd eea4 0abe 4108 0abe
00000040: 472a 37bd 0a4b bb3d d964 48bd ccdd eabd
00000050: a62f a6bd bf82 afbc 739a 04bd 1d84 38bc
00000060: dee5 e73d c1ec c83c 6d51 123e 68b9 e6bd
00000070: 9486 dbbc bb70 2fbd e4bf 12bc 9a08 ea3d
00000080: acce 0bbe 7d6e 013e e288 0abe 09d3 113e
00000090: 8283 1a3e 0e52 b93d 03ff 113e 7ae1 c13d
000000a0: c151 d0bd 9be3 11be 5ddf a8bd ac78 aabc
000000b0: b476 d83d f6ff 083e e052 aabc 294c 4f3d
000000c0: 2369 803b 28b2 9cbc 3275 dfbd 1ec2 febd
000000d0: 61f3 f6bd 595d a23d a017 9ebd 4f8b 43be
000000e0: 9392 8e3c d156 cd3c 35f9 bbbd cfec 833d
000000f0: 807a 5dbc ea29 e83d 87f7 a33d 0f21 dabc
00000100: eeb5 bfbd 30bd b03d 2455 0ebe edf5 e2bb
00000110: 9c4c 77bd 95fa 03be 8861 b6bc e2af cabd
00000120: 3c69 efbd a44e febc 64a0 d93b f982 023e
00000130: 4e8f e0bd 8313 873d 0751 59bd d254 0cbb
00000140: 7a99 f83d d029 a73d 1bc8 09be 2193 263e
00000150: 204a 393c e1f7 793d 9f14 78bd 6ab7 833c
00000160: 46b9 e43a 0cd7 ce3c 49a0 183e 07c6 41bd
00000170: 089a 123e b41a 1abe 478d 01be b82c f3bd
00000180: 593d b53d af0b 37bd 7173 0c3e 4c5e 033e
00000190: 963d 2d3e 9239 ccbb 595f 323c 2b14 5f3d
000001a0: 2ac3 29be 1f28 a6bc f43b 0d3b 04ba 533d
000001b0: e28a 8ebd 4c22 253d c80d 143e 39b2 393c
000001c0: 1823 393e ea31 a6bd 9c5f 4e3c e31f 42bc
000001d0: 0700 1b3e bf59 19bd d4d2 20bc e82a 8dbc
000001e0: 5510 493c 8d32 19be 145a 85bb 8868 033e
000001f0: 6d0d 2fbc d8f8 f43d 690c 88bd 9a5e 1cbe
00000200: 2a6c 01be b399 4abc e1f0 003e 42a6 de3d
00000210: 9e30 8d3c 5b8f dbbd 3103 d23d 1f86 443d
00000220: f644 853d ff8c 9fbd 0a14 56bd 9a3f 113c
00000230: 6c4e 1f3c 6503 32bd 0264 3bbd 43d5 833d
00000240: 5373 35be 5fd8 79be 4c62 a3bd 1a3a 43be
00000250: 6cdf 863d 324a 723c 5c38 f5bd e19d 81be
00000260: 53cb 963d 3f99 99bd b457 863d 7b8f 333e
00000270: 2990 2b3e 86c3 a5bd 7b7f ffbd 3b3d e7bd
00000280: d8c0 03be ed57 0fbc e9f1 23be 70c9 bf3d
00000290: 1255 a1bc 64a5 d23d 80fe c53d db53 8f3d
000002a0: 9919 34be e170 25bd b69f 6e3d d758 6f3e
000002b0: c2aa 273e 7fde 87bd 7805 b8bd 2182 513d
000002c0: 1513 2ebc 6816 1e3d 8531 47bd 519e 4bbd
000002d0: 9412 143c fe33 1d3e 1a5a 9e3d 6f76 27be
000002e0: 8da5 acbd 5b97 98bd e14b c13d 7713 19be
000002f0: d3a4 20be 9c58 443e 97c8 a9bd 7812 ffbc
00000300: 2c86 263d 8018 fbbb ea21 f3bc 04b5 483d
00000310: 00a1 8c3d 8b57 37be 08e7 45be 0d8c da3d
00000320: 32c0 153d 1188 de3c d6d5 0f3c c1d8 843b
00000330: a5c3 e93c 468e a33d afa0 ea3d 16c4 d8bd
00000340: dacb a4bc ab97 cabc 40fb a5bd ca51 9dbd
00000350: 7003 813d 748c 48bd dfa4 c33d 7531 c2bb
00000360: 1d61 ac3d ff28 27be f8c0 d3bc 3ef4 c0bc
00000370: 5a8c 80bc a3c6 983d 1861 3c3d 2399 d53d
00000380: 6f23 e13c b393 883d 2230 6e3d 5eb8 06bd
00000390: d58e 153d eb76 febd 814f 853d f092 d0bd
000003a0: 3dc9 acbc 654b 82bd b825 92bd 07b6 e43d
000003b0: d383 fabd 4b75 7a3d a527 be3d 0378 e33c
000003c0: 4e91 cfbd 42e8 c9bd dc18 663d 7b62 9b3b
000003d0: c7cd cabd c2b2 8ebd 4361 5a3d ca43 aebc
000003e0: ed2f 08be 5a0f 863b 071d 15be a1d1 143e
000003f0: 0d15 0a3d 001b f9bb fecd 903d acdc 2bbe

rnn.rnn_cell.weight_hh f4 [64, 64]
0.12641616 0.098212875 -0.023029868 -0.1552844 -0.25360438 0.040039383 -0.1618819 0.16467871
-0.039517805 0.20326583 0.13343693 0.05348875 0.0009996373 0.032942276 0.049438093 0.13381405
-0.016889146 0.14102061 0.14760886 0.14170861 -0.074668325 0.1567653 -0.05494835 -0.09571612
0.19227402 0.006973262 -0.18959302 0.20276295 -0.16519757 0.16878286 0.003580348 0.036143307
-0.22451709 0.24026503 0.020765316 -0.14514525 -0.031427283 0.15804146 -0.0181449 -0.06386888
0.10845004 -0.046341673 -0.13060017 0.19148278 0.11929602 -0.06905077 -0.016310597 -0.03439275
-0.2515459 -0.025414787 -0.14050655 0.051628847 -0.12269462 0.09671554 -0.030519348 0.09184713
0.048333734 0.16930322 0.14050509 0.086391665 -0.18849726 0.13015218 -0.0350152 0.103231974
0.07552839 -0.3229428 0.20895338 0.009025795 0.048345212 0.01923274 0.16265577 0.02227458
0.15764624 0.0648059 -0.05029384 0.24144308 0.11494004 -0.12961864 0.12771705 0.017849674
0.16714725 -0.15752761 -0.29038233 -0.14297798 -0.08906301 -0.16015445 0.08642338 -0.0905043
-0.026021013 0.0013160696 0.039233614 0.042186607 0.21385664 -0.16939479 0.0556385 -0.043836616
-0.14993031 -0.06132209 0.032651376 0.25880992 -0.030708088 0.082006864 0.13844946 0.042472053
0.019715397 0.1620642 -0.09536261 -0.15888098 -0.14887218 -0.07572043 -0.015361178 0.3100194
0.12112329 -0.07686353 0.029926552 0.12733835 -0.014654171 -0.050297316 -0.18669003 0.055246554
-0.0477799 -0.04084168 0.0073356936 -0.1449717 0.021489194 -0.25871682 0.07819933 0.037036806
-0.08816072 -0.15148613 0.045275252 0.13086987 -0.10845603 0.02930699 0.13074246 -0.07916351
0.08806077 0.036186095 -0.0925861 0.2563436 0.0066429204 0.036898203 -0.036842685 0.07617897
0.044941027 -0.13254541 -0.024166405 -0.018904386 0.020768145 -0.12737034 0.05796416 0.032944065
-0.20452033 -0.10206732 -0.0020348378 0.05822208 0.22188103 0.034062423 0.084918626 -0.27643362
-0.0148037495 -0.059826348 -0.06479495 0.14248598 0.12512219 0.100693 0.0047540423 -0.26455036
-0.0024977124 -0.0027654944 0.15025385 0.0124822045 0.010302801 -0.08446783 -0.13610782 0.15018684
0.02684111 -0.0213948 -0.0373687 0.13620251 -0.13445765 0.061549228 0.013090475 0.05858739
0.04966122 -0.06154395 0.005029932 -0.020856002 0.03274744 -0.104687296 0.045354947 -0.08906999
-0.109780975 -0.096047476 0.28324312 0.04428123 0.14374015 0.023896594 0.22056958 -0.14088875
-0.0691478 -0.07759294 -0.2697865 0.07027245 -0.016316952 0.1427655 0.19010796 0.03545543
0.20514183 -0.038742073 -0.13773932 -0.38752067 -0.07007715 0.033074792 -0.05529926 -0.14362375
-0.26652768 0.18306924 0.19286251 -0.048537083 -0.017107686 0.095503055 -0.10399729 -0.04034671
-0.11636959 -0.10163102 0.199518 -0.05136234 0.24807236 -0.047177173 -0.0065379757 -0.00070089614
0.031624164 -0.1017608 0.006951955 -0.0037223552 -0.1744974 0.023262655 -0.05305719 0.013793321
0.03847268 0.027787289 -0.008404665 0.078149796 -0.05983845 0.18238132 0.083457895 0.016524032
-0.19102061 0.0018960232 -0.07769218 0.027286494 0.26144397 -0.25444442 0.0345557 -0.0023847844
00000000: 3d73 013e d523 c93d 22a9 bcbc e002 1fbe
00000010: 6fd8 81be 5600 243d 5ec4 25be 89a1 283e
00000020: 6cdd 21bd eb24 503e b1a3 083e 0517 5b3d
00000030: 4306 833a 7bee 063d 997f 4a3d 8d06 093e
00000040: 1b5b 8abc b567 103e c726 173e 101c 113e
00000050: b5eb 98bd 1587 203e 8511 61bd d006 c4bd
00000060: 7be3 443e f67f e43b ac24 42be 17a1 4f3e
00000070: 8d29 29be 6ad5 2c3e 46a4 6a3b 010b 143d
00000080: cfe7 65be 0908 763e 061c aa3c f5a0 14be
00000090: e5b9 00bd 9fd5 213e 9da4 94bc b0cd 82bd
000000a0: 0e1b de3d c4d0 3dbd 0dbc 05be 1014 443e
000000b0: 7951 f43d 7d6a 8dbd cd9d 85bc 6adf 0cbd
000000c0: a0ca 80be ac32 d0bc f3e0 0fbe c578 533d
000000d0: 5147 fbbd cc12 c63d b603 fabc 591a bc3d
000000e0: 98f9 453d d35d 2d3e 91e0 0f3e 1dee b03d
000000f0: 6d05 41be 9d46 053e 196c 0fbd 496b d33d
00000100: a1ae 9a3d c258 a5be e0f7 553e eee0 133c
00000110: a105 463d fb8d 9d3c 3c8f 263e 2e79 b63c
00000120: 046e 213e f5b8 843d ea00 4ebd db3c 773e
00000130: af65 eb3d c0ba 04be 42c8 023e 7b39 923c
00000140: a628 2b3e eb4e 21be feac 94be d268 12be
00000150: ab66 b6bd 87ff 23be befe b03d 525a b9bd
00000160: 052a d5bc f87f ac3a 6db3 203d ddcb 2c3d
00000170: 3cfd 5a3e d475 2dbe 32e5 633d 068e 33bd
00000180: 5587 19be df2c 7bbd 73bd 053d bc82 843e
00000190: 878f fbbc 37f3 a73d b2c5 0d3e 2df7 2d3d
000001a0: 2f82 a13c 28f4 253e 794d c3bd b2b1 22be
000001b0: f371 18be 5013 9bbd 73ad 7bbc ddba 9e3e
000001c0: 7d0f f83d a06a 9dbd 8728 f53c fc64 023e
000001d0: 0c18 70bc 8f04 4ebd ac2b 3fbe 364a 623d
000001e0: dbb4 43bd 9b49 27bd 4260 f03b 7673 14be
000001f0: 1b0a b03c 8876 84be f826 a03d e8b3 173d
00000200: 9c8d b4bd 2e1f 1bbe 8b72 393d c002 063e
00000210: 321e debd 3615 f03c 5ae1 053e 7a20 a2bd
00000220: 3459 b43d df37 143d c89d bdbd 783f 833e
00000230: dbac d93b 9222 173d 5be8 16bd b803 9c3d
00000240: 1514 383d fcb9 07be a0f8 c5bc 5fdd 9abc
00000250: f521 aa3c 5f6d 02be d46b 6d3d 5bf0 063d
00000260: c76d 51be ac08 d1bd ea5a 05bb 477a 6e3d
00000270: c834 633e 0a85 0b3d d1e9 ad3d b588 8dbe
00000280: 6d8b 72bc 790c 75bd 37b3 84bd d8e7 113e
00000290: 0820 003e 2238 ce3d ccc7 9b3b 2573 87be
000002a0: a9b0 23bb 4c3d 35bb 25dc 193e 2982 4c3c
000002b0: 14cd 283c 78fd acbd d95f 0bbe 94ca 193e
000002c0: e3e1 db3c 2644 afbc ec0f 19bd ac78 0b3e
000002d0: 44af 09be 0b1b 7c3d 6f79 563c 55f9 6f3d
000002e0: 9069 4b3d 8215 7cbd 21d2 a43b 35da aabc
000002f0: 2e22 063d 4b66 d6bd 1cc6 393d 546a b6bd
00000300: d9d4 e0bd 8ab4 c4bd 3e05 913e 3c60 353d
00000310: 9e30 133e cac2 c33c fedc 613e 2445 10be
00000320: 5d9d 8dbd 0ce9 9ebd 7521 8abe 01eb 8f3d
00000330: 21ab 85bc 1f31 123e a9ab 423e b739 113d
00000340: b310 523e 02b0 1ebd 890b 0dbe 1c69 c6be
00000350: 9c84 8fbd 6f79 073d 7a81 62bd 1b12 13be
00000360: 5176 88be 8176 3b3e c07d 453e d2ce 46bd
00000370: 6b25 8cbc 1b97 c33d 88fc d4bd 9742 25bd
00000380: 2e53 eebd ed23 d0bd 724e 4c3e 5161 52bd
00000390: ae06 7e3e da3c 41bd 843c d6bb 58bc 37ba
000003a0: 5788 013d f767 d0bd 3acd e33b c2f2 73bb
000003b0: 72af 32be 5391 be3c 7f52 59bd 62fd 613c
000003c0: 8795 1d3d 2ba2 e33c b8b3 09bc 000d a03d
000003d0: 2a19 75bd 2bc2 3a3e f9eb aa3d 685d 873c
000003e0: e89a 43be fb83 f83a 141d 9fbd ed87 df3c
000003f0: fcdb 853e 8a46 82be 478a 0d3d 0b4a 1cbb

rnn.rnn_cell.bias_ih f4 [64]
-0.0691923 0.02950236 -0.08742547 0.14884181 -0.08890014 -0.017774127 0.06519996 -0.0830138
-0.056124233 0.06715269 0.012704908 0.08722119 0.092315905 0.053906117 0.100018896 0.03476559
-0.02827871 -0.05182692 -0.10120768 -0.071721286 -0.0576042 0.12115917 -0.02997453 -0.13830547
0.07287542 -0.09044423 0.084653966 -0.083707534 -0.066923454 0.029883945 -0.12654717 -0.015470277
0.051822595 0.025095465 0.056686003 -0.012632935 0.05469167 0.14266585 -0.06727299 -0.0071917195
-0.060430575 0.082781896 0.055277236 0.08166047 0.034401618 -0.0010637817 -0.091108926 0.068833865
-0.040469024 0.033741493 -0.11972839 0.07851632 -0.11843106 -0.09275919 -0.11526804 -0.024780894
0.09302896 0.009147726 0.090549454 -0.122013636 -0.0073105465 0.01717437 0.0029900149 -0.038223233
00000000: b1b4 8dbd efae f13c 200c b3bd fd69 183e
00000010: 4711 b6bd 0c9b 91bc 8e87 853d 2403 aabd
00000020: 86e2 65bd 5987 893d 3f28 503c 06a1 b23d
00000030: 1f10 bd3d a9cc 5c3d b5d6 cc3d 5d66 0e3d
00000040: c1a8 e7bc 7748 54bd f945 cfbd 9ce2 92bd
00000050: 62f2 6bbd 4d22 f83d 258d f5bc f39f 0dbe
00000060: b53f 953d d33a b9bd 0f5f ad3d db6e abbd
00000070: 2a0f 89bd 2dcf f43c 9595 01be 0b77 7dbc
00000080: ee43 543d 0195 cd3c 952f 683d 5ffa 4ebc
00000090: 5f04 603d ff16 123e 6cc6 89bd 84a8 ebbb
000000a0: 0d86 77bd 8e89 a93d 626a 623d 9b3d a73d
000000b0: b6e8 0c3d 976e 8bba 5197 babd c5f8 8c3d
000000c0: d9c2 25bd 8534 0a3d 2834 f5bd 2acd a03d
000000d0: fc8b f2bd 88f8 bdbd a611 ecbd 4d01 cbbc
000000e0: f885 be3d 58e0 153c fe71 b93d 49e2 f9bd
000000f0: 4f8d efbb 44b1 8c3c 20f4 433b f78f 1cbd

rnn.rnn_cell.bias_hh f4 [64]
0.029895453 0.16792582 -0.080571055 0.079438046 0.01329692 0.08312976 0.016695017 0.025879499
-0.05274657 -0.10513186 0.043293193 -0.009518935 -0.048045643 -0.04360841 -0.0034211474 0.12388236
0.0391699 0.09205964 0.040073816 0.025609141 0.10040832 0.06676506 -0.08288801 0.053212352
0.12115334 -0.082699366 -0.05526816 0.02268247 0.12477548 0.03283686 0.110507354 -0.0998702
-0.08833319 0.063377745 -0.10679437 -0.12514022 -0.10512366 0.16740836 0.08504267 -0.038207218
0.12387789 -0.11114572 -0.09470002 0.041226983 0.07562655 -0.09866493 -0.020748356 -0.08297295
0.05991251 -0.11400659 0.02288938 -0.07568407 0.0681524 0.11134331 0.083089516 0.010075088
0.032499205 -0.023232907 -0.07164268 -0.13067123 0.039658543 0.08592732 -0.008402211 -0.08101717
00000000: 4fe7 f43c bff4 2b3e 7002 a5bd 6ab0 a23d
00000010: 53db 593c f03f aa3d fdc3 883c 3e01 d43c
00000020: ca0c 58bd 5f4f d7bd 3454 313d 4ff5 1bbc
00000030: 82cb 44bd bb9e 32bd 5435 60bb 09b6 fd3d
00000040: 9e70 203d c489 bc3d 7124 243d 43ca d13c
00000050: e1a2 cd3d 1fbc 883d 30c1 a9bd 32f5 593d
00000060: 3e1f f83d 495e a9bd de60 62bd 96d0 b93c
00000070: 498a ff3d f17f 063d ae51 e23d bf88 ccbd
00000080: 08e8 b4bd 31cc 813d 02b7 dabd c224 00be
00000090: 134b d7bd 196d 2b3e da2a ae3d 2c7f 1cbd
000000a0: b1b3 fd3d 5ea0 e3bd 16f2 c1bd a0dd 283d
000000b0: 18e2 9a3d d710 cabd 75f8 a9bc b9ed a9bd
000000c0: d266 753d 497c e9bd 8282 bb3c 4000 9bbd
000000d0: 7c93 8b3d f607 e43d d62a aa3d fb11 253c
000000e0: e31d 053d f052 bebc 66b9 92bd aece 05be
000000f0: ff70 223d aafa af3d 6da9 09bc 54ec a5bd

fc1.weight f4 [64, 64]
-0.018403124 -0.015638117 -0.046527997 -0.11492319 0.074381396 -0.14253196 -0.22714442 -0.034650255
-0.1344298 -0.024306148 -0.14019766 0.007944831 0.22072227 -0.1241274 0.041010715 -0.074313655
0.018889045 -0.045340646 -0.11011592 0.07311283 -0.052073587 -0.062854595 -0.052362747 0.044532463
-0.046659652 0.0008857585 -0.08757554 -0.088040896 0.02892964 0.10596056 0.005293679 -0.12101285
-0.026518535 0.09057082 -0.103006735 0.08423423 0.069515266 0.073726945 -0.05519091 0.004266287
-0.12511352 0.07898021 0.009467339 -0.034282696 0.16324578 -0.014375804 0.0160962 0.065728515
0.060826182 -0.10286979 -0.093386 -0.10340292 -0.16126236 0.012298293 -0.0060783024 0.04888287
-0.13408476 0.23111853 -0.055012435 0.18439594 0.13212618 -0.17236876 -0.10787128 0.10097853
-0.14022018 0.108762085 0.0004897681 0.062044125 0.09101765 -0.019343358 0.090844005 -0.1723921
-0.011670224 -0.117255755 0.089524396 -0.09202697 -0.16051747 0.24951203 0.015116493 0.08811369
0.1797137 0.06063274 0.10101731 -0.10917928 -0.035084035 0.053633187 0.024068905 0.08913951
0.19140904 -0.00048351422 -0.076810814 -0.061253436 -0.004639295 0.023108557 0.04414608 -0.044155348
-0.012120406 0.08062199 0.04822702 -0.12294591 0.01888591 0.06206284 -0.060077038 -0.06171888
-0.14530061 -0.091525726 0.072141446 0.048087493 -0.10483682 0.09855832 0.13975522 0.019507924
-0.04710537 0.107502125 0.040527463 0.08677697 0.0338795 -0.08209994 -0.06114279 -0.05446911
-0.13214557 -0.08974454 -0.09644779 0.10532165 -0.113540605 -0.11598129 -0.06615103 -0.15792266
-0.020707283 0.0776908 0.15892647 -0.09070215 0.01865596 -0.11137195 -0.085486956 0.08352737
0.073884435 0.103946574 0.07438595 -0.07374505 -0.13957931 -0.09712874 0.10479995 0.055284183
0.036982894 0.08636016 -0.06622312 -0.052380867 -0.055663608 -0.1623809 0.20095143 0.09731173
-0.055489477 0.09455681 0.09929526 0.10878312 -0.04387655 0.023592437 -0.020024663 -0.067147605
-0.06850459 -0.10799514 0.15641911 -0.027649304 -0.01593446 0.113539144 0.109451465 -0.09625318
-0.2480012 0.081671305 -0.06562228 0.06555207 -0.10875031 0.1399607 0.02409171 -0.06483367
-0.19708425 0.016322134 -0.013179884 0.042884424 0.12724642 -0.19308597 0.12444427 -0.08006687
-0.055672016 -0.020858234 0.11955937 -0.07678314 -0.2569175 -0.015161338 0.18057947 -0.10006913
0.02263995 0.058273718 -0.012040731 0.0018563363 0.066201 0.051956747 -0.1061292 0.18449171
-0.13710655 0.011954031 0.27700567 -0.18784998 0.10089901 -0.23454368 0.051504023 -0.18782273
-0.18027277 0.08150665 -0.025271086 0.22929959 -0.027521225 -0.10369588 -0.08332008 0.023285668
0.104226395 -0.058342267 0.06836757 0.12098184 0.00663322 -0.035401765 -0.10076821 0.057409644
0.061816905 -0.11415931 -0.076644085 0.10422437 0.15799473 -0.008807035 -0.11144653 -0.0014914235
0.08021957 0.011313774 0.026363544 -0.01858947 -0.11883335 0.011909266 0.0038790398 -0.045150418
-0.041497916 0.13598755 0.05071117 -0.0066317325 -0.14284094 0.13337918 -0.019882765 -0.08661755
-0.046023346 0.031510085 -0.17220825 -0.05542408 -0.05664613 -0.13936816 -0.13370812 0.1300303
00000000: 26c2 96bc 821b 80bc 2494 3ebd d95c ebbd
00000010: 4655 983d e6f3 11be 8c98 68be 6ded 0dbd
00000020: f7a7 09be b01d c7bc fa8f 0fbe 092b 023c
00000030: 0505 623e 8236 febd dafa 273d c231 98bd
00000040: 33bd 9a3c 1db7 39bd 7584 e1bd 2ebc 953d
00000050: 1d4b 55bd e9b9 80bd 527a 56bd ac67 363d
00000060: 311e 3fbd 3f32 683a ce5a b3bd c94e b4bd
00000070: dafd ec3c da01 d93d 9976 ad3b 96d5 f7bd
00000080: 663d d9bc 327d b93d 32f5 d2bd ff82 ac3d
00000090: 055e 8e3d 27fe 963d dd0f 62bd 36cc 8b3b
000000a0: c21d 00be 60c0 a13d e61c 1b3c 036c 0cbd
000000b0: e729 273e 7e88 6bbc 2edc 833c ac9c 863d
000000c0: e024 793d 65ad d2bd 2941 bfbd e9c4 d3bd
000000d0: f621 25be c87e 493c 7f2c c7bb 6739 483d
000000e0: 844d 09be 56aa 6c3e b854 61bd 4ad2 3c3e
000000f0: 164c 073e 7081 30be 9eeb dcbd d5cd ce3d
00000100: e195 0fbe a8be de3d c863 003a fb21 7e3d
00000110: 7667 ba3d f675 9ebc 6c0c ba3d 8e87 30be
00000120: 7834 3fbc c923 f0bd 9158 b73d a378 bcbd
00000130: b15e 24be 1580 7f3e 2bab 773c f374 b43d
00000140: de06 383e 095a 783d 2ae2 ce3d 6399 dfbd
00000150: 47b4 0fbd 79ae 5b3d 272c c53c c78e b63d
00000160: bb00 443e 2e80 fdb9 fd4e 9dbd e2e4 7abd
00000170: 3a05 98bb 284e bd3c 85d2 343d 3ddc 34bd
00000180: ab94 46bc 241d a53d b289 453d 11cb fbbd
00000190: a0b6 9a3c 9b35 7e3d 5713 76bd f0cc 7cbd
000001a0: afc9 14be d771 bbbd e5be 933d 64f7 443d
000001b0: b0b4 d6bd f2d8 c93d fe1b 0f3e 15cf 9f3c
000001c0: 8ff1 40bd 132a dc3d 2000 263d 20b8 b13d
000001d0: 3bc5 0a3d 0324 a8bd dd70 7abd 001b 5fbd
000001e0: 2b51 07be fccb b7bd 6b86 c5bd e1b2 d73d
000001f0: fa87 e8bd 9987 edbd 317a 87bd 7ab6 21be
00000200: 52a2 a9bc 5b1c 9f3d 9fbd 223e 0cc2 b9bd
00000210: 62d4 983c fa16 e4bd c913 afbd 6610 ab3d
00000220: b950 973d f1e1 d43d a957 983d a507 97bd
00000230: e1ed 0ebe 6feb c6bd 5ba1 d63d ab71 623d
00000240: 607b 173d 98dd b03d fd9f 87bd 528d 56bd
00000250: 86ff 63bd 2e47 26be 36c6 4d3e 5f4b c73d
00000260: ef48 63bd 00a7 c13d 505b cb3d afc9 de3d
00000270: e6b7 33bd ed44 c13c c30a a4bc af84 89bd
00000280: 224c 8cbd 8e2c ddbd 552c 203e cb80 e2bc
00000290: fc88 82bc 3687 e83d 1728 e03d 6320 c5bd
000002a0: 07f4 7dbe 4943 a73d f964 86bd 2a40 863d
000002b0: 7cb8 debd dc51 0f3e fa5b c53c 84c7 84bd
000002c0: 74d0 49be ffb5 853c 71f0 57bc 94a7 2f3d
000002d0: e34c 023e 54b8 45be a3dc fe3d 19fa a3bd
000002e0: 5708 64bd e3de aabc 8bdb f43d 7b40 9dbd
000002f0: b18a 83be 4367 78bc d3e9 383e 0bf1 ccbd
00000300: 6b77 b93c 6cb0 6e3d 7c46 45bc 4f50 f33a
00000310: 6494 873d 99d0 543d 445a d9bd 65eb 3c3e
00000320: a965 0cbe d7da 433c b0d3 8d3e bf5b 40be
00000330: 24a4 ce3d 382c 70be e2f5 523d 9a54 40be
00000340: 6d99 38be f5ec a63d 4f05 cfbc 83cd 6a3e
00000350: 3174 e1bc 815e d4bd b8a3 aabd 96c1 be3c
00000360: a674 d53d 4df8 6ebd 4c04 8c3d 54c5 f73d
00000370: 7b5b d93b 7101 11bd 905f cebd 6026 6b3d
00000380: b933 7d3d 5bcc e9bd 93f7 9cbd 9673 d53d
00000390: 5fc9 213e 624b 10bc 143e e4bd de7b c3ba
000003a0: 284a a43d 685d 393c 5cf8 d73c f248 98bc
000003b0: e65e f3bd 151f 433c 7d37 7e3b a5ef 38bd
000003c0: b8f9 29bd 5240 0b3e 84b6 4f3d 014f d9bb
000003d0: e544 12be 8d94 083e 2ee1 a2bc 8b64 b1bd
000003e0: fa82 3cbd b810 013d 5c57 30be 5c04 63bd
000003f0: c605 68bd 87b6 0ebe c8ea 08be aa26 053e

fc1.bias f4 [64]
0.056378588 0.021780692 -0.052797593 -0.04648252 0.17717157 0.11209427 0.015699983 0.1450795
0.082495905 0.052047785 -0.06967219 0.046073455 0.045048807 0.10479724 0.05332607 0.06767911
0.010938076 -0.05718473 0.015996817 -0.055657193 0.15568858 0.0669267 0.01000693 -0.07195333
0.05466417 -0.107205935 -0.013141795 0.07895099 0.089450315 -0.070617385 0.13106622 0.10050928
0.18455356 0.046881933 0.13255674 0.1673399 -0.037818916 -0.033664964 0.04473481 0.106336266
0.08215924 -0.10982465 -0.021085855 0.08125963 0.019691767 0.10990963 -0.025672546 0.13130753
0.060378432 -0.011241412 0.114022754 0.014023715 -0.040626753 0.010040802 0.16386741 0.018692631
-0.026736163 0.12627165 0.05069897 0.14678235 -0.05317591 0.1378172 -0.050607696 0.021986585
00000000: 3ced 663d 6c6d b23c 4a42 58bd 7464 3ebd
00000010: 776c 353e ae91 e53d 409d 803c b88f 143e
00000020: 9df3 a83d 0f30 553d 4bb0 8ebd 85b7 3c3d
00000030: 1985 383d ef9f d63d 706c 5a3d 589b 8a3d
00000040: 9e35 333c 893a 6abd c20b 833c ccf8 63bd
00000050: d46c 1f3e de10 893d 1bf4 233c 445c 93bd
00000060: 89e7 5f3d c98e dbbd af50 57bc 0fb1 a13d
00000070: ba31 b73d d99f 90bd 3936 063e cfd7 cd3d
00000080: 9cfb 3c3e 4507 403d f4bc 073e 275b 2b3e
00000090: 02e8 1abd 46e4 09bd d93b 373d d4c6 d93d
000000a0: 1b43 a83d bfeb e0bd 3ebc acbc 736b a63d
000000b0: a150 a13c 4d18 e13d 3b4f d2bc 7b75 063e
000000c0: 604f 773d e62d 38bc c384 e93d b9c3 653c
000000d0: 3d68 26bd 2d82 243c dccc 273e 4a21 993c
000000e0: cc05 dbbc 5b4d 013e b9a9 4f3d 1d4e 163e
000000f0: fcce 59bd f41f 0d3e 044a 4fbd 361d b43c

fc2.weight f4 [18, 64]
-0.17982338 0.16857196 0.10553467 0.03211366 0.022800278 0.18825354 0.032907754 -0.46631005
0.06714795 0.15959512 0.0044837175 0.075646296 -0.12088908 0.06372437 0.09413666 0.04115833
0.027271736 -0.013835672 -0.16571838 -0.34658816 0.0025729386 0.09272793 -0.01593642 -0.5159426
0.19822526 -0.32391685 0.15444267 -0.14612992 -0.30796635 -0.17766768 -0.02984237 0.048207514
0.0691354 0.08646187 0.20223354 0.0331393 0.04798865 0.057134636 0.041994732 -0.15092482
0.111252494 -0.14353634 -0.063132875 0.010598264 0.061486326 -0.060460035 -0.13390891 0.12632318
0.05425956 -0.14284322 0.009764872 -0.12559085 -0.27632156 0.015641563 -0.004937598 -0.13732156
0.220069 -0.21381171 -0.045715667 -0.14620753 -0.13117361 -0.1195276 -0.006853986 -0.16286041
0.14446515 -0.20064566 -0.17515266 0.10082134 -0.2899017 0.004141282 -0.1600815 -0.001326291
-0.2964344 -0.17343135 0.10223435 -0.14796188 -0.3769517 -0.15539178 -0.11753499 -0.12538588
-0.16086107 -0.1519998 -0.12986815 -0.17765427 -0.065247595 -0.15750101 0.13174629 0.018816827
-0.1557769 -0.0934975 -0.2731818 0.115435235 -0.16210979 0.12497844 -0.17343402 -0.21199119
-0.21671546 0.12725732 -0.067680076 -0.17849828 0.04420736 -0.030246317 -0.24169187 0.028396532
-0.06535487 -0.025686571 0.039379112 0.07115717 0.11173996 0.095909745 0.044004034 -0.05221256
-0.2526341 0.06046523 0.047781542 0.14946909 -0.25478345 -0.13926001 0.08170782 -0.3673041
-0.023028923 0.065089285 -0.3207615 0.0857975 -0.12911706 -0.38405982 -0.07245242 -0.14854546
-0.20655893 -0.03908128 0.15309352 -0.012876095 0.0449919 -0.06735385 0.098424524 0.08352431
0.055755958 -0.062871836 0.0034990543 -0.021461623 -0.06357771 0.029195618 0.028180456 0.16975233
0.19102372 0.1604377 0.036098327 -0.006450689 0.04615835 0.037814535 0.0046590385 0.04609969
0.04792176 0.059871905 0.030993933 -0.30897978 0.10013654 -0.19381276 -0.019825283 0.040680785
0.085452236 -0.10305575 -0.008424821 0.052866973 -0.115554236 -0.09030891 0.1256161 0.044861004
0.107230246 0.044250187 -0.040471967 -0.07025553 -0.11861539 -0.16203348 -0.216707 0.03734598
0.094326645 0.015234053 -0.062171016 -0.036200635 0.077200495 0.047423385 0.05826764 -0.063992836
-0.029597022 -0.0040893657 0.06150953 -0.007806139 -0.025566133 0.027527194 -0.02985551 0.08231513
0.14687693 -0.107246585 -0.06691941 -0.048079062 -0.18325637 -0.17901303 0.03944326 0.047345098
0.0587286 -0.1185424 -0.11765178 -0.020864395 0.058979597 0.080774166 -0.19966902 0.045310132
-0.020672955 0.017959736 0.10659973 0.1403744 -0.14836885 -0.2114091 -0.12097519 0.05514605
-0.13062614 0.019263135 0.11366022 -0.17470156 0.08844486 0.03287616 -0.19867226 0.01901482
0.034012984 -0.060082853 -0.111211486 -0.011457754 -0.056320276 -0.105898015 -0.02055169 0.124021865
0.12117443 -0.10455441 -0.05792124 -0.06918846 -0.028811885 -0.13525441 -0.18547618 -0.024532286
0.004747647 -0.0011756457 0.046515733 -0.021131428 -0.005376134 -0.19001584 0.11876889 0.044099316
-0.1527707 -0.010073678 -0.04897843 0.05580652 0.07977959 0.06497312 -0.17195891 0.057599716
00000000: 9f23 38be 219e 2c3e 9022 d83d 9d89 033d
00000010: a6c7 ba3c 89c5 403e 48ca 063d 31c0 eebe
00000020: dd84 893d e76c 233e 26ec 923b 72ec 9a3d
00000030: b294 f7bd ec81 823d b9ca c03d a395 283d
00000040: fa68 df3c 04af 62bc 14b2 29be 0174 b1be
00000050: bf9e 283b 24e8 bd3d 188d 82bc d014 04bf
00000060: 90fb 4a3e 6ed8 a5be 3826 1e3e 15a3 15be
00000070: c4ad 9dbe 84ee 35be fc77 f4bc 3e75 453d
00000080: dc96 8d3d ec12 b13d 4f16 4f3e 13bd 073d
00000090: bf8f 443d 0206 6a3d ab02 2c3d 098c 1abe
000000a0: 59d8 e33d 31fb 12be cf4b 81bd 57a4 2d3c
000000b0: 16d9 7b3d f1a4 77bd 6b1f 09be dd5a 013e
000000c0: 463f 5e3d 7e45 12be d7fc 1f3c e39a 00be
000000d0: 057a 8dbe bc22 803c 93cb a1bb 069e 0cbe
000000e0: c559 613e 75f1 5abe 5a40 3bbd 6db7 15be
000000f0: 6052 06be e3ca f4bd 6797 e0bb e1c4 26be
00000100: acee 133e 0e76 4dbe 385b 33be 6b7b ce3d
00000110: ff6d 94be 97b3 873b 68ec 23be f1d6 adba
00000120: 40c6 97be fd97 31be 3e60 d13d 5283 17be
00000130: d0ff c0be 061f 1fbe 2fb6 f0bd 2865 00be
00000140: c4b8 24be d6a5 1bbe 28fc 04be 00eb 35be
00000150: 88a0 85bd f247 21be 80e8 063e bf25 9a3c
00000160: fb83 1fbe 9e7b bfbd 7cde 8bbe 4f69 ec3d
00000170: 1c00 26be b2f4 ff3d b098 31be 3814 59be
00000180: a8ea 5dbe be4f 023e da9b 8abd 41c8 36be
00000190: c712 353d 20c7 f7bc 137e 77be d89f e83c
000001a0: c6d8 85bd a56c d2bc fe4b 213d daba 913d
000001b0: ecd7 e43d 546c c43d 933d 343d d6dc 55bd
000001c0: 4259 81be 64aa 773d 94b6 433d 6d0e 193e
000001d0: fa72 82be 2d9a 0ebe 6e56 a73d 480f bcbe
000001e0: 27a7 bcbc 884d 853d da3a a4be 9ab6 af3d
000001f0: 4337 04be 7da3 c4be ef61 94bd 4d1c 18be
00000200: 2f84 53be b113 20bd 8cc4 1c3e 42f6 52bc
00000210: 6d49 383d d1f0 89bd cc92 c93d cb0e ab3d
00000220: 5c60 643d f3c2 80bd 6450 653b 49d0 afbc
00000230: 0835 82bd a62b ef3c b3da e63c 8ed3 2d3e
00000240: b99b 433e c849 243e d7db 133d 4d60 d3bb
00000250: 8a10 3d3d 6ae3 1a3d d9aa 983b 07d3 3c3d
00000260: 9b49 443d 3e3c 753d fde6 fd3c 9932 9ebe
00000270: 6314 cd3d da76 46be a268 a2bc e5a0 263d
00000280: 9501 af3d e50e d3bd 4308 0abc 0a8b 583d
00000290: b3a7 ecbd e1f3 b8bd 82a1 003e 2cc0 373d
000002a0: 889b db3d af3f 353d efc5 25bd 22e2 8fbd
000002b0: a0ec f2bd 1bec 25be 71e8 5dbe 19f8 183d
000002c0: 542e c13d 4098 793c 09a7 7ebd 1e47 14bd
000002d0: 4b1b 9e3d 063f 423d 0daa 6e3d ad0e 83bd
000002e0: 7475 f2bc 1600 86bb 6bf1 7b3d a4ca ffbb
000002f0: 1170 d1bc b680 e13c 8b93 f4bc d694 a83d
00000300: e866 163e 19a4 dbbd 0b0d 89bd 8dee 44bd
00000310: 8fa7 3bbe 314f 37be 418f 213d efec 413d
00000320: 678d 703d 5cc6 f2bd 6bf3 f0bd cfeb aabc
00000330: 9794 713d ed6c a53d 0976 4cbe 1e97 393d
00000340: 545a a9bc 4c20 933c f650 da3d 4fbe 0f3e
00000350: 01ee 17be a17b 58be d7c1 f7bd d3e0 613d
00000360: dcc2 05be b9cd 9d3c b0c6 e83d f7e4 32be
00000370: 9422 b53d 27a9 063d be70 4bbe f8c4 9b3c
00000380: 3351 0b3d 7019 76bd d9c2 e3bd 4eb9 3bbc
00000390: 17b0 66bd 0fe1 d8bd 055c a8bc 2dff fd3d
000003a0: 4d2a f83d 9f20 d6bd d23e 6dbd aeb2 8dbd
000003b0: e706 ecbc 2280 0abe 78ed 3dbe eff7 c8bc
000003c0: 2692 9b3b 2018 9aba 4887 3e3d d11b adbc
000003d0: 482a b0bb 8393 42be 1b3d f33d 7ca1 343d
000003e0: ec6f 1cbe 110c 25bc 9b9d 48bd 6195 643d
000003f0: 7b63 a33d a110 853d ff15 30be aeed 6b3d

fc2.bias f4 [18]
0.09024742 -0.013187958 -0.11412856 0.024693444 -0.04811575 0.023372805 -0.065535195 0.06461564
0.0007566057 -0.069060296 -0.015308531 0.05027733 -0.111351445 0.068770744 -0.23630829 0.05024625
0.13243948 0.09119781
00000000: a4d3 b83d 4e12 58bc 3cbc e9bd e849 ca3c
00000010: 0515 45bd 5378 bf3c 5137 86bd 3455 843d
00000020: f356 463a 7c6f 8dbd a2d0 7abc 9aef 4d3d
00000030: 3a0c e4bd add7 8c3d cdfa 71be 03cf 4d3d
00000040: 379e 073e ebc5 ba3d
