model_storage/ch7/model1_unconditioned_surname_generation/model.pth (torch, 50241 bytes, 7 tensors)

char_emb.weight f4 [88, 32]
0.0 0.0 0.0 0.0 0.0 0.0 0.0 0.0
0.0 0.0 0.0 0.0 0.0 0.0 0.0 0.0
0.0 0.0 0.0 0.0 0.0 0.0 0.0 0.0
0.0 0.0 0.0 0.0 0.0 0.0 0.0 0.0
-0.6630959 -0.25127524 1.0101448 0.12154675 0.15839934 1.1340188 -1.1538976 -0.29839683
-0.50753653 -0.92392117 0.5467061 -1.4947776 -1.2057148 0.57181984 -0.5973545 -0.6936757
1.6455387 -0.8029931 1.3514109 -0.27591935 -1.5108346 2.104773 2.762959 -1.7465292
1.4515902 -1.5102831 0.82115376 -0.21152724 0.7788983 1.5332688 1.6097364 -0.40322813
-1.0355252 0.6377 -0.20510279 -0.01835631 -0.55921525 0.48632437 -0.25413275 -1.4381996
2.3138466 -0.54186887 0.32277414 0.9217701 -1.5722111 1.2506394 0.44665816 0.28277397
2.875631 -1.5331823 1.2671804 0.8317664 -1.819306 -1.5891787 0.85904527 -0.30165783
0.5976028 -0.64851236 0.80224544 -0.795207 -0.46968266 -0.44097233 -1.2982049 -0.63011014
-1.666937 -1.3651438 -0.1655241 0.96225154 0.03154889 -0.7419016 -0.29778957 0.017165666
-0.1772239 -0.13342951 0.29395735 1.3849541 0.12091276 2.5417871 -0.64046 -1.9740105
-0.32956925 0.007958851 0.9262348 -1.8845556 0.1669616 0.45862234 -1.7662065 0.5859862
1.7510315 0.28072214 0.31096315 -0.65375805 -0.65762633 0.31844944 -0.5495865 -1.4649245
-2.1642685 1.9162946 1.109124 -0.47699362 1.1500795 1.8243308 -0.25919884 -1.4968371
-0.023377165 -0.17428291 0.84408087 0.5281432 0.23685083 -0.90405643 0.6706175 0.68444085
2.338413 0.96845156 -1.5962639 -0.48830834 -0.25707808 -0.35322294 -1.0520538 1.3388873
-0.88779813 0.29847714 1.0565504 -0.15034959 -1.4047191 -0.7525293 1.4482024 -0.40419677
-1.1776878 0.33917058 -0.40942112 2.472958 -3.0812137 0.30131587 -0.8864767 -0.3087362
0.22816227 2.0096853 -0.3944683 -0.29442057 -1.3910875 0.014229343 -2.0775318 -1.5653614
-0.14208502 -1.251267 0.18394741 0.11354392 0.47336736 0.61069846 -1.5944877 1.1613511
1.1525187 1.3022379 0.6549259 -1.0229473 -0.9136465 2.2919152 0.3534316 1.488564
-0.032438003 -0.44288883 1.9393948 1.3452108 0.8823627 -0.50897944 -0.37506333 0.47145158
0.1581932 -1.8505797 1.246671 0.52655625 -1.2413822 -0.905573 -0.03379281 0.08665399
0.49074745 -0.71423614 -0.2205101 -0.43874237 0.43650994 0.6916764 1.3763708 0.8118825
0.71444243 0.9042311 -0.5502723 -0.7901906 -0.8376802 0.3683117 -0.74289244 -0.1777395
-0.8281719 -0.12956196 -0.23813447 -0.31044167 -0.35717294 0.79996675 -0.026874354 -0.30893183
1.0663198 -1.6833227 0.32678455 -2.2386339 -1.015175 0.08910337 -0.78490496 -0.46359232
1.6778898 -0.15087314 -0.82743114 -1.0958612 0.1287385 -0.49026936 -0.18062136 -1.2605898
-0.26370686 0.37106663 -1.1165203 -1.1975423 0.90133536 -1.7790266 -0.515355 1.3438933
00000000: 0000 0000 0000 0000 0000 0000 0000 0000
00000010: 0000 0000 0000 0000 0000 0000 0000 0000
00000020: 0000 0000 0000 0000 0000 0000 0000 0000
00000030: 0000 0000 0000 0000 0000 0000 0000 0000
00000040: 0000 0000 0000 0000 0000 0000 0000 0000
00000050: 0000 0000 0000 0000 0000 0000 0000 0000
00000060: 0000 0000 0000 0000 0000 0000 0000 0000
00000070: 0000 0000 0000 0000 0000 0000 0000 0000
00000080: a7c0 29bf 26a7 80be 6d4c 813f 81ed f83d
00000090: 7033 223e 8727 913f ebb2 93bf 78c7 98be
000000a0: eaed 01bf 1986 6cbf eef4 0b3f df54 bfbf
000000b0: dd54 9abf c962 123f 39ec 18bf bb94 31bf
000000c0: 03a1 d23f f590 4dbf 08fb ac3f 4d45 8dbe
000000d0: 0763 c1bf 9ab4 0640 52d4 3040 458e dfbf
000000e0: b5cd b93f f550 c1bf 2237 523f 999a 58be
000000f0: e165 473f 2742 c43f d80b ce3f eb73 cebe
00000100: 178c 84bf 4f40 233f 7706 52be f95f 96bc
00000110: bb28 0fbf 82ff f83e b01d 82be ed16 b8bf
00000120: 1016 1440 ebb7 0abf a742 a53e 20f9 6b3f
00000130: 373e c9bf f414 a03f 61b0 e43e c0c7 903e
00000140: 570a 3840 513f c4bf f832 a23f a5ee 543f
00000150: 05df e8bf 356a cbbf 64ea 5b3f e572 9abe
00000160: 7ffc 183f e804 26bf f55f 4d3f b092 4bbf
00000170: 3f7a f0be 20c7 e1be 942b a6bf e64e 21bf
00000180: 315e d5bf 08bd aebf 267f 29be 1e56 763f
00000190: 6939 013d 43ed 3dbf e077 98be 039f 8c3c
000001a0: 2f7a 35be bfa1 08be 9481 963e 2d46 b13f
000001b0: 1ca1 f73d a4ac 2240 30f5 23bf 60ac fcbf
000001c0: 4dbd a8be d765 023c b91d 6d3f 1e39 f1bf
000001d0: fbf7 2a3e 8cd0 ea3e 0e13 e2bf 3103 163f
000001e0: cd21 e03f d0ba 8f3e 9036 9f3e b05c 27bf
000001f0: 335a 28bf ce0b a33e b3b1 0cbf a582 bbbf
00000200: 6083 0ac0 2449 f53f c6f7 8d3f 8238 f4be
00000210: ce35 933f ac83 e93f b6b5 84be 5c98 bfbf
00000220: 7881 bfbc 3877 32be af15 583f 6534 073f
00000230: 0689 723e 3e70 67bf 97ad 2b3f 8437 2f3f
00000240: 8fa8 1540 71ec 773f 6052 ccbf 8d03 fabe
00000250: bd9f 83be a3d9 b4be b3a9 86bf a960 ab3f
00000260: bd46 63bf ffd1 983e 0b3d 873f 3ef5 19be
00000270: d6cd b3bf c3a5 40bf b25e b93f e1f2 cebe
00000280: 79be 96bf c4a7 ad3e a59f d1be f244 1e40
00000290: 9b32 45c0 1346 9a3e 23f0 62bf ac12 9ebe
000002a0: 5fa3 693e af9e 0040 c0f7 c9be 4bbe 96be
000002b0: 280f b2bf 3122 693c 48f6 04c0 c35d c8bf
000002c0: bc7e 11be 8429 a0bf b65c 3c3e b789 e83d
000002d0: 355d f23e bc56 1c3f 2c18 ccbf 27a7 943f
000002e0: bc85 933f bbaf a63f 39a9 273f f0ef 82bf
000002f0: bde4 69bf bdae 1240 fdf4 b43e 4489 be3f
00000300: b6dd 04bd 53c2 e2be 173e f83f de2f ac3f
00000310: 86e2 613f 7a4c 02bf 4d08 c0be 1a62 f13e
00000320: 66fd 213e ccdf ecbf ea92 9f3f 64cc 063f
00000330: 9de5 9ebf a2d3 67bf 546a 0abd a677 b13d
00000340: 4043 fb3e 2ed8 36bf 66cd 61be d7a2 e0be
00000350: 3b7e df3e b411 313f eb2c b03f 88d7 4f3f
00000360: b3e5 363f b07b 673f a5de 0cbf ee49 4abf
00000370: 3672 56bf 5a93 bc3e 332e 3ebf 5801 36be
00000380: 1303 54bf e4ab 04be 86d9 73be 36f2 9ebe
00000390: 5fdf b6be 9fca 4c3f 9b27 dcbc 502c 9ebe
000003a0: 2b7d 883f 1e77 d7bf 4e50 a73e c745 0fc0
000003b0: 41f1 81bf d47b b63d 88ef 48bf f95b edbe
000003c0: 18c5 d63f 7d7e 1abe 87d2 53bf 2e45 8cbf
000003d0: 06d4 033e 9604 fbbe cef4 38be 025b a1bf
000003e0: 9604 87be 72fc bd3e 23ea 8ebf 1149 99bf
000003f0: eabd 663f 25b7 e3bf 4eee 03bf b204 ac3f

rnn.weight_ih_l0 f4 [96, 32]
-0.23233719 0.44294766 -0.47980306 -0.03255303 -0.13930798 0.13078614 -0.28984055 -0.012310941
0.032741345 0.18736804 -0.2911097 -0.013563961 -0.07697004 0.34638977 -0.12585802 -0.19190016
0.17409605 0.25197813 -0.0007341874 -0.08153773 0.19413887 -0.52124846 -0.0914651 0.0955848
-0.11062954 0.10641068 0.32983458 -0.061870582 0.1794104 0.038200453 -0.038177557 0.058892075
-0.0018514605 0.07024678 0.2588417 -0.16903938 0.27329996 0.09505057 -0.15939683 0.20911765
0.0711799 0.07671847 0.24086629 0.18115322 -0.13348572 -0.26448312 0.11716484 0.029022742
0.112645335 0.2035285 0.3341272 -0.25656712 0.14981829 0.088304244 0.24853979 0.19158815
-0.10876792 -0.40622905 -0.028311424 -0.16629545 0.22735979 -0.18996945 0.025823658 -0.10747915
0.02740654 0.20672415 -0.0614506 0.3664347 -0.07660902 -0.15964393 0.43958747 0.010291841
-0.114652395 -0.099765725 0.10762007 0.022250574 -0.23276912 -0.40055785 0.20100215 0.091352604
-0.048018795 0.15731588 -0.22146322 -0.114190675 -0.02129184 0.12605561 0.1209122 0.16615637
0.182101 0.095821336 -0.005956178 -0.2463632 -0.16299409 -0.2269124 -0.10164224 0.002918112
0.23109145 -0.025110913 0.07194651 0.2062135 0.021922823 -0.038716547 -0.16431524 0.016195625
-0.09978386 -0.01416516 0.1327703 -0.17843509 -0.16301751 -0.44316322 -0.057537213 0.2956021
-0.104093835 -0.22904822 -0.22969496 0.30480766 0.2941929 0.18995139 -0.018177677 0.20087107
0.10034306 0.12094203 -0.124329634 -0.08094335 0.029623974 -0.10516325 0.3013281 -0.15649253
0.01175888 0.13679971 0.014524188 0.32585204 -0.23242788 -0.1894709 -0.13881342 0.33753774
-0.09702869 0.0108494 -0.18579319 0.019132953 -0.09137554 0.09912871 0.048844494 0.21585254
0.032880925 0.17274508 -0.051409747 0.17583038 -0.13310131 -0.16125979 -0.026882207 0.086936526
0.21078879 -0.3780269 -0.080124475 0.21929333 -0.15598157 0.08589351 0.38982165 0.054778364
-0.04110532 0.08918787 -0.033883143 0.04961406 0.11032681 0.008748013 -0.069326274 0.2637393
0.1706393 -0.19657399 0.0029282426 0.15737219 0.1037949 -0.23657359 0.09193563 0.056336895
0.18616022 -0.12475265 -0.15340234 0.03358721 0.06410232 -0.08008673 -0.060156908 0.2350578
0.28349224 -0.0995226 0.18330431 0.024588954 0.02628154 0.061908405 0.38671765 -0.017162668
0.12338142 0.1282423 0.08739138 0.23672138 -0.050663937 0.08389198 -0.00043688805 0.019406846
0.08402078 -0.10318408 0.043767206 -0.094133966 -0.18957286 -0.1833576 0.02212471 0.005378576
0.0573447 -0.0018682124 -0.23862112 -0.1576569 0.19664858 0.17061573 -0.02518006 -0.049439684
0.039248627 -0.22514607 0.05771011 -0.054849505 -0.21844684 -0.15960515 0.07951055 -0.19644128
0.22521238 0.083178364 0.29068843 0.11724646 0.28108075 0.0038625915 -0.022929892 0.35358018
0.11394269 -0.07635814 -0.0009671495 -0.001298496 -0.16516784 0.02321147 0.1306816 0.041053105
-0.14781821 0.028641963 -0.06963019 -0.008187238 -0.028293053 -0.04820064 0.0041012038 0.36961308
0.20090665 -0.13212389 0.033867683 -0.22211978 -0.109204724 -0.2832062 0.15206099 -0.058107894
00000000: cde9 6dbe 09ca e23e bfa8 f5be 5356 05bd
00000010: c0a6 0ebe cdec 053e fb65 94be d4b3 49bc
00000020: ca1b 063d 68dd 3f3e 550c 95be 603b 5ebc
00000030: 78a2 9dbd 005a b13e ede0 00be 7a81 44be
00000040: 3c46 323e 4703 813e 7b76 40ba 41fd a6bd
00000050: 57cc 463e 8a70 05bf 0e52 bbbd f7c1 c33d
00000060: be91 e2bd d8ed d93d 14e0 a83e 026c 7dbd
00000070: 5cb7 373e 1478 1c3d 1260 1cbd d138 713d
00000080: b5ac f2ba 8bdd 8f3d e686 843e a918 2dbe
00000090: f9ed 8b3e e0a9 c23d ec38 23be f022 563e
000000a0: c4c6 913d 931e 9d3d a7a5 763e 3b80 393e
000000b0: 7bb0 08be 556a 87be 1ff4 ef3d 1ac1 ed3c
000000c0: 99b2 e63d c669 503e b812 ab3e c45c 83be
000000d0: f769 193e dbd8 b43d 3781 7e3e af2f 443e
000000e0: b7c1 debd 41fd cfbe 5ced e7bc 5b49 2abe
000000f0: 01d1 683e 5a87 42be 238c d33c 071e dcbd
00000100: ae83 e03c 7faf 533e a0b3 7bbd 549d bb3e
00000110: 31e5 9cbd b379 23be 9c11 e13e 1c9f 283c
00000120: e0ce eabd f951 ccbd e967 dc3d d646 b63c
00000130: 075b 6ebe eb15 cdbe 82d3 4d3e 1317 bb3d
00000140: 5baf 44bd 6a17 213e 41c7 62be cddc e9bd
00000150: 3a6c aebc b914 013e d1a0 f73d e524 2a3e
00000160: af78 3a3e fa3d c43d 0b2c c3bb a246 7cbe
00000170: ece7 26be b95b 68be cf29 d0bd cc3d 3f3b
00000180: 3da3 6c3e 67b5 cdbc b158 933d a229 533e
00000190: 7e97 b33c 3e95 1ebd 4142 28be b0ac 843c
000001a0: 7b5b ccbd fd14 68bc f0f4 073e b0b7 36be
000001b0: 10ee 26be 4ae6 e2be 24ac 6bbd 2959 973e
000001c0: 262f d5bd 9e8b 6abe 2835 6bbe c00f 9c3e
000001d0: 74a0 963e 9e82 423e 5ae9 94bc 25b1 4d3e
000001e0: aa80 cd3d 74b0 f73d 89a0 febd a1c5 a5bd
000001f0: faad f23c d45f d7bd ad47 9a3e 943f 20be
00000200: 51a8 403c 3915 0c3e dcf6 6d3c 14d6 a63e
00000210: 9301 6ebe a904 42be 1b25 0ebe bfd1 ac3e
00000220: fab6 c6bd afc1 313c 9240 3ebe b6bc 9c3c
00000230: 1923 bbbd fe03 cb3d 2a11 483d 7308 5d3e
00000240: 26ae 063d 16e4 303e 0793 52bd e10c 343e
00000250: b64b 08be 4921 25be 1338 dcbc c70b b23d
00000260: 04d9 573e be8c c1be 4d18 a4bd 6e8e 603e
00000270: a2b9 1fbe f0e8 af3d b496 c73e 475f 603d
00000280: 0d5e 28bd 21a8 b63d 0dc9 0abd 1d38 4b3d
00000290: 06f3 e13d d353 0f3c effa 8dbd d608 873e
000002a0: 12bc 2e3e b14a 49be c2e7 3f3b 2d26 213e
000002b0: 6c92 d43d 5940 72be bf48 bc3d 84c1 663d
000002c0: c9a0 3e3e 517e ffbd 8115 1dbe be92 093d
000002d0: 1448 833d 8304 a4bd 1767 76bd feb2 703e
000002e0: e525 913e 81d2 cbbd 20b4 3b3e c66e c93c
000002f0: 624c d73c ab93 7d3d dbff c53e b998 8cbc
00000300: 66af fc3d f351 033e 40fa b23d 1767 723e
00000310: fd84 4fbd 8fcf ab3d 1f0e e5b9 1bfb 9e3c
00000320: 1613 ac3d 2d52 d3bd 3e45 333d 4fc9 c0bd
00000330: 631f 42be 18c2 3bbe e13e b53c c43e b03b
00000340: 47e2 6a3d cede f4ba 1859 74be cf70 21be
00000350: 3f5e 493e e4b5 2e3e 6a46 cebc 4481 4abd
00000360: 2bc3 203d b18c 66be 7061 6c3d e0a9 60bd
00000370: 87b0 5fbe 886f 23be 6dd6 a23d e727 49be
00000380: 139e 663e 6b59 aa3d 1dd5 943e e91e f03d
00000390: d1e9 8f3e 8823 7d3b 78d7 bbbc 7608 b53e
000003a0: c95a e93d a861 9cbd 4e88 7dba 4c32 aaba
000003b0: c221 29be fb25 be3c 66d1 053e 4d27 283d
000003c0: a85d 17be 8da2 ea3c 469a 8ebd c423 06bc
000003d0: d5c6 e7bc 096e 45bd 6463 863b ed3d bd3e
000003e0: 79ba 4d3e 7c4b 07be d7b8 0a3d 5e73 63be
000003f0: baa6 dfbd 6700 91be e0b5 1b3e 8b02 6ebd

rnn.weight_hh_l0 f4 [96, 32]
0.023541288 -0.05718182 -0.089742266 0.08032718 -0.02232882 0.09687781 0.025905931 -0.040627696
-0.31525806 0.03799895 -0.06374347 -0.24084526 0.40999323 0.36441606 0.094256625 -0.017134836
-0.19614837 -0.018498713 -0.11931672 -0.17165475 0.062472794 -0.296609 0.3841128 0.08854986
0.027095092 0.13531071 0.3535097 0.09393144 0.23008417 -0.034348145 0.05405393 0.06539851
0.19833893 0.3857915 -0.119750194 -0.21280624 0.06771124 -0.05313911 0.06099778 -0.03408831
0.011416437 0.077557564 0.18260784 0.07534535 0.25137073 -0.3197919 0.2607176 -0.04331647
-0.014602018 0.15250704 -0.086061396 0.29335397 0.11741662 -0.116170585 -0.13512011 0.017648576
-0.06327376 0.08603182 -0.062099487 0.09165884 0.110203944 0.06194793 0.030555984 0.12767054
-0.23112841 0.5358461 -0.25261357 -0.16112567 0.36852086 -0.15894416 -0.020089654 0.13678104
-0.059706777 -0.058940485 0.068424135 0.17789657 -0.016102407 0.19969952 0.012619386 -0.08809665
-0.04518719 0.06411728 -0.10874853 0.21387935 0.30667454 -0.11598308 0.49187356 0.14307825
0.017601926 0.19513318 0.22959562 0.09941688 0.29377142 0.12522852 0.09712001 0.13278235
-0.10826317 -0.020426545 0.2145797 -0.22580387 0.10694763 -0.42775172 -0.012972889 0.06581709
0.04636841 -0.16074207 0.29937014 -0.44248223 0.41937 0.28748164 0.2446908 0.35815513
0.004216954 -0.107877366 0.0434527 -0.032498818 0.075032726 0.09058635 -0.29352844 0.14835736
0.10249868 0.23447949 0.2874265 0.018181127 0.22678766 0.20165208 0.015446851 -0.23709814
0.06542433 0.28129384 0.097304575 -0.14867212 0.46460408 0.04777421 -0.08466975 -0.07031921
-0.06476304 0.086718336 0.0074829375 0.1425835 -0.31720084 -0.39440116 0.012300513 0.0030283057
-0.06739973 -0.24701001 -0.018053642 0.09378554 -0.029069375 -0.40406695 0.05986804 0.12095763
0.015441284 -0.03139108 0.09783328 -0.08468005 0.21977343 0.17587216 0.035721093 -0.0038470114
0.06346722 0.2799853 0.10139872 -0.04421077 -0.11964679 0.14952743 0.027612818 -0.05777399
0.08359866 0.019958954 -0.002450145 0.17983513 0.16561626 0.12354215 0.071254335 0.15131804
-0.03730031 -0.08379083 -0.048156045 0.09783691 0.058204215 -0.057281878 -0.47114488 -0.274551
-0.080346406 0.024434453 0.26286206 -0.15574296 0.13354763 0.19620976 -0.16008697 -0.05563402
-0.014050895 0.19867699 0.13668844 -0.094459444 0.109254 0.13322128 -0.057608843 0.07206694
0.25405088 0.2153391 0.2559549 -0.30895028 0.067866206 0.008270293 0.14185764 -0.21911533
-0.08550276 -0.12396177 -0.16938931 0.06705197 -0.046049796 -0.23617944 -0.13055377 0.18090966
0.17143661 0.10248498 0.20584816 -0.15495037 0.2970299 0.07735406 0.13293007 -0.09296519
-0.32593372 0.11062993 0.00048079307 0.058541514 0.08900654 -0.20590529 -0.23967624 0.16671453
-0.009425753 -0.09894544 0.19099273 0.07114964 -0.005054799 0.047579013 0.026861465 -0.4288957
-0.0105968695 -0.27917716 -0.16927002 0.1823406 -0.034148 -0.19601633 0.0003948246 -0.036854964
0.031362098 0.030497087 0.038213383 -0.025176404 0.117387645 0.20934214 0.018722855 0.029899094
00000000: a9d9 c03c 7c37 6abd cbca b7bd 9482 a43d
00000010: eeea b6bc e067 c63d ad38 d43c 3a69 26bd
00000020: 8169 a1be c9a4 1b3d f08b 82bd 24a0 76be
00000030: a2ea d13e be94 ba3e 9e09 c13d 5b5e 8cbc
00000040: 1edb 48be 9d8a 97bc 535c f4bd 43c6 2fbe
00000050: 79e3 7f3d 23dd 97be 6faa c43e a159 b53d
00000060: 87f6 dd3c e48e 0a3e 39ff b43e 205f c03d
00000070: 2f9b 6b3e a4b0 0cbd a767 5d3d a7ef 853d
00000080: 5c19 4b3e 7786 c53e 973f f5bd e1e9 59be
00000090: 31ac 8a3d 65a8 59bd cfd8 793d 2fa0 0bbd
000000a0: 020c 3b3c 80d6 9e3d 8dfd 3a3e aa4e 9a3d
000000b0: aab3 803e c4bb a3be c77c 853e 9c6c 31bd
000000c0: 4d3d 6fbc ce2a 1c3e f540 b0bd 7e32 963e
000000d0: 2078 f03d d8ea edbd ed5c 0abe bf93 903c
000000e0: ac95 81bd 7331 b03d 085c 7ebd a1b7 bb3d
000000f0: 9bb2 e13d 1dbd 7d3d 8b50 fa3c 11bc 023e
00000100: edac 6cbe 362d 093f 9156 81be 21fe 24be
00000110: c4ae bc3e 42c2 22be 0f93 a4bc 5410 0c3e
00000120: 188f 74bd 946b 71bd f421 8c3d 852a 363e
00000130: 32e9 83bc 087e 4c3e 8bc1 4e3c 046c b4bd
00000140: 3416 39bd ec4f 833d 8db7 debd 3003 5b3e
00000150: 7204 9d3e 8988 edbd dad6 fb3e 1b83 123e
00000160: ea31 903c fed0 473e 1d1b 6b3e 149b cb3d
00000170: 3569 963e e83b 003e dbe6 c63d 19f8 073e
00000180: 15b9 ddbd 9255 a7bc c8ba 5b3e 2139 67be
00000190: 5c07 db3d 4602 dbbe 3d8c 54bc 1ccb 863d
000001a0: cdec 3d3d 9299 24be 0b47 993e 088d e2be
000001b0: aab7 d63e cb30 933e 3a90 7a3e 1c60 b73e
000001c0: 602e 8a3b cfee dcbd 75fb 313d 7b1d 05bd
000001d0: c2aa 993d 5685 b93d 5c49 96be feea 173e
000001e0: d4ea d13d 641b 703e 9129 933e 96f0 943c
000001f0: 063b 683e e27d 4e3e ca14 7d3c dbc9 72be
00000200: 31fd 853d bf05 903e 9f47 c73d 813d 18be
00000210: 96e0 ed3e e4ae 433d 5567 adbd 8503 90bd
00000220: 7ca2 84bd 6299 b13d 6e33 f53b 6901 123e
00000230: 2668 a2be f3ee c9be 1788 493c 8a76 463b
00000240: df08 8abd 31f0 7cbe 3be5 93bc a212 c03d
00000250: e622 eebc dde1 cebe 3138 753d a2b8 f73d
00000260: 70fd 7c3c ef93 00bd d15c c83d bc6c adbd
00000270: 490c 613e d517 343e 4850 123d 241e 7cbb
00000280: 1afb 813d 3c5a 8f3e 22aa cf3d 5a16 35bd
00000290: 6009 f5bd b81d 193e 4734 e23c 6ba4 6cbd
000002a0: c635 ab3d f680 a33c 9d92 20bb b326 383e
000002b0: 4f97 293e ab03 fd3d cbed 913d 1ef3 1a3e
000002c0: 36c8 18bd 879a abbd 463f 45bd b85e c83d
000002d0: 8b67 6e3d 67a0 6abd e739 f1be f391 8cbe
000002e0: a88c a4bd c32a c83c db95 863e 157b 1fbe
000002f0: b6c0 083e 36eb 483e d7ed 23be 80e0 63bd
00000300: ba35 66bc fb71 4b3e 0ef8 0b3e f473 c1bd
00000310: 90c0 df3d 296b 083e 40f7 6bbd d597 933d
00000320: f512 823e da81 5c3e 850c 833e bb2e 9ebe
00000330: 70fd 8a3d 1f80 073c 2143 113e c55f 60be
00000340: 121c afbd abdf fdbd 6474 2dbe 8b52 893d
00000350: b69e 3cbd 06d9 71be e3af 05be 6240 393e
00000360: 148d 2f3e a5e3 d13d dcc9 523e 4fab 1ebe
00000370: 4e14 983e ce6b 9e3d d21e 083e 8964 bebd
00000380: c9e0 a6be f291 e23d f412 fc39 3ac9 6f3d
00000390: 1049 b63d d6d8 52be b06d 75be 37b7 2a3e
000003a0: 796e 1abc e8a3 cabd 9993 433e e7b6 913d
000003b0: baa2 a5bb 36e2 423d 930c dc3c 3898 dbbe
000003c0: 7e9e 2dbc 4ff0 8ebe 1f55 2dbe 7fb7 3a3e
000003d0: c6de 0bbd 81b8 48be 7600 cf39 3bf5 16bd
000003e0: 8b75 003d 07d5 f93c a385 1c3d bf3e cebc
000003f0: ef68 f03d c95d 563e ac60 993c f2ee f43c

rnn.bias_ih_l0 f4 [96]
0.2684734 -0.06110581 0.039438955 0.055003818 -0.10952682 -0.021626743 0.22290646 0.20758013
-0.0653452 0.056159586 -0.09599975 -0.00025693927 0.06808831 -0.05622726 0.051545117 -0.006352839
0.11294067 0.20841974 0.19912396 0.10316457 0.19089065 0.22714524 0.07745103 -0.00066577265
0.20909223 0.21808498 0.1685954 0.29918024 0.15063795 0.32318226 0.033866506 0.17040218
-0.22528595 -0.13466975 -0.41131362 -0.1155976 0.07957108 -0.17553493 -0.25924224 -0.12603243
-0.2769408 -0.43263698 -0.20361678 -0.05514626 -0.37129837 -0.3430784 -0.07298202 -0.33683923
-0.19068803 -0.092762716 -0.0834201 -0.08891357 -0.30534622 -0.22314255 0.01641232 -0.1788991
-0.002512312 0.031030674 -0.021056842 -0.09514985 0.05775802 -0.21612512 -0.18132393 -0.16771057
0.039966617 0.16166762 0.11804896 -0.18424533 0.24879795 0.123150736 -0.08090996 0.20417468
-0.05230954 0.21531804 -0.17678244 0.21182689 -0.08112287 -0.015889274 0.13598123 -0.09301881
-0.03924454 -0.07810235 -0.009204906 -0.0026015842 -0.13935271 -0.13327014 0.10145725 -0.08722246
-0.0060103983 0.080187045 -0.06193338 -0.015441758 0.25618592 0.12933366 0.15838405 -0.087613866
00000000: 5875 893e 164a 7abd be8a 213d af4b 613d
00000010: 994f e0bd 912a b1bc 9741 643e e38f 543e
00000020: b4d3 85bd 9807 663d 849b c4bd ceb5 86b9
00000030: e271 8b3d 8e4e 66bd f920 533d 7a2b d0bb
00000040: 704d e73d fc6b 553e 27e7 4b3e f247 d33d
00000050: d778 433e c398 683e a59e 9e3d 3f87 2eba
00000060: 461c 563e ab51 5f3e 46a4 2c3e 272e 993e
00000070: d640 1a3e 2578 a53e 9bb7 0a3d e97d 2e3e
00000080: 5cb1 66be dee6 09be b397 d2be 6fbe ecbd
00000090: 2af6 a23d 6ebf 33be 66bb 84be a50e 01be
000000a0: 2fcb 8dbe 9882 ddbe eb80 50be 0be1 61bd
000000b0: d21a bebe f9a7 afbe 9977 95bd 3176 acbe
000000c0: b943 43be 61fa bdbd 28d8 aabd 5118 b6bd
000000d0: 5756 9cbe 7b7f 64be 2173 863c 5331 37be
000000e0: 9aa5 24bb 0a34 fe3c 667f acbc eddd c2bd
000000f0: ac93 6c3d e74f 5dbe fbac 39be 52bc 2bbe
00000100: 09b4 233d 328c 253e a7c3 f13d cfaa 3cbe
00000110: e4c4 7e3e 7436 fc3d 1fb4 a5bd 2b13 513e
00000120: 8742 56bd 557c 5c3e 7506 35be 26e9 583e
00000130: bf23 a6bd 392a 82bc aa3e 0b3e a580 bebd
00000140: e2be 20bd 20f4 9fbd 2dd0 16bc 577f 2abb
00000150: 7ab2 0ebe f877 08be d2c8 cf3d b0a1 b2bd
00000160: e0f2 c4bb 1b39 a43d dbad 7dbd 6dff 7cbc
00000170: cd2a 833e 0b70 043e 6e2f 223e e66e b3bd

rnn.bias_hh_l0 f4 [96]
0.1556886 0.12602744 0.18406343 -0.017975973 0.09242011 0.2200482 0.1140907 0.09497976
-0.020278623 0.31194034 -0.117842495 -0.10241814 -0.078048244 -0.12702449 -0.056417022 0.053994257
-0.020268746 -0.0036434024 0.13693278 0.019512452 0.22974296 0.03527517 -0.063189946 0.21268779
0.00899859 -0.040267974 -0.051674716 0.10635129 0.09326323 0.11891489 -0.009885704 0.0782123
-0.36859316 -0.15522137 -0.42530185 -0.3616461 -0.16842924 -0.08404124 -0.22613278 0.035734348
-0.24355549 -0.48872003 -0.1484483 -0.31379634 -0.41652328 -0.3561674 0.014657218 -0.21149826
-0.28844574 -0.34920213 -0.13676539 -0.041080724 -0.13458158 -0.3452678 -0.13026658 0.08487784
-0.029649317 -0.24351908 -0.013905394 -0.39512616 -0.18858942 -0.07234377 -0.19721046 -0.17124379
-0.13420437 0.31773663 0.26146662 -0.292017 0.11834731 0.08148656 -0.0870597 0.15364389
0.060579643 -0.09350958 0.20595923 0.103209965 0.22650225 0.16928029 -0.06516615 -0.2077909
-0.28555793 0.08996715 -0.12659813 0.18659945 -0.12672886 -0.20659314 0.111846685 0.15089594
0.19157353 0.04657639 0.23063242 -0.13542433 0.26544335 0.27825776 0.1984621 0.04935308
00000000: d56c 1f3e 560d 013e 207b 3c3e 5942 93bc
00000010: c146 bd3d 5154 613e 63a8 e93d c084 c23d
00000020: 5b1f a6bc a5b6 9f3e 6857 f1bd 9ac0 d1bd
00000030: c2d7 9fbd b512 02be 8915 67bd 1529 5d3d
00000040: a40a a6bc 26c6 6ebb 1b38 0c3e 94d8 9f3c
00000050: bd41 6b3e b27c 103d bb69 81bd d4ca 593e
00000060: d26e 133c 08f0 24bd dea8 53bd b5ce d93d
00000070: cb00 bf3d a689 f33d a6f7 21bc c52d a03d
00000080: 3eb8 bcbe 5af2 1ebe 2ac1 d9be ad29 b9be
00000090: b778 2cbe d01d acbd 5a8f 67be 2e5e 123d
000000a0: 9c66 79be 8339 fabe d502 18be eaa9 a0be
000000b0: 8a42 d5be 935b b6be d424 703c 0093 58be
000000c0: 29af 93be 9fca b2be 3a0c 0cbe 4344 28bd
000000d0: c1cf 09be f1c6 b0be 9a64 05be 6fd4 ad3d
000000e0: 20e3 f2bc 115d 79be 73d3 63bc fa4d cabe
000000f0: 961d 41be f828 94bd 8af1 49be 885a 2fbe
00000100: df6c 09be 60ae a23e f4de 853e 4183 95be
00000110: 1360 f23d 6de2 a63d 5b4c b2bd d354 1d3e
00000120: 5c22 783d f381 bfbd fae6 523e bf5f d33d
00000130: 35f0 673e d057 2d3e d575 85bd 23c7 54be
00000140: a634 92be b240 b83d f1a2 01be ed13 3f3e
00000150: 36c5 01be 278d 53be e00f e53d 7784 1a3e
00000160: da2b 443e e2c6 3e3d e82a 6c3e adac 0abe
00000170: 31e8 873e cd77 8e3e a639 4b3e 7526 4a3d

fc.weight f4 [88, 32]
0.15536581 -0.2773337 -0.32831013 0.15374663 -0.25148782 0.12742127 0.22648929 -0.40655684
-0.20575146 -0.34536573 -0.33700117 0.016516697 -0.2754694 -0.21771228 -0.23060635 0.2581248
0.21747135 0.07670633 0.23176304 -0.08423071 0.20325239 0.0012115926 -0.3062218 -0.30273283
-0.21131088 -0.18480517 -0.13739464 0.41462868 -0.416798 -0.35664946 -0.17424607 0.1376352
0.15319262 -0.17342994 -0.3392349 0.20058005 -0.36672968 0.11784318 0.36681405 -0.4198569
-0.18332407 -0.31868714 -0.3759004 0.16103452 -0.14077184 -0.10067031 -0.20876455 0.15300046
0.16147584 0.026790885 0.25547186 -0.3242294 0.32127437 0.08908399 -0.2034561 -0.3763343
-0.13743757 -0.37436286 -0.2813416 0.44411448 -0.31068686 -0.48224375 -0.18002376 0.19160815
0.16492131 -0.26768517 -0.3663825 0.21080184 -0.34172758 0.13164583 0.5290919 -0.49389347
-0.099664606 -0.21296562 -0.33783817 0.14841968 -0.28068352 -0.13875936 -0.19750269 0.22998121
0.24251375 0.077594995 0.1804418 -0.16298535 0.22986886 0.04376804 -0.15856852 -0.40867963
-0.24386996 -0.41627708 -0.35348755 0.29672012 -0.18106571 -0.24388945 -0.34064767 0.25828424
-0.32387504 0.1837268 0.17739882 -0.21488336 -0.48033684 0.37085855 -0.16620386 0.17627555
0.2553742 0.16144128 0.029424177 -0.19784829 0.38970673 -0.21781097 0.24490748 -0.19062895
-0.2333443 0.37098524 -0.28142333 0.22614637 -0.23337881 -0.25855938 -0.3806487 -0.4796224
0.21072595 0.24751213 -0.33835882 -0.20020995 0.20917943 0.1867728 0.20538464 -0.22863822
-0.15136462 0.07473465 -0.36725685 0.29375634 0.1296746 -0.27943048 0.05402465 -0.115379274
-0.31522658 -0.3344281 0.08502244 0.24313922 0.1728566 0.15220667 -0.26854584 0.32575732
0.3656248 0.27420405 0.036131147 0.04114286 0.327013 0.30214998 0.16689649 0.122368395
-0.35341907 -0.070587285 0.03730469 0.40385216 -0.055041205 0.011716133 -0.36637968 0.2934817
0.3542306 0.2722757 0.21223207 -0.22022523 0.17921779 0.42579782 -0.12790571 0.14696395
0.19195528 0.18333116 -0.37812996 0.23325492 0.05352129 -0.20679134 0.046881057 -0.17256951
-0.21489576 -0.111350834 -0.14671844 0.22784647 -0.2151527 -0.32936135 0.11130704 0.17461774
0.19059277 0.22192445 0.14365695 -0.18060313 0.19243187 0.16395578 0.21503 -0.069533944
-0.10545869 0.028490055 0.17280656 -0.16351233 0.23629037 -0.10758778 -0.12646887 0.11343162
0.06628346 0.051505655 0.33019596 -0.18846035 0.12817809 -0.24046332 0.1843341 -0.11048246
-0.18123004 -0.30447608 -0.21934368 0.053917017 -0.20121226 -0.14155062 -0.05642043 0.17540559
0.18576705 0.11075994 -0.026597645 -0.16237764 0.16709936 0.14796752 0.14797318 -0.19537197
0.36848453 0.25153393 0.19623244 -0.2125006 0.2678628 0.27240586 -0.14559174 0.1482658
0.21876107 0.21673007 -0.33226377 0.3403264 -0.040543158 -0.15104291 -0.011570416 -0.23659007
-0.2149218 0.16408587 -0.25857505 0.175404 -0.20973203 -0.3363407 0.17236191 0.27024043
0.19433776 0.11470454 0.19646093 -0.18170597 0.19156441 0.16205859 0.21426973 -0.09955279
00000000: 3718 1f3e affe 8dbe 4418 a8be c26f 1d3e
00000010: 03c3 80be b97a 023e cfec 673e 3828 d0be
00000020: 83b0 52be c7d3 b0be 6b8b acbe 064e 873c
00000030: 530a 8dbe f8ef 5ebe 1224 6cbe ef28 843e
00000040: cfb0 5e3e 3518 9d3d 4a53 6d3e 2781 acbd
00000050: 6521 503e 4dce 9e3a 1bc9 9cbe ccff 9abe
00000060: e161 58be 913d 3dbe 2eb1 0cbe 364a d43e
00000070: 8c66 d5be c29a b6be 906d 32be 3ef0 0c3e
00000080: 87de 1c3e 9e97 31be 32b0 adbe db64 4d3e
00000090: fec3 bbbe c457 f13d 0dcf bb3e 7cf7 d6be
000000a0: 4eb9 3bbe f62a a3be 0476 c0be 3ce6 243e
000000b0: 7e26 10be 3c2c cebd 60c6 55be 27ac 1c3e
000000c0: ec59 253e 8f78 db3c 35cd 823e 6501 a6be
000000d0: 137e a43e ab71 b63d cc56 50be e4ae c0be
000000e0: 6fbc 0cbe 7dac bfbe 020c 90be f962 e33e
000000f0: 5912 9fbe a7e8 f6be 2658 38be ed34 443e
00000100: 22e1 283e 080e 89be 7d96 bbbe 70dc 573e
00000110: ebf6 aebe 2ace 063e 9172 073f 9bdf fcbe
00000120: f51c ccbd a913 5abe 20f9 acbe 54fb 173e
00000130: c0b5 8fbe ef16 0ebe 253e 4abe 3280 6b3e
00000140: 8655 783e 20ea 9e3d bcc5 383e a2e5 26be
00000150: be62 6b3e 1e46 333d c95f 22be 753e d1be
00000160: 0cb9 79be 4522 d5be 52fc b4be b3eb 973e
00000170: 4a69 39be 28be 79be 5f69 aebe d53d 843e
00000180: f3d2 a5be e122 3c3e 09a8 353e 620a 5cbe
00000190: b6ee f5be 2ce1 bd3e 5831 2abe 9481 343e
000001a0: 68c0 823e dd50 253e f90a f13c be98 4abe
000001b0: a487 c73e d709 5fbe 07c9 7a3e 3c34 43be
000001c0: cff1 6ebe c7f1 bd3e b816 90be ea92 673e
000001d0: dbfa 6ebe e561 84be 63e4 c2be 1191 f5be
000001e0: 8bc8 573e d273 7d3e 5e3d adbe d603 4dbe
000001f0: 2233 563e 5e41 3f3e 5a50 523e 2320 6abe
00000200: 54ff 1abe 7b0e 993d 1709 bcbe 3b67 963e
00000210: 6bc9 043e 8311 8fbe f448 5d3d f84b ecbd
00000220: 6165 a1be 293a abbe 3f20 ae3d 7df9 783e
00000230: 5201 313e 11dc 1b3e d77e 89be aac9 a63e
00000240: 2c33 bb3e 7964 8c3e 41fe 133d 6a85 283d
00000250: 3f6e a73e 67b3 9a3e eae6 2a3e 489c fa3d
00000260: 58f3 b4be 1190 90bd cdcc 183d b6c5 ce3e
00000270: e372 61bd 06f5 3f3c 1e96 bbbe 3c43 963e
00000280: b75d b53e b867 8b3e 5d53 593e b982 61be
00000290: de84 373e 2c02 da3e b7f9 02be b87d 163e
000002a0: ed8f 443e 2abb 3b3e 409a c1be 61da 6e3e
000002b0: 2439 5b3d 1cc1 53be 5a06 403d 10b6 30be
000002c0: a20d 5cbe e80b e4bd 5c3d 16be 9650 693e
000002d0: fd50 5cbe 0da2 a8be f2f4 e33d fece 323e
000002e0: c02a 433e 2a40 633e cf1a 133e 07f0 38be
000002f0: dc0c 453e 06e4 273e d330 5c3e d067 8ebd
00000300: bafa d7bd fa63 e93c 34f4 303e c76f 27be
00000310: 1af6 713e fb56 dcbd 0e81 01be d64e e83d
00000320: 9fbf 873d 98f7 523d 720f a93e c0fb 40be
00000330: 1e41 033e 043c 76be 14c2 3c3e a144 e2bd
00000340: 5e94 39be 4ae4 9bbe a19b 60be 17d8 5c3d
00000350: 960a 4ebe a5f2 10be 1c19 67bd 869d 333e
00000360: b839 3e3e 1cd6 e23d 4ee3 d9bc 5346 26be
00000370: 181c 2b3e cc84 173e 4886 173e 970f 48be
00000380: 01aa bc3e 0ec9 803e 28f1 483e c299 59be
00000390: 5025 893e c878 8b3e 0016 15be fdd2 173e
000003a0: e702 603e 7dee 5d3e 7a1e aabe 433f ae3e
000003b0: 9510 26bd feaa 1abe d891 3dbc ab44 72be
000003c0: 7614 5cbe 2006 283e f363 84be 1b9d 333e
000003d0: fec3 56be d934 acbe a47f 303e f45c 8a3e
000003e0: 7a00 473e 37ea ea3d 0e2d 493e 2111 3abe
000003f0: 7629 443e b0f2 253e 8669 5b3e 55e2 cbbd

fc.bias f4 [88]
-0.37935278 -0.30126175 -0.26687917 0.31687233 -0.16230777 0.17551841 0.065393046 0.4017318
0.037689008 -0.07720251 -0.033083316 -0.008238972 -0.021466048 -0.27404562 0.011252236 0.10818467
-0.101186715 0.07975971 0.25586396 -0.15059194 -0.16407067 -0.19314158 -0.07300888 0.24527636
-0.17780963 0.20047213 -0.07974876 0.34211117 -0.1221011 0.014384464 0.12205918 0.10279934
0.12293105 -0.16528925 -0.118636556 -0.2781559 -0.11300944 -0.030674165 -0.265423 -0.1889413
-0.23960528 -0.22895755 -0.05879679 -0.014854006 -0.06309541 -0.3185119 -0.07942048 -0.22243144
-0.026694076 -0.24176693 -0.1746574 -0.30273044 -0.33710396 -0.10904922 -0.29756814 -0.22401911
-0.28826445 -0.07485438 -0.12345503 -0.34166956 -0.16572957 -0.26722932 -0.05452772 -0.18101156
-0.21192344 -0.23640671 -0.1686288 -0.16897383 -0.05813442 -0.05132416 -0.36420494 -0.07784246
-0.24440075 -0.20396025 -0.2689622 -0.061384987 -0.25224248 -0.05607321 -0.2771094 -0.3825906
-0.29752848 -0.32880965 -0.20977874 -0.33929917 -0.053097837 -0.13638198 -0.22145125 -0.278317
00000000: 873a c2be fb3e 9abe 63a4 88be 173d a23e
00000010: 0234 26be 19bb 333e caec 853d caaf cd3e
00000020: ca5f 1a3d 591c 9ebd 5f82 07bd c1fc 06bc
00000030: 91d9 afbc b54f 8cbe 4c5b 383c ed8f dd3d
00000040: fb3a cfbd 0f59 a33d 9a00 833e c634 1abe
00000050: 2402 28be e8c6 45be ae85 95bd ba29 7b3e
00000060: ba13 36be 9148 4d3e 5153 a3bd 3229 af3e
00000070: 2410 fabd d1ac 6b3c 2afa f93d 7688 d23d
00000080: 46c3 fb3d 9641 29be b9f7 f2bd 736a 8ebe
00000090: 7e71 e7bd 6348 fbbc 86e5 87be d479 41be
000000a0: 165b 75be d973 6abe e7d4 70bd 375e 73bc
000000b0: 2b38 81bd fe13 a3be 34a7 a2bd 11c5 63be
000000c0: 89ad dabc c091 77be 64d9 32be 7cff 9abe
000000d0: e498 acbe 3355 dfbd da5a 98be 4465 65be
000000e0: 6697 93be 414d 99bd fed5 fcbd 50ef aebe
000000f0: 03b5 29be 48d2 88be 7558 5fbd 185b 39be
00000100: 7502 59be 9a14 72be 07ad 2cbe 7a07 2dbe
00000110: 5c1e 6ebd 4839 52bd 1279 babe de6b 9fbd
00000120: 3144 7abe f5da 50be 6ab5 89be d36e 7bbd
00000130: ed25 81be 06ad 65bd 49e1 8dbe eae2 c3be
00000140: a755 98be bd59 a8be 3dd0 56be 9fb8 adbe
00000150: 1e7d 59bd b8a7 0bbe 1ec4 62be 917f 8ebe
