model_storage/ch7/model2_conditioned_surname_generation/model.pth (torch, 52731 bytes, 8 tensors)

char_emb.weight f4 [88, 32]
000000 00 00 00 00 00 00 00 00 00 00 00 00 00 00 00 00
       0.0 0.0 0.0 0.0
000010 00 00 00 00 00 00 00 00 00 00 00 00 00 00 00 00
       0.0 0.0 0.0 0.0
000020 00 00 00 00 00 00 00 00 00 00 00 00 00 00 00 00
       0.0 0.0 0.0 0.0
000030 00 00 00 00 00 00 00 00 00 00 00 00 00 00 00 00
       0.0 0.0 0.0 0.0
000040 00 00 00 00 00 00 00 00 00 00 00 00 00 00 00 00
       0.0 0.0 0.0 0.0
000050 00 00 00 00 00 00 00 00 00 00 00 00 00 00 00 00
       0.0 0.0 0.0 0.0
000060 00 00 00 00 00 00 00 00 00 00 00 00 00 00 00 00
       0.0 0.0 0.0 0.0
000070 00 00 00 00 00 00 00 00 00 00 00 00 00 00 00 00
       0.0 0.0 0.0 0.0
000080 a7 c0 29 bf 26 a7 80 be 6d 4c 81 3f 81 ed f8 3d
       -0.6630959 -0.25127524 1.0101448 0.12154675
000090 70 33 22 3e 87 27 91 3f eb b2 93 bf 78 c7 98 be
       0.15839934 1.1340188 -1.1538976 -0.29839683
0000a0 ea ed 01 bf 19 86 6c bf ee f4 0b 3f df 54 bf bf
       -0.50753653 -0.92392117 0.5467061 -1.4947776
0000b0 dd 54 9a bf c9 62 12 3f 39 ec 18 bf bb 94 31 bf
       -1.2057148 0.57181984 -0.5973545 -0.6936757
0000c0 03 a1 d2 3f f5 90 4d bf 08 fb ac 3f 4d 45 8d be
       1.6455387 -0.8029931 1.3514109 -0.27591935
0000d0 07 63 c1 bf 9a b4 06 40 52 d4 30 40 45 8e df bf
       -1.5108346 2.104773 2.762959 -1.7465292
0000e0 b5 cd b9 3f f5 50 c1 bf 22 37 52 3f 99 9a 58 be
       1.4515902 -1.5102831 0.82115376 -0.21152724
0000f0 e1 65 47 3f 27 42 c4 3f d8 0b ce 3f eb 73 ce be
       0.7788983 1.5332688 1.6097364 -0.40322813
000100 db e1 80 bf 2c 5c 2f 3f eb f8 2a 3d 75 00 35 be
       -1.0068926 0.6850002 0.041741293 -0.17675956
000110 7c 8f 33 bf 62 02 15 3f 74 ca ad bd 4e 00 ba bf
       -0.70140815 0.5820676 -0.084858805 -1.4531343
000120 52 e7 15 40 d0 0d 16 bf 72 05 28 3d fc ea 6c 3f
       2.3422437 -0.58614826 0.041020818 0.9254606
000130 db 83 bc bf fd e6 9d 3f 1b ec 21 3e 96 25 e8 3e
       -1.4727739 1.2336117 0.15812723 0.45341176
000140 5e 32 2d 40 21 07 b2 bf 89 b3 a7 3f df a3 2e 3f
       2.7061992 -1.3908426 1.3101665 0.682188
000150 88 8e ed bf df 99 b8 bf ab 1c 5b 3f c3 34 8b bd
       -1.8559122 -1.4421958 0.8559062 -0.06797173
000160 e8 56 fd 3e 83 fa 14 bf 92 36 32 3f 78 a7 32 bf
       0.49480367 -0.5819475 0.6961452 -0.6978679
000170 e1 bd ab be 6f 69 06 bf 30 cd ad bf 7f c5 36 bf
       -0.33543304 -0.5250463 -1.3578243 -0.71395105
000180 31 5e d5 bf 08 bd ae bf 26 7f 29 be 1e 56 76 3f
       -1.666937 -1.3651438 -0.1655241 0.96225154
000190 69 39 01 3d 43 ed 3d bf e0 77 98 be 03 9f 8c 3c
       0.03154889 -0.7419016 -0.29778957 0.017165666
0001a0 2f 7a 35 be bf a1 08 be 94 81 96 3e 2d 46 b1 3f
       -0.1772239 -0.13342951 0.29395735 1.3849541
0001b0 1c a1 f7 3d a4 ac 22 40 30 f5 23 bf 60 ac fc bf
       0.12091276 2.5417871 -0.64046 -1.9740105
0001c0 4d bd a8 be d7 65 02 3c b9 1d 6d 3f 1e 39 f1 bf
       -0.32956925 0.007958851 0.9262348 -1.8845556
0001d0 fb f7 2a 3e 8c d0 ea 3e 0e 13 e2 bf 31 03 16 3f
       0.1669616 0.45862234 -1.7662065 0.5859862
0001e0 cd 21 e0 3f d0 ba 8f 3e 90 36 9f 3e b0 5c 27 bf
       1.7510315 0.28072214 0.31096315 -0.65375805
0001f0 33 5a 28 bf ce 0b a3 3e b3 b1 0c bf a5 82 bb bf
       -0.65762633 0.31844944 -0.5495865 -1.4649245
000200 de ca 19 c0 63 f2 1d 40 46 91 9e 3f a1 2e cf be
       -2.403007 2.467919 1.2388084 -0.40465263
000210 36 04 61 3f fd 01 a2 3f d1 3a b4 be 41 44 88 bf
       0.8789705 1.2656857 -0.35201123 -1.064583
000220 e8 9f 4a 3e 40 a8 44 3d 2d 23 0a 3f ff ea 1b 3f
       0.19787562 0.04801202 0.53959924 0.6090545
000230 3e da 38 3e 5c 64 63 bf 5f dd a9 3e bf 69 50 3f
       0.18052003 -0.8882501 0.33176705 0.81411356
000240 dd ad 12 40 3a bd a7 3f b8 b1 c9 bf 37 03 e9 be
       2.2918618 1.3104622 -1.575736 -0.45510265
000250 99 7a d2 be f2 5d 28 bf 80 7e 6c bf 5f 9f 7d 3f
       -0.4110916 -0.6576835 -0.92380524 0.99071306
000260 15 c0 83 bf 1a 64 28 3f 56 b7 82 3f b2 72 77 be
       -1.0292994 0.6577774 1.02122 -0.24164847
000270 23 a9 a8 bf b8 58 9d be d9 b2 aa 3f ae 4b 5c be
       -1.3176616 -0.3073175 1.333583 -0.21513245
000280 d1 0f 9e bf 14 d3 9c 3e 69 ca fe bd 92 3c 0e 40
       -1.2348577 0.3062979 -0.124409504 2.222447
000290 b5 2b 4b c0 2c 3f d2 3d 59 ed 6d bf fe 46 0e bf
       -3.1745427 0.10265955 -0.9294029 -0.55577075
0002a0 4d f7 87 3e 03 f6 0c 40 83 7c 18 bf 8c 80 59 be
       0.26555863 2.2025154 -0.5956499 -0.21240443
0002b0 c7 47 a2 bf 6c 08 96 be 19 b9 ff bf 7e 2e be bf
       -1.2678155 -0.293033 -1.9978362 -1.4857938
0002c0 f2 6f 04 bf 70 a1 7e bf 0b c2 0d 3e 23 4d 87 3e
       -0.51733315 -0.99465084 0.13843553 0.26426038
0002d0 2f 4b d6 3e 62 77 15 3f c3 dc ed bf 36 ab 76 3f
       0.41854236 0.5838529 -1.8582996 0.96355
0002e0 7f 2f 9c 3f d1 69 9b 3f 9d fc 17 3f aa c7 b5 bf
       1.2201995 1.2141668 0.5936983 -1.4201558
0002f0 b0 ae 1b bf eb 31 16 40 5b 68 f3 3e 99 b4 c5 3f
       -0.60813427 2.3467968 0.47540554 1.5445739
000300 26 76 7c 3e fb 9a fc be ee bd fa 3f b3 a9 c4 3f
       0.24654445 -0.4933699 1.9589212 1.5364288
000310 61 3c 69 3f a9 12 fd be 5f b7 d0 be 79 b7 4a 3f
       0.91107756 -0.494283 -0.407649 0.7918621
000320 44 52 23 3e 37 f4 ed bf 2d 4a 98 3f b2 25 a6 3e
       0.1594935 -1.8590153 1.1897637 0.32450634
000330 3e 5e a3 bf 27 19 83 bf 70 49 9d be 51 33 85 3e
       -1.2763135 -1.0242051 -0.3072009 0.26015714
000340 0b 88 ab 3e 7b 99 ff be d9 80 cc be b7 67 19 bf
       0.3350223 -0.49921784 -0.39942053 -0.5992388
000350 f9 00 73 3f b4 c4 7a 3f 0e c0 a9 3f 02 63 24 3f
       0.9492336 0.97956395 1.3261735 0.64213574
000360 e7 54 e6 3d 1a 40 86 3f 58 e4 dd be 30 e0 11 bf
       0.112466626 1.0488312 -0.43338275 -0.5698271
000370 2e e7 b0 be 1d 5e 04 3e 0e 0d 09 bf 5b d6 5c be
       -0.34551376 0.12926526 -0.53535545 -0.21566145
000380 39 b5 47 bf 87 b1 4c bd 2e dd f9 bd 87 83 d8 be
       -0.780109 -0.04997399 -0.1220039 -0.42287847
000390 e8 ff a7 be dc 15 e6 3e 3c 1d 95 bd 4a f5 2c bf
       -0.32812428 0.44938552 -0.07280967 -0.6756178
0003a0 d3 60 73 3f 52 d6 d5 bf 06 4b 31 3f 69 e0 0e c0
       0.9506962 -1.670603 0.692551 -2.232447
0003b0 a4 8c 90 bf 45 2b 1b be e9 12 17 bf a4 b4 1e bf
       -1.129292 -0.15153225 -0.5901323 -0.61994386
0003c0 2f 66 ad 3f b4 08 ee bd 57 f8 45 bf b9 66 81 bf
       1.3546809 -0.11622754 -0.7733206 -1.0109473
0003d0 03 5f 4c 3e 87 c3 f7 be 00 a5 19 be 3a 18 9a bf
       0.19958119 -0.48391363 -0.15004349 -1.2038643
0003e0 97 34 12 bf 0e 95 ac 3e 70 b6 8d bf 16 50 a5 bf
       -0.57111496 0.3370747 -1.10713 -1.2915065
0003f0 a2 4d 94 3f 43 49 d4 bf 59 55 00 bf ce f7 b0 3f
       1.1586192 -1.6584858 -0.5013023 1.3825624

nation_emb.weight f4 [18, 32]
000000 3b 9a 50 bf a1 c8 3f bf 24 6a 80 be 1b ee 32 3f
       -0.81485337 -0.7491551 -0.2508098 0.6989457
000010 7f e2 d6 bf 4b 9e ca 3e a9 de ad 3f d7 2c 2c bf
       -1.6787871 0.39573893 1.3583575 -0.6725592
000020 93 d9 a3 3f 5c ee ee 3e a7 de 79 3f 0e 0a 72 be
       1.2800773 0.4666623 0.97605366 -0.23636648
000030 aa 33 8b 3d 1b 97 3b bf c7 3d 82 bd 78 67 1a bf
       0.067969635 -0.73277444 -0.06359439 -0.6031413
000040 0a a9 d3 3f a3 7c 23 40 15 c6 f4 3f 4a d7 62 be
       1.6535962 2.5544822 1.912295 -0.22152439
000050 f2 e1 e6 3e 87 3d 2a 3f 69 0e ff bf c7 ac 7c bf
       0.45094258 0.66500133 -1.9926273 -0.9870114
000060 33 56 15 40 4a 1b 53 40 4e f5 1f bf da 37 98 bf
       2.3333862 3.2985406 -0.6248368 -1.1892045
000070 5f 9e 2b c0 b0 fd 6e 3f 65 59 b4 bd aa 3e 0c 3f
       -2.6815412 0.93355846 -0.08806113 0.5478312
000080 54 bc 5f bf 4c 75 16 40 3c 7c ad bf c9 8d ae 3e
       -0.8739674 2.3509092 -1.3553538 0.34092548
000090 56 df 42 3f b3 e4 bf 3f 89 b2 70 bf fd 83 38 40
       0.76122034 1.4991668 -0.94022423 2.883056
0000a0 44 23 04 bf 25 44 62 bf d3 b9 9c bf 77 1d 7f bf
       -0.5161631 -0.8838523 -1.2244209 -0.99654335
0000b0 65 42 97 3f 8c 49 cd 3f c5 93 c0 be 8c 02 81 3e
       1.1817137 1.603807 -0.3761274 0.25197256
0000c0 2b 0c 92 3f 5b 12 f3 3f 69 1a 2a bf af 52 5b bd
       1.1409963 1.8989977 -0.6644655 -0.05354565
0000d0 ea 2f 15 3f cc 1d cd 3e d1 4c a7 3f c3 de 92 bf
       0.58276236 0.40061796 1.3070318 -1.1474231
0000e0 b9 14 15 40 5a 52 3d 3e 8f 1b be 3f d9 07 16 3e
       2.3293898 0.18488446 1.485216 0.14651431
0000f0 08 8c e7 bf 2a b3 6a bf 17 34 12 40 9a 6f 42 3f
       -1.8089609 -0.9167963 2.2844293 0.7595154
000100 0c 04 6b bf 07 86 c3 3f 54 b3 d6 bf f5 16 06 c0
       -0.9180305 1.5275277 -1.6773477 -2.0951512
000110 bf 18 44 bf 9f fe 65 3f 88 70 1a 40 43 de fa 3e
       -0.7660026 0.89841646 2.4131184 0.48997697
000120 4b 2c bf bf ea c1 e2 be ac a8 d6 3f b4 aa cd 3f
       -1.4935392 -0.4428857 1.6770225 1.606772
000130 cf a7 82 be df fb cf 3e 5e c9 5a be 16 e4 14 bf
       -0.25518653 0.4062185 -0.21365878 -0.5816053
000140 a7 e9 b3 3f a7 28 39 3f dd 08 9a 3f f5 e3 96 3f
       1.405568 0.72327656 1.2033955 1.1788317
000150 b4 e9 e8 bf fc 24 ca bf 4a b5 2c bf cc ae 62 be
       -1.819632 -1.5792537 -0.67464125 -0.22136992
000160 5b 64 72 3f 94 71 7e bf 49 3e af bf f4 42 89 3f
       0.9468438 -0.99392056 -1.3690883 1.0723557
000170 6c 37 a7 bd 6c c1 55 3f cb 36 e6 3f 42 2e 2b 3e
       -0.08164868 0.83498263 1.7985471 0.16716865
000180 09 44 e3 bf ce 79 76 be 53 5f 47 3d 9b 35 e0 3f
       -1.7755138 -0.24069902 0.048674893 1.7516359
000190 48 2a fb 3d 55 63 e5 bc ce be db 3e 53 9a 62 3f
       0.12263924 -0.028001467 0.4291901 0.8851673
0001a0 c6 cc 7d be e4 42 6d bf ac 7e 08 40 da 39 da 3f
       -0.24785146 -0.9268019 2.1327314 1.7048905
0001b0 6a 5f b5 3f e6 58 63 3f 39 6d af 3e d7 f1 ba be
       1.4169743 0.88807523 0.34263018 -0.36512634
0001c0 61 f3 10 bf fe 2d fd be 39 d3 c7 be ec b3 43 bf
       -0.56621367 -0.49449152 -0.39028338 -0.76446414
0001d0 7a 41 57 be 01 ff ca bf 42 59 0c c0 28 a0 28 3f
       -0.21021071 -1.5859071 -2.1929479 0.6586938
0001e0 c7 e1 23 bf 30 62 3d 3c 6f 4e 56 bf 77 fa 4d 3e
       -0.64016384 0.011559054 -0.8371343 0.20115076
0001f0 7f 32 42 40 2a 52 11 bf f4 19 6f 3e 51 ab b0 3f
       3.034332 -0.56766 0.23349744 1.3802282
000200 b0 03 52 3f 3e fc 89 3f 8b 1e 70 3f 9d e9 27 3f
       0.82036877 1.0780103 0.93796605 0.6559084
000210 9b 66 9d 3f b3 1a 08 3f 4b 0f a2 be 2f 6a 11 c0
       1.2296938 0.5316574 -0.31652293 -2.272106
000220 e6 2b d3 3f d1 98 9e bf 85 43 a2 3f 5a c2 0f 40
       1.6497772 -1.2390386 1.2676855 2.2462373
000230 a5 3f b5 3e 0f db 2a be eb 0d 93 3f 24 3d 6f 3e
       0.3540012 -0.16685127 1.1488622 0.23363167
000240 46 d5 8b 3e b5 41 22 40 79 de a9 3f 8f 96 9a 3f
       0.27311152 2.5352604 1.3271018 1.2077197
000250 2a 42 ea bd 5d 11 38 3f bf 5d 72 be 7b c1 a3 3f
       -0.11438401 0.71901494 -0.23668574 1.279342
000260 ab 39 29 bf 8b ee 8e 3f d2 6f 90 bd 29 92 67 bf
       -0.6610362 1.1166548 -0.07052578 -0.904574
000270 02 bf 87 3f 0d c2 5e 3f ff 79 21 3f 86 54 b8 3e
       1.0605166 0.8701485 0.63076776 0.36001986
000280 89 df b6 3f 3e 48 30 3f ae af b6 be 15 69 5a bf
       1.4286968 0.6886023 -0.35680908 -0.8531659
000290 0c 11 e1 3f f7 b6 44 bf dd 76 19 bf 1c 70 37 c0
       1.7583327 -0.7684168 -0.59946996 -2.8662176
0002a0 f2 a2 e9 be 09 45 de bc 29 e8 fc 3e 73 dc 76 3d
       -0.4563213 -0.027132528 0.49395874 0.06026883
0002b0 83 89 8d bf d7 5c 4d 3f b5 1e 99 3f af e8 98 3e
       -1.105759 0.8021979 1.1962496 0.29865023
0002c0 6a af 4d c0 36 76 08 40 16 db 93 be ec c1 94 be
       -3.2138314 2.132215 -0.28878087 -0.290542
0002d0 03 75 02 be bf 32 69 bf 21 1c 39 be 88 50 98 bf
       -0.12739949 -0.9109306 -0.18077137 -1.1899576
0002e0 96 2c a6 be c1 6d da 3e 39 01 01 bf ee 72 fe 3d
       -0.3245589 0.4266186 -0.5039249 0.12424265
0002f0 26 03 b5 bf 01 7a 66 bf 2c 76 9f bf f6 7a a8 3f
       -1.4141586 -0.90029913 -1.2457938 1.3162525
000300 50 7a 45 3f d5 e3 84 bf b1 fb c2 bf 95 87 ba bf
       0.7713976 -1.0382029 -1.523306 -1.4572626
000310 d3 2a c6 3d 08 ff 3d 3d a9 48 8a bf 50 d3 a7 bd
       0.09676137 0.046385795 -1.0803424 -0.081946015
000320 07 1b df be 13 fa f1 3f 8c 41 ee 3e 97 42 40 c0
       -0.43575308 1.8904442 0.46534383 -3.0040643
000330 34 63 12 3f a1 cc a0 3f bb 0f 33 be 2d b0 06 c0
       0.5718262 1.2562448 -0.1748647 -2.104503
000340 70 24 ea 3e 06 e1 81 be 07 10 f5 3e 43 d1 b1 be
       0.45730925 -0.25366992 0.4786379 -0.34729967
000350 1a d1 a8 3f 48 be 25 3f b2 10 7d bf 1d 99 27 3f
       1.3188813 0.6474347 -0.988536 0.6546801
000360 43 4c 86 bf dd 77 11 be cf a7 31 bf 20 65 3b bf
       -1.0492023 -0.1420588 -0.6939668 -0.7320118
000370 df ff 9d 3f 12 b9 da 3f b1 5e 13 3f 56 97 66 3f
       1.2343711 1.7087729 0.5756636 0.9007467
000380 39 e0 c2 3f e5 4f 60 bf 94 24 be bf 1c ac 92 3d
       1.5224677 -0.8762191 -1.4854913 0.071617335
000390 26 31 1d bf d6 61 31 3f 89 01 65 3f 93 e0 2a 40
       -0.6140312 0.6928991 0.8945547 2.669957
0003a0 e2 30 bb bf 22 c4 aa 3f f3 28 85 bf d2 3b 8a bf
       -1.4624293 1.3341105 -1.0403122 -1.0799506
0003b0 91 24 26 bf 51 a7 af bf fd 3f 5d 3f ff b3 9f 3f
       -0.64899546 -1.3722936 0.86425763 1.2476805
0003c0 0d e0 f9 3d 7e d5 21 bf 79 82 90 bf ed ea 20 bf
       0.122009374 -0.6321639 -1.1289817 -0.6285847
0003d0 d5 04 7f be c9 72 19 3f 8d 2d d1 3f d9 e2 fd 3f
       -0.24904187 0.59940773 1.6342026 1.9834853
0003e0 9f b4 87 3f 58 fe 7a 3e 6e 27 8f bf 92 e7 c6 3f
       1.0601996 0.24511087 -1.1183908 1.553942
0003f0 c3 de 83 3f 65 04 82 3f 79 33 53 3f 77 e1 22 3e
       1.0302356 1.0157591 0.82500416 0.1590632

rnn.weight_ih_l0 f4 [96, 32]
000000 da 22 38 be 0d aa ff bd f0 f6 41 3e b7 12 a9 3e
       -0.17982045 -0.124836065 0.18941855 0.3302209
000010 39 0f b3 3d 60 c7 13 be 41 5b 80 be e8 b9 99 3d
       0.08743138 -0.14431524 -0.2506962 0.07506162
000020 1c 6d 0c 3e ab 28 16 be 12 10 ad 3d fa e4 09 bd
       0.13713497 -0.14663951 0.08450331 -0.033665635
000030 36 f6 10 be 33 6d 16 bf 1c 09 71 bd 29 ab ee bd
       -0.14156422 -0.58760375 -0.058846578 -0.1165374
000040 20 53 e8 bd f4 ee ea 3d ba 54 41 be 2f cb 20 bd
       -0.1134398 0.11471358 -0.18879977 -0.03925627
000050 ef 0a b0 bd ba 4e 49 3e 33 3c 1c be 75 af 88 be
       -0.085958354 0.19658938 -0.15257339 -0.26696363
000060 86 68 26 3e 67 f9 ab bd 9a 3d 21 be 50 e8 22 be
       0.1625081 -0.08397179 -0.15746155 -0.15908933
000070 c6 3a 83 be 1a 82 9b 3d 47 d1 75 3e 1f 31 91 3d
       -0.25630778 0.07593174 0.24005614 0.07089447
000080 36 57 ab 3d a0 e0 b8 3e d2 7e 3f 3e 67 7f 30 3e
       0.083662435 0.36108875 0.18700722 0.172361
000090 cc 62 ad bd a4 db cd bb 58 fa 3f 3d ce 7c 7d 3e
       -0.0846611 -0.0062822867 0.046869606 0.2475464
0000a0 c8 d0 10 3d 31 f8 b2 bd 0a 36 db 3c d9 04 a3 3c
       0.03535536 -0.08738745 0.026759166 0.019899772
0000b0 11 b1 28 3e 0b 9e a4 bd d2 1a 22 be 20 2a aa be
       0.16473795 -0.08037957 -0.15830544 -0.33235264
0000c0 ec bb 60 be 41 fb 47 be 74 48 fc 3d 37 11 23 be
       -0.21946687 -0.1952944 0.12318507 -0.15924536
0000d0 32 22 ce bd 60 34 52 3e 86 81 78 3d 44 05 1b 3e
       -0.10065116 0.20527792 0.0606704 0.15138727
0000e0 0b ea 16 3e 84 bf 24 3d cd 79 d9 be 4a 2d a2 be
       0.14737718 0.040221706 -0.4247574 -0.31675178
0000f0 d1 bd ad be 13 d3 7b bc 5f 4f 34 3e 0e 66 8a 3e
       -0.3393388 -0.015370148 0.17608403 0.27030987
000100 f4 a6 74 bc cd 6b 1e be aa 41 b7 3d f9 1f a8 3e
       -0.014932383 -0.1547081 0.08948071 0.32836893
000110 c9 63 42 3e 03 f5 4a 3e 27 52 7c be 76 ca b6 3b
       0.18983378 0.19820027 -0.24640714 0.0055783344
000120 10 45 a2 bd a7 15 56 ba a7 5c c1 3e 67 4f 2d 3e
       -0.07923329 -0.00081666786 0.37766 0.16924821
000130 99 cc 56 bc 5c db f4 bd 3f 5e f5 3d e7 0f 9c bd
       -0.013110303 -0.11955902 0.11980867 -0.07620221
000140 d1 13 6c 3d e7 a0 16 3e b2 cc 25 3c 8f 70 ae 3d
       0.057636086 0.14709817 0.010119604 0.085175626
000150 67 12 31 3e c7 2b b3 3e 9c 2d 67 bd dc 87 be 3e
       0.17292176 0.34994337 -0.05643998 0.37213027
000160 12 d5 1e bd f3 b4 78 bd ed 45 8f 3e c6 b0 64 be
       -0.03877742 -0.06071944 0.27983037 -0.22333059
000170 be 8d 98 be 08 ff cf 3d 1a 94 67 3e 56 e5 1a 3e
       -0.2979564 0.10156065 0.2261509 0.15126547
000180 e2 4d 63 3e 76 62 47 3d a9 ae 3b 3d f3 e6 cd 3b
       0.22197679 0.048677884 0.045820866 0.006283635
000190 a4 7d 9b 3e a2 b9 9c 3d 03 18 47 3d 70 e1 26 3e
       0.30369294 0.07652594 0.048606884 0.16296935
0001a0 12 21 c3 bc 55 da fa bd 7e 4b 31 bc f8 d9 2c bd
       -0.02381948 -0.12248675 -0.010821221 -0.04220006
0001b0 13 2b 31 bd 15 06 31 3d 1d a1 07 be e2 8b 31 be
       -0.04325397 0.04321869 -0.13245054 -0.17338517
0001c0 df 52 3a be b7 b9 bc 3e 05 6a 28 3d 1f 70 ab be
       -0.18195675 0.3686044 0.041116733 -0.3348398
0001d0 18 b5 45 3e 41 4a 02 bd c5 12 77 bd 65 64 b2 3d
       0.19307363 -0.031809095 -0.060320634 0.08710555
0001e0 2f eb 23 3c 23 4e 81 bc 3a a7 3e 3d 47 2d 6d be
       0.010004803 -0.015784329 0.0465462 -0.23161803
0001f0 39 3a 40 be 26 6e 9d bd f1 b3 91 bc c5 b0 ec bc
       -0.1877221 -0.07687025 -0.017785998 -0.028892884
000200 5e 88 3e be 10 bd 53 be cb 60 21 3d 8b 9b d1 3c
       -0.18606707 -0.2067759 0.03939895 0.025586864
000210 79 a7 70 3c 2d 06 c2 3a a2 d5 aa 3d d4 0c 6f bd
       0.014688366 0.0014802866 0.083415285 -0.058361843
000220 3f c1 c8 3e 6a 63 af bd 7c 86 05 be 02 eb da be
       0.39209935 -0.085638836 -0.13039583 -0.42757422
000230 85 30 b1 be e6 53 88 3d 21 3c 36 3e b7 54 2b be
       -0.3460733 0.06656627 0.17796375 -0.16731535
000240 72 85 db 3d dd 52 24 be 06 bf 65 bd 1b 3a 24 3e
       0.10718812 -0.16047235 -0.056090377 0.1603779
000250 59 6b 8b be a3 f4 99 be a7 70 10 be 00 ac 63 be
       -0.27230337 -0.30069456 -0.14105473 -0.22233582
000260 14 93 4d 3d b5 8a 4b 3d 31 e2 70 be e9 e4 47 be
       0.050189093 0.04969283 -0.23523785 -0.19520916
000270 c7 ac 85 be 57 92 0f bd 60 32 11 bd b4 70 e6 3d
       -0.2610838 -0.03505167 -0.035448432 0.11251965
000280 4f a2 dc bc 91 39 b6 3d bc 91 0f 3e 4a b3 28 3e
       -0.026932864 0.08897699 0.14020437 0.16474643
000290 07 c5 4a 3e 15 fd 7d 3d 37 f8 4f be b0 0d 5e 3e
       0.19801722 0.062008936 -0.2030953 0.21684909
0002a0 a3 1d e5 3c 58 7e f6 bd 98 18 09 3e ad c0 23 3d
       0.027968233 -0.12035817 0.13388288 0.03997867
0002b0 32 03 f6 bc db 6b 87 be a4 0b 51 be b0 c7 92 3d
       -0.03003082 -0.26449475 -0.20414597 0.071669936
0002c0 79 ff 55 be 2e d8 93 3d b1 62 98 be 90 5d a8 3b
       -0.20898236 0.072189674 -0.29762796 0.0051381066
0002d0 b7 ab 08 3e a0 96 42 3e 6b ac d9 3b f8 fc 14 3e
       0.13346754 0.19002771 0.0066428683 0.14549625
0002e0 f7 45 87 bd 6d 0d d8 3d a0 fc 14 be 3b f9 89 bc
       -0.066051416 0.10549436 -0.14549494 -0.016842475
0002f0 6b b4 9b bc eb 3d 08 3d 24 c5 b0 3d 6e c1 86 3e
       -0.019006928 0.033262175 0.086313516 0.2631945
000300 c9 e1 b7 3e a3 13 da 3d 0b 23 f0 bd 34 1b db 3d
       0.35914448 0.10648277 -0.11725434 0.10698548
000310 a4 96 25 3e 0d 3e e0 3d 65 99 b0 bd c1 01 50 3e
       0.16170746 0.10949335 -0.08623008 0.20313169
000320 7c d6 4f be 9f 22 d3 bc 5a ac 2f 3d 9e 6c a1 be
       -0.20296663 -0.025773345 0.042888977 -0.3152818
000330 91 25 9c bd 98 d4 c8 bd 5b c8 01 be 71 d2 cc 3c
       -0.07624353 -0.09806174 -0.12674086 0.02500269
000340 92 8a 52 be bb 91 f6 3c 16 f2 7f be 21 c0 c4 be
       -0.20560673 0.030098787 -0.24994692 -0.38427833
000350 e3 5e c2 3d 36 1a 10 3e 5e 5e 8d be cc 3f 2c be
       0.094907545 0.14072499 -0.2761106 -0.16821212
000360 59 d8 5d be a2 24 ed 3c de 33 90 3d a3 29 29 bd
       -0.21664561 0.028948132 0.07041143 -0.041299473
000370 fd 0a 4a be f4 03 0e be 51 9c 03 3e 3d da 0f bd
       -0.19730754 -0.13868695 0.12852599 -0.035120238
000380 e5 76 12 be 06 d1 58 bd ee 01 41 3e 3f 72 35 3e
       -0.14303167 -0.052933715 0.18848392 0.17719363
000390 10 af a2 bd e5 b7 72 bd d1 51 84 be 14 4a 57 3e
       -0.07943547 -0.059257407 -0.2584367 0.21024352
0003a0 1c f2 15 3d 5b 49 97 3c a4 22 ca 3b 43 6d de 3d
       0.036607847 0.018467596 0.0061686803 0.10860684
0003b0 75 ff ac bc 45 13 55 be 2c 4a a7 3b 06 69 94 bb
       -0.021117905 -0.20808132 0.0051052775 -0.0045291213
0003c0 ca 6b 21 3d 21 a2 e1 bd fe dd 4a be 3e 49 ac bd
       0.039409436 -0.11017252 -0.19811246 -0.08412407
0003d0 04 36 15 3e 28 7a 62 3c c7 88 74 3d be f4 ac 3d
       0.14571387 0.01382307 0.059700754 0.08445118
0003e0 12 8a 18 3d f5 5d 22 bd f1 07 23 be 1d ac 85 bd
       0.03724105 -0.039640386 -0.15920998 -0.06526969
0003f0 ed c0 af be 01 5d 06 be 31 35 b0 3d 2f d4 03 3e
       -0.34326878 -0.13121416 0.086038955 0.1287391

rnn.weight_hh_l0 f4 [96, 32]
000000 b6 de 8c bd 19 e4 32 bd ed ed d9 3e a6 c5 00 bf
       -0.06878416 -0.043674562 0.42564335 -0.5030159
000010 a5 3a 33 3f e9 c5 9b 3d 6f 31 4c be d0 48 4b 3e
       0.7001136 0.07606108 -0.19940732 0.19851995
000020 45 0e ad 3c 83 09 03 3f e4 3d ad 3e f9 70 93 3e
       0.021124968 0.5118639 0.3383628 0.2879713
000030 9f d3 80 3e 2c de 7d be 88 12 1e be a4 af 13 bf
       0.25161454 -0.24791783 -0.15436757 -0.5768988
000040 ec c8 75 bc de 33 e3 bd 18 af 01 be df 01 41 3e
       -0.015001517 -0.11093877 -0.12664449 0.1884837
000050 51 3c 92 3d d4 44 72 3e 84 17 8a bd 2c 84 16 3e
       0.07140411 0.23659068 -0.067427665 0.14698857
000060 33 0b 2b 3e db b2 0c 3d 96 ff 48 3e 71 ee a9 3d
       0.16703491 0.034350257 0.19628748 0.08297432
000070 02 0b d2 3c c5 11 a5 3d 39 d7 22 3e ef 0f d5 bd
       0.025640015 0.0806003 0.15902413 -0.1040343
000080 4d 04 7c bd 18 ed 06 3e 7a e8 19 3e df a1 82 3c
       -0.06152754 0.13176382 0.15030089 0.015946327
000090 59 e8 86 3e c3 6a 05 be 34 a9 95 be 00 61 54 3e
       0.26349142 -0.13029008 -0.29230654 0.20740128
0000a0 bf ce 67 3e ab 7f 66 3d 53 36 1f bd 20 cc 1e be
       0.22637461 0.056274097 -0.038870167 -0.15507555
0000b0 4f 8a 6b 3e ef 7e af be 25 87 e1 3d 9a 06 8c be
       0.2300198 -0.3427653 0.11012105 -0.27348787
0000c0 99 26 2c 3d a2 06 10 bc ea 6b 1e be 64 0c 70 3c
       0.042028997 -0.008790644 -0.15470853 0.014651392
0000d0 ab 04 8c 3d 9e 79 d5 3d b9 f5 e7 bd 3b b8 76 3d
       0.06836828 0.10423587 -0.11326165 0.06023429
0000e0 28 07 e9 bd 11 ac 9c 3e a2 d3 0a 3d da aa fb 3d
       -0.11378318 0.30600026 0.033893235 0.12288447
0000f0 ca de 7a be 3b 59 51 be 9f b4 74 3e b8 6d 04 3e
       -0.2449905 -0.20444195 0.23897026 0.1293248
000100 44 ef 84 be b9 78 a6 3e e7 9d ee 3d 47 17 4a be
       -0.25963795 0.3251398 0.11651211 -0.19735442
000110 71 61 b5 bc 0a 73 11 bd e6 e3 17 be dc 23 b1 3d
       -0.02214119 -0.0355101 -0.1483303 0.08649418
000120 be d6 af 3e 11 d0 b7 be 57 09 be 3d 23 32 42 3e
       0.34343523 -0.3590093 0.09279125 0.18964438
000130 a3 d7 8e 3d da 48 fd 3c 9c 70 54 bd a6 5b f9 bc
       0.06974723 0.030918527 -0.051865205 -0.03043921
000140 51 da 17 bf fc e3 f5 3d 6b d5 13 be 74 ab f2 3e
       -0.593175 0.12006375 -0.14436881 0.47396433
000150 74 45 8e 3e 20 74 b0 bd 57 c7 dc 3d 87 0c 6f 3d
       0.27787364 -0.08615899 0.107802086 0.058361556
000160 56 1a b8 be 0b f5 c3 bd 11 09 01 bf 7a 60 27 3f
       -0.35957593 -0.095682226 -0.5040446 0.65381587
000170 e6 b8 fd bd 9a 3d 38 be e2 e1 9f 3e 04 d1 65 3d
       -0.12388782 -0.17992249 0.31227022 0.056107536
000180 54 fd ec bd c9 f8 80 3d 82 ca 80 3e c6 f7 6b be
       -0.11571756 0.06297452 0.251545 -0.23043737
000190 ef 81 71 3e b5 34 28 be 6d f0 7a 3d 4d b6 04 bd
       0.23584722 -0.16426356 0.061264444 -0.032400418
0001a0 9d f9 c1 3d 1c 88 c4 3e 89 b8 a1 3e 55 c9 79 3e
       0.09471438 0.38385093 0.31586102 0.24393208
0001b0 f1 82 71 3e c9 1c 03 bb 73 cd 3a 3e da 5b e5 be
       0.23585106 -0.002000617 0.18242435 -0.4479664
0001c0 d7 7c 66 3e af 3b ee bd 96 2b 1c 3e bc a5 20 3f
       0.2250856 -0.116324775 0.15251002 0.6275289
0001d0 3e 31 4d 3e dc 38 7b 3e 2a 5d cb 3e bf 02 7c 3e
       0.20038316 0.24533409 0.39719516 0.24610423
0001e0 08 c5 5b 3d 13 6a 84 3d 31 13 20 bd 72 19 f1 3e
       0.0536547 0.064655446 -0.039080802 0.47089726
0001f0 91 fe 88 3d 38 e5 21 3e a9 10 70 3e 14 f8 63 be
       0.0668918 0.15810096 0.23443855 -0.22262603
000200 b9 55 cb bd ae cd 33 bd ce 34 51 3e bb 9c 88 bd
       -0.0992846 -0.043897323 0.204303 -0.06670519
000210 0b 44 52 be 99 a0 7a bd 04 53 53 bd d5 01 a2 3d
       -0.20533769 -0.061188314 -0.05159284 0.07910506
000220 9d dd 2b bc 36 e4 7b 3e 48 5d 6a bd 4d c0 98 3e
       -0.010489848 0.24598774 -0.057217866 0.29834214
000230 89 3a 72 3c da 52 61 be 35 8a ad bd c6 17 0a 3f
       0.014784464 -0.22004262 -0.084736265 0.53942525
000240 c0 25 e8 3e 78 4e 7e 3e e6 3a 07 be 36 c6 88 be
       0.453413 0.24834621 -0.13206062 -0.26713723
000250 e1 16 6c 3d 6c df 06 bf 2e a2 6f 3d 27 78 af bd
       0.057639007 -0.52684665 0.058504276 -0.08567839
000260 5f 6c f8 3d a6 1e 4d 3e 2c 70 4c 3d db 69 87 be
       0.12130045 0.20031223 0.049911663 -0.2644795
000270 0e b9 28 3f c1 11 13 be fe 74 76 3d 5b fc 72 3e
       0.6590737 -0.14362241 0.060170166 0.23729078
000280 32 dc da bd 0e 11 4a 3d a5 c4 b5 3d 16 93 d5 be
       -0.1068653 0.04933267 0.088753976 -0.4171378
000290 23 78 8e 3e 73 49 3b be e6 77 58 be 12 9d 2b 3e
       0.27826032 -0.18289737 -0.21139488 0.16759136
0002a0 48 fc d5 3e 45 9e 55 3d 8b 0e 61 3e a6 bc 24 bd
       0.41794038 0.05215289 0.21978204 -0.04021897
0002b0 5b ef c8 3d 5c 00 5b be 42 db c1 be d9 20 52 be
       0.098112784 -0.21386856 -0.37862593 -0.20520343
0002c0 16 d8 cb 3d 83 0e 67 3c 93 60 e4 be 46 cc 19 3e
       0.099533245 0.014102581 -0.4460493 0.1501933
0002d0 8d 58 fc 3c 18 89 46 3d 49 36 44 bd 8b 37 9c 3e
       0.030803943 0.048470587 -0.047903333 0.30511126
0002e0 64 e4 50 3d 4b 50 2e 3e b1 d7 35 be 13 85 d2 3e
       0.05099906 0.17022817 -0.17758061 0.41117153
0002f0 29 a0 02 3e c6 4f a3 bd 73 5d 86 3e b6 bf a9 3c
       0.12756409 -0.079742 0.2624317 0.020721298
000300 2f eb de bc a2 b1 ae 3d fc f7 1a 3e 29 05 91 be
       -0.027211754 0.085299745 0.15133661 -0.2832425
000310 ed 6b 10 3e 62 4f 45 be b2 a5 b9 bb a1 b5 04 be
       0.1410367 -0.19268563 -0.0056655044 -0.12959911
000320 6c 27 45 3d 0f 6e e6 3e 09 80 d8 bd 2e 53 4d 3e
       0.0481333 0.45005843 -0.10571296 0.20051262
000330 78 87 49 3d a3 01 aa bd 96 8e 8b 3c 03 7e 8c be
       0.04920146 -0.083010934 0.017035764 -0.2743989
000340 b0 18 a1 3e c6 74 a5 bd f8 32 b8 be 90 5c 4f 3f
       0.31464148 -0.080789134 -0.35976386 0.81000614
000350 63 e2 f2 3c fd d5 51 3e 19 7d e2 bd 9e 82 2a 3e
       0.029648965 0.20491786 -0.11059017 0.16651389
000360 fd 7a 54 3e fa e3 08 3e b2 13 30 bb ea 4d b2 3e
       0.20750041 0.13368216 -0.0026867208 0.3482507
000370 7e 0b ff 3d 3f b0 30 ba b9 34 9f bd cf 90 30 3b
       0.12453364 -0.000674013 -0.07773728 0.0026941781
000380 97 38 3d 3e 3f 66 0d 3d d0 e8 40 3e d8 b4 69 be
       0.18478619 0.034521338 0.18838811 -0.22822893
000390 32 7e 89 bb cf aa 0e 3d d9 52 e3 3c 4f e3 19 bd
       -0.004195952 0.034830865 0.027749466 -0.037570294
0003a0 c0 61 2a 3e b9 48 d7 3d 9a ee c2 3e 1c a8 c0 bd
       0.16638851 0.105119176 0.38072664 -0.09407064
0003b0 6f 76 a8 3b a3 de 77 be 8e d6 07 3d c1 2e 31 be
       0.0051410715 -0.24206023 0.0331636 -0.17302991
0003c0 bf fb 6d be e2 f8 71 be 75 b3 2e 3e 46 24 8f 3e
       -0.23240565 -0.23630098 0.17060645 0.27957362
0003d0 18 b3 98 3e 55 cb a0 3e 43 f1 b1 bd 89 38 be 3e
       0.29824138 0.3140513 -0.08688595 0.37152508
0003e0 d0 af 3e 3e 30 1d 41 3e 63 50 ec bd f6 15 66 3d
       0.18621755 0.1885879 -0.1153877 0.056173287
0003f0 6e 98 22 be 4f 7f 58 3e 9b 0c 83 3e a9 9b 2f be
       -0.1587846 0.21142314 0.25595555 -0.17149223

rnn.bias_ih_l0 f4 [96]
000000 f3 97 9d 3d 58 9f 0c 3e 6f 7b 40 3e 63 f5 53 3e
       0.07694998 0.1373266 0.18797086 0.20699076
000010 22 e5 44 3e 07 d7 69 3e b3 02 4c 3e 88 75 a5 3e
       0.19228032 0.22835933 0.19922905 0.32316232
000020 80 ff 13 3e 35 72 b9 3d 5c c3 85 3e c1 97 ad 3c
       0.14452934 0.090549864 0.2612561 0.021190526
000030 b0 f8 29 bd 54 44 a5 3c c1 79 67 bd e4 02 d1 3d
       -0.041496933 0.020174183 -0.056512598 0.102056295
000040 79 1e 10 3e 86 24 15 3e 10 cc 1b 3e 92 f4 b1 3e
       0.14074124 0.14564714 0.15214562 0.34756905
000050 f3 64 3b 3e e7 01 e5 3d db 2e f1 bc d4 16 99 3d
       0.18300228 0.111820035 -0.029441288 0.07475057
000060 f8 ac 14 3e 25 65 58 bd 1e e2 60 3e ab 7e dc bd
       0.14519107 -0.052830834 0.21961257 -0.107663475
000070 01 b4 23 3e 30 65 77 3d c7 a2 6c 3e af 94 a6 3e
       0.15986635 0.060399234 0.2310897 0.32535312
000080 65 27 de be 6c be 68 be 45 13 28 be 96 fc d3 bc
       -0.4338943 -0.2272889 -0.164136 -0.025877278
000090 bb 38 ae be c9 06 80 be af fd 86 be bf d0 94 bd
       -0.34027657 -0.25005177 -0.2636542 -0.07266378
0000a0 46 ed 53 be ed cc a1 bd 71 b9 58 bd 11 de 0a be
       -0.20695981 -0.079004146 -0.052911226 -0.13561274
0000b0 4f f0 45 be 28 b8 26 be ed 1f 42 be 8e e8 9d 3e
       -0.19329952 -0.16281188 -0.18957491 0.30841488
0000c0 02 18 da bc d1 f7 a3 be d7 32 49 be dd ea 97 3e
       -0.026622776 -0.32025006 -0.196483 0.29671374
0000d0 e5 d4 1d be b0 27 9c be d1 97 94 3e e5 db ff be
       -0.15413244 -0.3049903 0.29022077 -0.49972454
0000e0 34 fd a3 bd c2 59 04 3e cb 9a 95 be f8 ee 3a 3e
       -0.08007279 0.12924865 -0.2921966 0.18255222
0000f0 02 e1 fe 3d b8 7f 95 be 81 df 50 3d 88 d8 80 be
       0.124452606 -0.29199004 0.0509944 -0.251652
000100 e8 5d 2d 3e 65 e6 b6 3d e0 c0 2f 3e 11 66 d5 bd
       0.16930354 0.08930663 0.1716342 -0.10419858
000110 ed 04 8e be 90 bd 12 be 57 0d c4 bd 1c db 84 3b
       -0.27738133 -0.14330125 -0.09572857 0.00405444
000120 7b 9a 8e 3d 28 fd ba bd 3c ac 5d 3e fa 9d 19 be
       0.069630586 -0.09130317 0.21647733 -0.1500167
000130 80 ae 41 3c 31 45 fe bd 07 ce 8e bd 32 89 a5 bd
       0.011821389 -0.12415541 -0.0697289 -0.080828086
000140 85 6e d5 3d ae c1 9b bc dc 19 31 be a0 4f bb 3d
       0.104214706 -0.019013252 -0.17295021 0.09146047
000150 75 8b bc 3d 59 61 34 bc 2e 99 25 be 64 49 bb 3c
       0.09206287 -0.011009538 -0.16171715 0.022862144
000160 c1 11 0e be 39 54 7f 3d bb 53 de ba 36 e5 0a 3e
       -0.1387396 0.06233618 -0.001696221 0.13564
000170 0b 97 9a bc a1 9a f0 3d 6b b9 0b 3e 61 e3 1a be
       -0.018870851 0.11748243 0.1364495 -0.151258

rnn.bias_hh_l0 f4 [96]
000000 64 c4 af 3d 7b f9 a6 3d 4e ba 01 3e 58 7d 03 3e
       0.085823804 0.081530534 0.12668726 0.12840784
000010 e1 19 c5 3d 1f 9a 4c 3d 90 2a 45 3e 43 09 3f 3e
       0.09624077 0.04995167 0.19254518 0.18655877
000020 49 22 d1 3c df aa c7 3d 01 aa 5a 3e c6 67 6b 3d
       0.025529044 0.09749388 0.21353914 0.057472013
000030 3d e3 b8 bd 8e 7d 91 3e 9b 3f 94 3c 03 39 eb b9
       -0.09027717 0.28416103 0.018096736 -0.0004486517
000040 02 23 2a 3d bc a1 04 3e 2e fd 77 3e 00 08 0f 3e
       0.041537292 0.12952322 0.24217674 0.13967896
000050 5b cd 21 bc e1 19 e1 3d 0a da b9 3d 7f b2 0f 3e
       -0.009875621 0.10991264 0.09074791 0.14032935
000060 7f 49 24 3e be 9e f0 3c d6 27 32 3e 09 0b 40 3d
       0.16043662 0.02937257 0.17398009 0.046885524
000070 99 9d 43 3e 87 8d 89 bc 90 15 f0 3c f6 d9 97 3e
       0.19103087 -0.016791118 0.029307157 0.29658478
000080 77 59 cc be db 25 01 bf 95 67 83 be 7b 2a 7a bc
       -0.39912006 -0.5044839 -0.25664964 -0.015268917
000090 ac 2c 2a be a6 f3 80 be 3b 70 2b be 08 0e 38 be
       -0.16618603 -0.2518589 -0.16742031 -0.17974102
0000a0 f1 d4 94 be 38 89 68 bd fb a4 10 bd 5a d3 99 bd
       -0.2906871 -0.056771487 -0.035313588 -0.07511015
0000b0 b1 9d b2 be 1c 29 a6 bd d6 42 e6 bc 27 8d 04 3e
       -0.34885934 -0.0811331 -0.028108042 0.1294447
0000c0 42 4f fe bc 8f bc a2 be 8b 51 4e be 40 fc f4 3d
       -0.031043652 -0.31784484 -0.20148294 0.11962175
0000d0 22 1c d1 be 5e 5d fe be 6a 76 0a 3e 18 46 9a be
       -0.40841776 -0.4968061 0.13521734 -0.30131602
0000e0 d7 80 35 bd 0f 42 e0 3d ee c4 32 bd 9b 6d 08 3e
       -0.044312324 0.109501 -0.043644838 0.13323061
0000f0 6d 48 aa 3e 8d d1 7a be 30 d6 98 3d 75 1b a9 bd
       0.3325838 -0.24494 0.07462728 -0.0825719
000100 dd 1e a2 3e 41 7d a8 3e 71 f9 64 be 6c 76 5e 3e
       0.31664172 0.3290806 -0.2236078 0.21724862
000110 26 c8 c8 3d e9 a0 80 be f5 f8 a7 be d6 71 91 3e
       0.098038 -0.25122765 -0.32807127 0.28407162
000120 26 c5 17 bd 14 59 dd 3c 1a fd 74 3d 57 39 11 be
       -0.03705325 0.027020015 0.05981169 -0.1418203
000130 73 19 60 3e 36 d9 45 3d 1e cc 65 3e e7 95 84 b9
       0.21884708 0.04830285 0.22441146 -0.00025288688
000140 29 b0 67 bd 1b 69 37 be f4 25 a0 bd 64 74 1d 3e
       -0.056564484 -0.17911188 -0.07819739 0.15376431
000150 0e 6c 98 3e 9f e6 51 3e 26 50 96 3d f0 61 71 3e
       0.2976994 0.20498131 0.07339506 0.23572516
000160 d7 fa 34 3c a9 46 97 3d 4e 29 51 3d 51 3d d0 3c
       0.011046133 0.07386524 0.05106478 0.025419863
000170 6f 68 d0 bd 7d 9b 91 bd 54 dd 7c 3e 15 e7 9a be
       -0.10176169 -0.07109735 0.24693805 -0.30254427

fc.weight f4 [88, 32]
000000 c2 c0 ae be 4b 22 a3 be 1d aa 92 be ae 58 19 3c
       -0.34131438 -0.318621 -0.2864541 0.009359522
000010 3f 37 5b be 17 29 89 3e 93 4b 73 3e 45 26 be be
       -0.21407793 0.26789162 0.23759298 -0.37138572
000020 09 d5 9b be 94 47 59 bd bd 68 00 bf 09 13 8b 3e
       -0.3043597 -0.053046778 -0.5015982 0.2716296
000030 f7 a4 ed bd 4f 76 f5 3e 2e ad 41 3e 9b 9b 8e 3e
       -0.1160373 0.47941825 0.18913719 0.27853093
000040 45 b0 0a be c5 42 6b 3e f7 c7 9b bb 7d 4b 80 be
       -0.13543804 0.2297469 -0.0047540623 -0.25057593
000050 9c 82 95 be 6a 16 cf bd 9f a9 0b 3f 20 2b 0a bf
       -0.2920121 -0.10111697 0.54555696 -0.53972054
000060 38 73 5a be 6f 70 3a bf 65 ce c0 3e 78 c3 bb be
       -0.21333015 -0.7282781 0.37657467 -0.36672568
000070 b7 89 37 3e b2 c3 d5 3e 57 43 e7 be 4d e4 8e 3e
       0.17923628 0.41750866 -0.45168564 0.27908555
000080 df 0e a2 be ba 90 35 be 31 0f 4b be 63 eb 85 bd
       -0.3165197 -0.1773099 -0.19830014 -0.06539037
000090 19 f2 b4 be ea f7 31 3e 55 c2 5d 3e dc b9 f5 be
       -0.35340956 0.17379728 0.21656163 -0.47993362
0000a0 c5 8e 1a be 36 71 33 bc 0a d6 ea be 27 fa 69 3e
       -0.15093525 -0.010952285 -0.45866424 0.22849332
0000b0 33 85 38 bd 86 17 cb 3e fa d5 0e 3e be 54 6a 3e
       -0.045048904 0.39666384 0.13948813 0.22883889
0000c0 c9 8d ba 3b f7 87 5a 3e 79 d3 52 3d 7e 29 8b be
       0.0056931716 0.21340929 0.051471207 -0.27180094
0000d0 3d c9 d2 be 57 70 02 3b a1 ae e7 3e 95 bf a8 be
       -0.41169158 0.0019903386 0.4525042 -0.32958665
0000e0 95 aa 4c be 6b 35 44 bf ee e8 8a 3e eb 36 c8 be
       -0.19986947 -0.7664401 0.27130836 -0.391044
0000f0 47 ca 96 3d af 4a d0 3e 5d 69 f6 be 04 5e 9c 3e
       0.073628 0.4068198 -0.4812726 0.30540478
000100 be 28 ad be 1e 26 4d be a5 40 21 be 43 42 26 bd
       -0.33820146 -0.20034072 -0.15747316 -0.040590536
000110 4e d8 5a be d5 c6 1f 3e 22 88 b0 3e f4 23 62 be
       -0.21371576 0.15603192 0.3447886 -0.22084028
000120 02 c6 47 be 69 49 3b 3b e8 84 72 be 56 b2 3b 3e
       -0.19509128 0.0028577691 -0.23683512 0.18329749
000130 32 0f 70 be dc 2d ee 3e e4 d6 a2 3d 1c 55 7d 3e
       -0.23443297 0.46519363 0.079511434 0.24739498
000140 b8 00 e8 bd 3b d3 67 3e f8 f9 69 bc 45 93 77 be
       -0.11328262 0.22639172 -0.014280789 -0.24177273
000150 e5 dd b4 be fe ad 03 be 4b d6 d9 3e 65 0b 0e bf
       -0.35325542 -0.12859342 0.42546305 -0.55486137
000160 a3 3b f8 bd 5a ac 36 bf 86 6d d9 3e e1 58 6e be
       -0.1212075 -0.7135674 0.42466372 -0.23276092
000170 d3 2b 04 3e da e0 8f 3e 60 9e bf be ff 53 a8 3e
       0.12907343 0.28101236 -0.37425518 0.32876584
000180 76 68 91 3e aa 06 73 3e ff 3d c5 be 2b 33 b4 3e
       0.2840001 0.23733011 -0.38523862 0.35195288
000190 a7 9a ba 3c 5d 2d 73 be da b8 80 be 29 b6 6a 3e
       0.022778822 -0.23747773 -0.2514103 0.22921051
0001a0 3d 84 b1 3e 08 b7 d0 be 77 22 3e 3e 61 aa 8a be
       0.34671202 -0.40764642 0.18567835 -0.27083114
0001b0 ba 86 c8 3e 3d fc 68 3f a5 80 fa 3e 69 9b 6c be
       0.39165288 0.91009885 0.48926273 -0.2310616
0001c0 b2 3a 07 bf 0b 49 9e be 8f 5f d9 be f6 ce fc 3d
       -0.52823937 -0.30915102 -0.42455718 0.12344162
0001d0 fc 37 87 3e 3c 72 d0 be c8 84 32 be 5f 47 2f 3e
       0.264099 -0.40712154 -0.17433465 0.1711707
0001e0 3a 9d b2 be c2 72 2d bf e3 53 8e be 47 bb 8b 3e
       -0.3488558 -0.6775323 -0.27798375 0.2729132
0001f0 62 b8 25 be e5 bf 85 be 1b ba 67 3e ed e5 8b be
       -0.16183618 -0.26122966 0.22629587 -0.27323857
000200 72 b9 fc be f0 4b db be 80 c5 8c 3e 22 a1 ba be
       -0.49360234 -0.42831373 0.2749443 -0.3645106
000210 42 fd cc 3d ba fe e6 3e 93 97 c7 3e f8 38 20 be
       0.100092426 0.45116216 0.3898283 -0.15646732
000220 89 64 e6 3d 60 ea 8c 3e 2d 46 7a bd 91 c6 cf 3e
       0.11249644 0.27522564 -0.06110208 0.40581182
000230 7c 77 b2 be 92 30 54 bd 1d d0 89 be ae 23 12 bc
       -0.34856784 -0.051804133 -0.2691659 -0.0089196395
000240 a8 61 86 3d 7f 04 ad 3e 00 92 a4 bd 5e 23 f5 bd
       0.06561595 0.33792493 -0.0803566 -0.119696364
000250 52 eb 00 3e e7 76 eb bd ef a2 5b 3d 05 7f 60 bc
       0.12589768 -0.11497288 0.053622182 -0.013702159
000260 30 7f 7b 3e aa 60 e6 3d 01 1b 1e bd 51 49 ea bd
       0.24560237 0.11248906 -0.03859997 -0.11439765
000270 68 19 08 bd ba 10 24 3e bd 58 8c be 16 9d c0 3e
       -0.033227354 0.16022006 -0.27411452 0.37619847
000280 06 a4 75 3e ce 46 5d 3e a7 20 01 bf a6 eb 81 3e
       0.23988351 0.21609041 -0.5044045 0.25375098
000290 56 79 16 be 76 01 77 be 91 be 59 be 76 3d 55 3e
       -0.14694723 -0.24121651 -0.21264102 0.20824227
0002a0 5d a0 be 3e 3f 64 6a bd 44 fc 32 3e 85 7c 88 be
       0.37231722 -0.05722451 0.17479044 -0.266575
0002b0 c9 7a 28 3e ff 73 80 be 23 6d 93 be 5e 34 ad bd
       0.16453089 -0.25088498 -0.28794202 -0.08457254
0002c0 cf c4 f4 3d 23 01 a1 be 0a 89 eb be 17 3a 4c 3d
       0.11951601 -0.3144618 -0.4600299 0.049860086
0002d0 ba 61 41 3e b5 51 d6 3e 65 fa 25 be 56 95 16 3e
       0.18884936 0.41859213 -0.16208799 0.14705405
0002e0 c1 9f a0 3c d8 dc 3d 3e b2 a6 4a 3b 0e 21 5b 3e
       0.019607427 0.18541276 0.0030922112 0.21399328
0002f0 6a c8 08 bd 3e b3 d6 bd e2 b3 4a 3e 5a 2b 86 be
       -0.033394255 -0.104834065 0.19795182 -0.2620495
000300 84 55 67 3e 67 e3 55 3e 0d 30 98 3d 6a b0 5e 3e
       0.22591215 0.20887528 0.0743104 0.21746984
000310 27 50 30 bc c1 db 5d be a4 59 58 be af e4 3d 3e
       -0.010761297 -0.2166586 -0.21127945 0.18544267
000320 bb d8 e2 3c c0 8d 38 be 37 6a 2d 3e 5f 16 7c be
       0.027691236 -0.18022823 0.16935049 -0.24617909
000330 5c 1b 24 bd 1f e8 45 be 7d 5e 59 3e 40 a3 46 be
       -0.040065154 -0.19326828 0.2122745 -0.19398212
000340 16 16 13 3e d7 ad 94 be bb 40 3f 3e 7c 74 bf 3d
       0.14363894 -0.2903888 0.18677036 0.093483895
000350 e0 2e b6 bd b2 f8 d8 be 5b d8 14 be 58 63 0d 3e
       -0.088956594 -0.4237724 -0.14535658 0.13807428
000360 e4 66 37 bd 3f fc 32 3e 57 92 ae be 2c 7c 11 3e
       -0.04477586 0.17479037 -0.34096023 0.14207524
000370 98 e0 5d bc 98 b3 50 be d5 81 2e 3e 73 03 73 be
       -0.013542317 -0.2038101 0.17041714 -0.23731785
000380 83 5a 85 3e a7 93 5b 3e b7 f2 00 bf b6 3f ba 3e
       0.26045617 0.21443044 -0.50370353 0.36376733
000390 79 da 37 bd 92 a8 6e be 29 6a 6b be cb a8 5a 3e
       -0.044886086 -0.23306492 -0.22989716 0.21353452
0003a0 ac ca c3 3e 29 cc a4 3d 70 c7 29 3e 0b 03 86 be
       0.38240564 0.08046753 0.16579986 -0.26174197
0003b0 72 47 99 3e 43 cb 78 be d8 43 91 be 7a 36 47 be
       0.2993732 -0.24296288 -0.28372073 -0.19454375
0003c0 cc cf 27 3e 97 1f 9c be 19 6a ea be b3 21 a0 3d
       0.16387862 -0.3049285 -0.4578407 0.078189276
0003d0 89 6d 0c 3e a8 95 ef 3e c8 92 3a be 15 f8 4c 3e
       0.1371366 0.46793866 -0.18220055 0.20016511
0003e0 77 0c 2e 3e 8f 0a 81 3e 44 eb 99 3e 9f 7e 6f 3c
       0.16996942 0.25203368 0.30062306 0.014617591
0003f0 2a 0f 21 be 5b aa 39 be 0d 65 3a 3e 10 cc 86 be
       -0.15728441 -0.18131392 0.1820261 -0.26327562

fc.bias f4 [88]
000000 29 5a 03 bf 4f 76 bc be f0 24 fe be c7 9f b0 3e
       -0.5130945 -0.36809012 -0.49637556 0.344969
000010 4e 64 38 3d 27 71 b9 3e fe 18 e9 3d 74 3b 99 3e
       0.045017533 0.3621914 0.1138172 0.29928172
000020 8a ed 4f 3e 97 db 33 bc 52 60 78 be 1d f8 de 3d
       0.20305458 -0.010977647 -0.24255493 0.108871676
000030 75 38 1d be da d7 69 bd f1 b6 3e 3e 75 10 c6 3e
       -0.15353568 -0.057090618 0.18624474 0.3868443
000040 b5 d5 dd bc 6b 0a dc 3d f4 7c d6 3e a4 6c 28 be
       -0.027079443 0.107441746 0.41892207 -0.16447693
000050 24 4a 11 be 25 ab c6 bc fa d0 ea bd a3 18 a4 3e
       -0.14188439 -0.02425153 -0.1146564 0.32050046
000060 9e 6f bc bd 70 25 b4 3e 4f 6c 61 be 58 74 9d 3e
       -0.09200977 0.35184813 -0.22013973 0.30752826
000070 09 07 21 be 08 8c be bd 24 48 a7 3d b6 fe 94 3e
       -0.1572534 -0.093040526 0.081680566 0.2910058
000080 09 bb da 3d 40 16 60 be b3 a9 92 be aa c1 ba be
       0.106802054 -0.21883488 -0.28645095 -0.3647588
000090 36 95 ba be 3f 97 0d be ed 3e 72 be ea f9 ee be
       -0.36441964 -0.13827227 -0.23656817 -0.46675044
0000a0 4f ef aa be d9 cf 8d be 8c b7 13 be a6 d4 79 bd
       -0.33385703 -0.27697638 -0.14425486 -0.060993813
0000b0 bc cf 95 be 2a d5 a9 be 37 c2 2c be 9d ac 71 be
       -0.2926005 -0.33170444 -0.16870962 -0.23601003
0000c0 4b 05 bc be dc ae c5 bc 93 eb 30 be d6 aa d5 be
       -0.36722788 -0.024131231 -0.17277364 -0.417319
0000d0 af 21 a5 be 6b fc 90 be fe ef c7 be da 14 80 be
       -0.3225226 -0.2831758 -0.39050287 -0.25015908
0000e0 8b ae 19 be 1e 17 96 be 24 de fd be e5 7d 8d be
       -0.15007989 -0.29314512 -0.49583542 -0.27635112
0000f0 91 ac 01 bf 78 d9 8a be 48 dc b0 be a7 59 dd be
       -0.5065394 -0.2711904 -0.3454306 -0.43232462
000100 11 62 b6 be 89 8d 20 be dc 62 d8 be 20 09 be be
       -0.35621694 -0.15678991 -0.42262924 -0.37116337
000110 12 48 8e be 21 2c b3 be d0 bd cc be 10 18 58 be
       -0.2778936 -0.34994605 -0.39988565 -0.21102929
000120 06 13 c5 be 98 82 aa be f2 9a fb be 1d b3 96 be
       -0.38491076 -0.3330276 -0.4914165 -0.29433528
000130 06 2f 9a be bf 32 13 be 89 1b 75 be ef b7 fd be
       -0.30114 -0.14374827 -0.23936285 -0.49554393
000140 2b 91 e7 be 3c ba 5a be b9 da d4 be fb b3 ec be
       -0.45227942 -0.21360105 -0.41573122 -0.46231064
000150 b3 9c 4e be 16 86 b9 be 6a 34 84 be 66 b2 65 be
       -0.20176964 -0.36235112 -0.2582124 -0.22431335
