model_storage/ch6/surname_classification/model.pth (torch, 98293 bytes, 9 tensors)

emb.weight f4 [80, 100]
000000 00 00 00 00 00 00 00 00 00 00 00 00 00 00 00 00
       0.0 0.0 0.0 0.0
000010 00 00 00 00 00 00 00 00 00 00 00 00 00 00 00 00
       0.0 0.0 0.0 0.0
000020 00 00 00 00 00 00 00 00 00 00 00 00 00 00 00 00
       0.0 0.0 0.0 0.0
000030 00 00 00 00 00 00 00 00 00 00 00 00 00 00 00 00
       0.0 0.0 0.0 0.0
000040 00 00 00 00 00 00 00 00 00 00 00 00 00 00 00 00
       0.0 0.0 0.0 0.0
000050 00 00 00 00 00 00 00 00 00 00 00 00 00 00 00 00
       0.0 0.0 0.0 0.0
000060 00 00 00 00 00 00 00 00 00 00 00 00 00 00 00 00
       0.0 0.0 0.0 0.0
000070 00 00 00 00 00 00 00 00 00 00 00 00 00 00 00 00
       0.0 0.0 0.0 0.0
000080 00 00 00 00 00 00 00 00 00 00 00 00 00 00 00 00
       0.0 0.0 0.0 0.0
000090 00 00 00 00 00 00 00 00 00 00 00 00 00 00 00 00
       0.0 0.0 0.0 0.0
0000a0 00 00 00 00 00 00 00 00 00 00 00 00 00 00 00 00
       0.0 0.0 0.0 0.0
0000b0 00 00 00 00 00 00 00 00 00 00 00 00 00 00 00 00
       0.0 0.0 0.0 0.0
0000c0 00 00 00 00 00 00 00 00 00 00 00 00 00 00 00 00
       0.0 0.0 0.0 0.0
0000d0 00 00 00 00 00 00 00 00 00 00 00 00 00 00 00 00
       0.0 0.0 0.0 0.0
0000e0 00 00 00 00 00 00 00 00 00 00 00 00 00 00 00 00
       0.0 0.0 0.0 0.0
0000f0 00 00 00 00 00 00 00 00 00 00 00 00 00 00 00 00
       0.0 0.0 0.0 0.0
000100 00 00 00 00 00 00 00 00 00 00 00 00 00 00 00 00
       0.0 0.0 0.0 0.0
000110 00 00 00 00 00 00 00 00 00 00 00 00 00 00 00 00
       0.0 0.0 0.0 0.0
000120 00 00 00 00 00 00 00 00 00 00 00 00 00 00 00 00
       0.0 0.0 0.0 0.0
000130 00 00 00 00 00 00 00 00 00 00 00 00 00 00 00 00
       0.0 0.0 0.0 0.0
000140 00 00 00 00 00 00 00 00 00 00 00 00 00 00 00 00
       0.0 0.0 0.0 0.0
000150 00 00 00 00 00 00 00 00 00 00 00 00 00 00 00 00
       0.0 0.0 0.0 0.0
000160 00 00 00 00 00 00 00 00 00 00 00 00 00 00 00 00
       0.0 0.0 0.0 0.0
000170 00 00 00 00 00 00 00 00 00 00 00 00 00 00 00 00
       0.0 0.0 0.0 0.0
000180 00 00 00 00 00 00 00 00 00 00 00 00 00 00 00 00
       0.0 0.0 0.0 0.0
000190 69 39 01 3d 43 ed 3d bf e0 77 98 be 03 9f 8c 3c
       0.03154889 -0.7419016 -0.29778957 0.017165666
0001a0 2f 7a 35 be bf a1 08 be 94 81 96 3e 2d 46 b1 3f
       -0.1772239 -0.13342951 0.29395735 1.3849541
0001b0 1c a1 f7 3d a4 ac 22 40 30 f5 23 bf 60 ac fc bf
       0.12091276 2.5417871 -0.64046 -1.9740105
0001c0 4d bd a8 be d7 65 02 3c b9 1d 6d 3f 1e 39 f1 bf
       -0.32956925 0.007958851 0.9262348 -1.8845556
0001d0 fb f7 2a 3e 8c d0 ea 3e 0e 13 e2 bf 31 03 16 3f
       0.1669616 0.45862234 -1.7662065 0.5859862
0001e0 cd 21 e0 3f d0 ba 8f 3e 90 36 9f 3e b0 5c 27 bf
       1.7510315 0.28072214 0.31096315 -0.65375805
0001f0 33 5a 28 bf ce 0b a3 3e b3 b1 0c bf a5 82 bb bf
       -0.65762633 0.31844944 -0.5495865 -1.4649245
000200 57 8d 03 c0 4b ea e9 3f ff d9 a6 3f b4 77 e6 be
       -2.0555017 1.8274626 1.3035277 -0.450132
000210 7a 6e ac 3f 09 72 d8 3f 68 dd fe bd c9 57 d7 bf
       1.3471215 1.6909801 -0.12444574 -1.6823665
000220 1d f9 d9 bc 1a a7 97 3d 98 9e 86 3f 69 8a 2d 3f
       -0.026608044 0.07404919 1.0517149 0.6778932
000230 da 01 9d 3e ae 4a 3f bf a4 55 3e 3f 88 3d 63 3f
       0.30665475 -0.7472333 0.7434943 0.88765764
000240 5c 65 12 40 2d 0d 76 3f e4 cc c3 bf 65 1b 95 be
       2.2874365 0.96113855 -1.5296903 -0.29122463
000250 af 5f e9 bd 16 99 a0 be 92 1a 21 bf 97 ba 91 3f
       -0.11395203 -0.31366795 -0.6293117 1.1385068
000260 21 c4 7d bf a6 11 2e 3e a8 c8 9c 3f fb 2a 70 be
       -0.99127394 0.1699892 1.2248735 -0.23453896
000270 09 51 87 bf 14 7e 27 bf 1f a2 cb 3f e0 11 33 bf
       -1.0571605 -0.65426755 1.590885 -0.6994915
000280 f1 63 65 bf 4e 8f 87 3d 1d 86 66 bd 99 d6 15 40
       -0.89605623 0.0661913 -0.056280244 2.341223
000290 ba 4c 2e c0 ee 79 02 3f 05 81 50 bf 04 f2 7b be
       -2.723433 0.509673 -0.8144687 -0.2460404
0002a0 67 bc 93 3b 17 09 03 40 a3 53 21 be 2a eb 5f be
       0.0045085433 2.0474298 -0.15754561 -0.21867052
0002b0 0c 0c ad bf 0e 9f 6a bd 27 4f ed bf 13 44 b1 bf
       -1.3519301 -0.057280593 -1.853978 -1.38489
0002c0 3a d8 b0 be ec cc 94 bf c5 f2 13 3e 9c 50 2a 3e
       -0.34539968 -1.1625037 0.14448078 0.16632313
0002d0 da 2d 40 3f b3 c5 69 3f 91 26 dd bf ee 1b a7 3f
       0.75069964 0.9131729 -1.7277395 1.3055398
0002e0 37 96 75 3f dd ac 87 3f bd 3e 21 3f 77 b1 a4 bf
       0.95932335 1.0599629 0.62986356 -1.2866658
0002f0 c4 fe 2f bf 94 d8 08 40 ea eb 02 3f 24 0b 9c 3f
       -0.68748116 2.1382189 0.51141226 1.21909
000300 49 90 43 3e 2f 5d af be 3b d3 e5 3f 58 1b b2 3f
       0.19098009 -0.3425078 1.7955087 1.3914595
000310 09 0d 8a 3f 78 6d 1d bf cd ee ea be 79 46 11 3f
       1.0785228 -0.6149516 -0.45885316 0.5674816
000320 02 73 e4 3c 14 0b df bf f8 1d a6 3f cb 59 ca 3e
       0.027886871 -1.7425256 1.2977896 0.39521632
000330 7f a9 91 bf a1 24 88 bf 02 c6 1f be 66 53 4c 3c
       -1.1379851 -1.0636178 -0.15602878 0.012471056
000340 2e 08 43 3e 04 8e 2c bf b1 c5 dc be 1d ca 04 bf
       0.19046089 -0.674042 -0.43119577 -0.518709
000350 72 23 45 3f 1e c0 0e 3f d9 d3 97 3f 23 37 3c 3f
       0.7700721 0.557619 1.1861526 0.7352163
000360 b5 72 ee 3e af 8b 86 3f d5 d8 a2 be 1c 84 4c bf
       0.4657189 1.0511378 -0.31806055 -0.7988908
000370 b0 aa 1f bf 40 a6 af 3e a0 cf 0a bf 6f c7 0c bf
       -0.62369823 0.34306526 -0.5422306 -0.5499181
000380 55 6c 14 bf ac 6c 85 be fa cf 04 be c6 38 92 be
       -0.579778 -0.26059473 -0.12969962 -0.2855894
000390 7c e9 86 bd 03 2a 2c 3f ae 8f 19 be 98 2d 1d bf
       -0.06587502 0.67251605 -0.14996216 -0.61397696
0003a0 e8 12 68 3f a8 08 ce bf 38 75 29 3f b9 1d f9 bf
       0.9065385 -1.6096392 0.66194487 -1.9462196
0003b0 1c b1 76 bf 53 fd 0b 3e 3a df f6 be cc c6 ea be
       -0.96364 0.13670854 -0.48217183 -0.45854795
0003c0 4d 32 b5 3f b4 2a 50 bd 2c e2 53 bf 9e fd 99 bf
       1.4155976 -0.050821975 -0.82766986 -1.2030523
0003d0 d6 2d fb 3e ab 6b 8d be 1e 5e e7 bc af a2 55 bf
       0.49058408 -0.27621207 -0.02824312 -0.8345136
0003e0 7a 41 4a be 56 4e 68 3e 9e a9 3e bf c7 22 b0 bf
       -0.1975154 0.22686133 -0.74477565 -1.3760613
0003f0 e8 74 9a 3f 4f 2f ee bf 8a 49 11 bf 22 e1 93 3f
       1.2066927 -1.8608187 -0.56752837 1.155308

rnn.rnn_cell.weight_ih f4 [64, 100]
000000 d7 3c 68 bd 79 d0 00 3d 63 a8 46 bd 2a d7 04 be
       -0.056698646 0.031448815 -0.04850043 -0.12972704
000010 09 b6 9e bd 7b bc 02 3e 66 2e a2 bb 66 94 25 3e
       -0.07749564 0.12767212 -0.004949379 0.16169891
000020 12 a8 bb bd c6 4b 92 bb c8 76 9c 3d b4 fd b5 3d
       -0.09162916 -0.0044645993 0.07639843 0.08886281
000030 48 91 67 bd 51 92 a3 bd 08 a1 cb bd 94 38 a3 bd
       -0.056535035 -0.07986892 -0.09942824 -0.07969776
000040 2c 11 36 3c 1a 2f c3 3d d7 42 29 3d 18 c0 fe bd
       0.0111124925 0.09530468 0.04132351 -0.12438983
000050 41 39 9a bd cc b7 d7 bd 62 a1 02 bd 13 d9 da bc
       -0.075304516 -0.10533103 -0.031892188 -0.026714837
000060 ce 4c c9 3d cb b9 84 bd 76 e1 23 3d 7b 4c c4 bd
       0.098291025 -0.0648075 0.04000994 -0.095849
000070 bd 8f 2c bd 54 58 38 3c 56 37 40 bd 5a b9 03 3e
       -0.042129267 0.011251528 -0.046927772 0.12863675
000080 74 a1 12 be 18 21 f8 3d 78 41 e7 bd c9 81 db 3d
       -0.14319402 0.12115687 -0.11291784 0.10718114
000090 e3 ce 00 3e ae 12 ac 3d 0a 27 08 3e cd a6 af 3d
       0.12578921 0.08402 0.13296142 0.085767366
0000a0 58 ea 0b be 39 4e fc bd b0 14 3a bd d2 d7 9e 3d
       -0.13663614 -0.12319607 -0.045429885 0.07756008
0000b0 7a b6 1b 3e c1 ea 58 3d e1 80 8e bd 66 76 17 3d
       0.15206328 0.052958254 -0.069581755 0.036978148
0000c0 94 6e 69 3d 57 5e 7a 3d 85 2c 84 bd 01 86 3b be
       0.05699022 0.061125126 -0.06453804 -0.18312837
0000d0 ca 47 78 3c d5 89 b0 3d 68 38 a8 bd 41 e9 1c be
       0.015153835 0.086200394 -0.08213884 -0.15323354
0000e0 52 8f 6d 3d ec cb 9b 3d 24 52 a6 bd d6 c2 1c 3d
       0.05799801 0.076072544 -0.08121136 0.038271748
0000f0 af 6c 12 be f9 2a c7 3d 8b d2 3a 3d 4c 0f b4 3c
       -0.14299272 0.09724993 0.045610946 0.02197995
000100 90 5e 8b bd c5 32 d7 3c 56 6e a3 bd d0 f7 6e bc
       -0.06805146 0.026269326 -0.07980029 -0.01458545
000110 e2 34 13 be de a2 d5 bd 86 50 49 3d 5e 02 5b bd
       -0.14375642 -0.10431455 0.04914906 -0.053469054
000120 c8 57 9c bd 56 71 84 bd a3 ce 4d 3c 3c bd 33 3e
       -0.076339304 -0.064669296 0.012561473 0.17552656
000130 49 f1 8e bd bc f4 f9 3d d7 3d 8b bd c6 13 e0 3c
       -0.06979615 0.122048825 -0.067989044 0.027353179
000140 42 47 05 3e d2 9e 08 3e 6b 70 0c be c0 b5 ee 3d
       0.13015464 0.13341835 -0.13714759 0.1165576
000150 b6 49 5e bc 7a 35 b9 3d 6d 12 bb bc b0 a4 56 3d
       -0.013567379 0.09043403 -0.022835935 0.052403152
000160 dc bd 25 bb f5 b4 ee 3c 21 7d 3d 3e 86 05 71 3b
       -0.0025290167 0.029139021 0.18504764 0.0036776974
000170 fb a0 db 3d 9e 1c f2 bd 9b fc 0d be 4f 92 0e be
       0.10724064 -0.118218645 -0.13865893 -0.13923
000180 1d 9e f9 3d f6 91 8f bd 8e ba a3 3d 1b 00 9f 3d
       0.12188361 -0.07010262 0.07994567 0.07763692
000190 fe 13 03 3d c7 93 f2 3c bd 76 3a 3d c5 93 89 3d
       0.032001488 0.029611481 0.045523394 0.06717638
0001a0 27 a5 27 be 4f 5a d9 bc 5f c5 3c 3c eb ca 57 b9
       -0.16371594 -0.02653232 0.011521666 -0.0002057959
0001b0 13 1b e2 bc 21 c1 33 bd 42 1b c9 3c 7b ce b3 3c
       -0.0276008 -0.043885354 0.02454913 0.021949043
0001c0 3a 7b d9 3d 4b 17 7a bd 51 b0 87 3d 7a 30 e1 bd
       0.10619207 -0.06105737 0.066254266 -0.10995574
0001d0 83 5b 3b 3d 89 e6 b2 bd d1 53 69 bd 0f 7b 2a bd
       0.04574157 -0.08735377 -0.0569647 -0.041621264
0001e0 54 a6 43 bd 9e d6 c8 bd 82 cd cc bc 18 01 30 3d
       -0.047766045 -0.0980656 -0.025000338 0.042969793
0001f0 61 e5 0e 3d 54 60 14 3e 42 fe 8a bd 0d 71 2e be
       0.03488672 0.14489871 -0.06786777 -0.17035313
000200 b2 8c a2 bd df e1 48 bd 79 be 12 3e 49 ff eb 3d
       -0.07936992 -0.049043532 0.14330472 0.11523301
000210 9c c4 60 bb 06 38 f4 bd bf e9 ba 3c 46 bf bd 3d
       -0.0034296876 -0.11924748 0.022816537 0.09264998
000220 6e 93 da 3d 82 70 9a bc cd d1 0a be c6 a8 a1 3d
       0.10672651 -0.018852476 -0.13556595 0.07893519
000230 84 b4 c6 3d ea 6c b7 bd 45 5f c6 bd cd 8f f8 ba
       0.097023994 -0.089563206 -0.0968614 -0.0018963754
000240 da 3b 24 be 4b 5d 3d bd c4 a9 ae bd 9f 08 d0 bd
       -0.16038457 -0.04623155 -0.08528474 -0.10157894
000250 ba 92 a4 3a 82 f8 08 3d d3 a7 c3 bd 59 2a 23 be
       0.0012555935 0.03344012 -0.09553494 -0.15934123
000260 84 22 4e 3c fd ec de bd d7 2c f7 3c ab 91 df 3d
       0.012581471 -0.10885046 0.030172748 0.10916456
000270 69 a5 fe 3d a3 37 46 bd dd 20 ac bd fb b6 3e 3c
       0.12433893 -0.048392903 -0.08404706 0.011640306
000280 0a 77 cf bd 8e a8 c1 3a 65 2c f2 bd 0f 09 ea 3c
       -0.10130127 0.0014774965 -0.11824874 0.028568773
000290 1d cc 88 bd d9 07 c6 3d 6a 46 06 ba ff 51 85 3d
       -0.066795565 0.096694656 -0.0005122187 0.0650978
0002a0 93 96 3e be 40 ed 67 bd 56 d7 3d 3c bd 3a b2 3d
       -0.18612127 -0.056622744 0.011586985 0.0870261
0002b0 ba 2c 7e 3d 7f dc 6e bc cf 85 86 bc 19 4b 60 3d
       0.062054373 -0.014578938 -0.016421227 0.05475912
0002c0 39 76 69 bb 77 22 97 bc 9c 01 5a bd 1e 29 80 bc
       -0.0035623445 -0.018449051 -0.05322419 -0.015644606
0002d0 4c 18 5e 3c 1c af f8 3d f8 9f bd 3d 35 bc 21 be
       0.0135555975 0.121427745 0.09259027 -0.15794452
0002e0 aa d2 aa bd e0 ea a3 bd 21 08 89 3d 56 e1 0c be
       -0.08340962 -0.08003783 0.066910036 -0.13757834
0002f0 d9 b6 f2 bd 74 1c 44 3d f3 10 83 bd 76 0c b1 bd
       -0.11851282 0.047878698 -0.06399717 -0.08644955
000300 33 9b 1f 3d 0a 9d ac bc d4 4a 55 bc 15 1a 4e 3d
       0.03896637 -0.021070976 -0.013018329 0.050317843
000310 e8 f0 13 3d ba 37 91 bd a7 eb 1a be e3 a2 74 3e
       0.036118418 -0.07090707 -0.15128957 0.23890261
000320 35 ee 91 3d e6 02 8d 3d 17 cc ac bc fc 91 86 bd
       0.071255125 0.068853185 -0.021093411 -0.06570813
000330 5b 86 89 3b f7 b3 61 3d e7 07 f8 3d 01 dd 8f bd
       0.0041969246 0.05510327 0.12110882 -0.07024575
000340 17 f3 20 bd 24 cb 4c bd bc 17 9f bd e5 89 b4 bd
       -0.03929433 -0.049998417 -0.07768199 -0.08815364
000350 e4 cf 6f 3d 3e f0 34 bd bf 87 55 3d c1 dd 30 bd
       0.05854787 -0.044174425 0.05213141 -0.04318023
000360 08 2d 9f 3d 1d 9a ed bd 99 32 90 bd 3b cf 4e bb
       0.07772261 -0.116016604 -0.07040901 -0.0031556624
000370 eb c5 85 bc 6e 8b 92 3d 71 0f dc 3c 1b a1 ee 3d
       -0.016329726 0.071555 0.026862832 0.11651822
000380 0e 6c 79 3d 89 02 00 3d 6c 28 43 bd ce b2 2d 3d
       0.060894065 0.031252418 -0.04764597 0.04240685
000390 d1 a5 e6 3c 90 a1 d3 bd 2d 93 86 3d 2e ca be bd
       0.02815524 -0.1033355 0.0657104 -0.093159065
0003a0 7b 5d b7 3c d6 55 6b bc 3c 47 87 bc 1b 27 97 3d
       0.022383442 -0.014363727 -0.01651346 0.07380506
0003b0 0a f9 dc bd 73 bc 93 3d 0a 1a aa 3d 24 0a 1b bc
       -0.10789688 0.07213678 0.08305748 -0.009462867
0003c0 48 96 d3 bd 4e 61 16 be c0 f9 b5 3d 93 59 cc 3c
       -0.10331398 -0.14685556 0.08885527 0.024945056
0003d0 11 ab d3 bd c8 98 7c bc 0a a2 4a 3c fe e1 b8 3b
       -0.10335363 -0.015417285 0.012367735 0.0056421747
0003e0 38 e2 e3 bd 1a 0e 39 3d 85 64 2d be 2a 51 9b 3d
       -0.11127132 0.045179464 -0.16932876 0.0758384
0003f0 1b 06 1f bd a3 53 9c 3b a6 c7 59 3d a5 96 91 bd
       -0.038824182 0.0047707125 0.053168915 -0.07108811

rnn.rnn_cell.weight_hh f4 [64, 64]
000000 39 a3 1a 3e 63 93 e2 3d 37 db 83 3d c8 4f 4f bd
       0.15101327 0.11063268 0.06438296 -0.050613195
000010 65 e2 63 be 86 29 b3 3b 6b 38 22 bc 7f 60 e1 3d
       -0.22254331 0.0054675965 -0.009901146 0.11004733
000020 19 78 b0 bd 60 2c 74 3e 99 cd 58 3d 71 61 25 be
       -0.08616657 0.23845053 0.05293045 -0.16150452
000030 d7 85 16 be 8b 0d 2b bc de ea 0f 3e fb 73 88 3e
       -0.14699493 -0.010440241 0.14054438 0.26650986
000040 16 4c a0 bc 36 88 ab 3d 89 13 0d 3e 12 bf f1 3b
       -0.01956753 0.083755895 0.13776983 0.0073775137
000050 1b 0d 51 3d b1 6f 4d 3e e1 49 05 be 10 75 c5 bd
       0.05103789 0.20062138 -0.13016464 -0.096414685
000060 e7 bd 15 3e 48 62 84 3d 91 80 17 be 20 c8 9a 3d
       0.14623223 0.06464058 -0.14795138 0.07557702
000070 ec b8 15 be 46 fa 44 3e 37 91 c2 bd e5 c8 69 3c
       -0.14621323 0.19236097 -0.09500354 0.014269088
000080 55 aa 24 bd 7e 09 58 3e 1c 3a 5d 3d b0 0e 1b be
       -0.040201504 0.21097371 0.054010496 -0.15142322
000090 41 3a 56 3c bd ac 6a 3e fe 16 bc 3d a9 ff 0c bd
       0.013075412 0.22917457 0.09184073 -0.034423504
0000a0 bd e6 62 bc e8 d3 30 be 7b 8f 1e be a8 cf e0 3d
       -0.013848958 -0.17268336 -0.15484421 0.10977107
0000b0 5a 11 e5 3d 3e 8f eb bb 07 b2 80 bd a9 e4 a7 bc
       0.1118495 -0.0071887067 -0.06283956 -0.020494776
0000c0 86 c3 56 be b3 3f f2 3c ab 2c 05 be bb 7f 18 3d
       -0.20973024 0.02957139 -0.1300532 0.03723119
0000d0 5b 09 40 be 9b 96 14 3e f9 a5 87 3d 34 1d 25 bd
       -0.18753569 0.14510576 0.06623454 -0.040311053
0000e0 71 b4 8b 3d 69 2f 65 3e 6d 24 56 3d 33 bd 21 3e
       0.06821526 0.22381367 0.052280832 0.1579483
0000f0 83 62 b3 bd 3b 56 43 3d 03 54 75 3d 91 e2 1a bd
       -0.08759024 0.047689658 0.059894573 -0.037813727
000100 d3 89 3b 3d 3a eb b6 bd 9e 33 6d 3e 74 3a d7 3d
       0.045785736 -0.08931585 0.23164222 0.10509196
000110 39 71 35 3d 9c 98 62 3c 7d 7a 4e 3e f8 df e9 3d
       0.04429743 0.01383033 0.20163913 0.11419672
000120 e5 77 4c 3e a1 02 9c bd 4c dd 02 be 49 bb 64 3d
       0.19967611 -0.07617689 -0.1277973 0.05584267
000130 0c 3e d4 3d 91 69 a4 bd ab a9 86 3e 2c 88 c3 bc
       0.10363397 -0.08027948 0.2630132 -0.023868643
000140 8f bb 3f 3e 24 9e 93 bd 2e ec 02 be bb 33 e2 bd
       0.18723892 -0.07207897 -0.12785408 -0.11045023
000150 8a 75 07 3e ce 27 36 be 1e 48 c2 bd 51 7b 4a be
       0.13228431 -0.17788622 -0.094864115 -0.19773604
000160 28 93 18 bd 3a 59 9d 3c f0 e9 00 be f8 0c 01 3e
       -0.037249714 0.019207586 -0.1258924 0.12602603
000170 ea 26 ca 3d 02 db bf bc 7b 96 b9 bc 2d 71 0f bd
       0.098707035 -0.02341986 -0.022654762 -0.035020042
000180 f0 be b6 3c 0f cf 68 bd ed 6f ac 3e 49 34 16 3e
       0.022307843 -0.05683809 0.33679143 0.14668383
000190 c3 d1 1a 3e 24 4d 1c 3d 7d d5 61 3d 91 61 c2 3d
       0.1511908 0.038159505 0.05513524 0.094912656
0001a0 b2 fe cc 3d af a3 27 bd 88 3c b8 3d 6e 4b 62 bd
       0.10009517 -0.040927585 0.089959204 -0.055247717
0001b0 6a 77 ee 3b 44 89 07 be 5d f0 de 3d 79 80 41 3e
       0.007277419 -0.13235956 0.108856894 0.18896665
0001c0 26 1a 64 3d 5e b3 a3 bd 3c a2 92 bc 85 ff ad bd
       0.055689 -0.07993196 -0.017899625 -0.08496002
0001d0 e9 74 91 bd f2 2a f4 3c 7e 35 1e be b8 32 e0 bd
       -0.07102377 0.029805634 -0.15450093 -0.10947174
0001e0 14 0e 46 be 40 4a 95 bd 7e 77 14 bc a7 5c 54 bc
       -0.19341308 -0.07289553 -0.009061692 -0.012961543
0001f0 6c 0d c8 3c 1c a9 62 be 7a a6 4a bd 87 22 29 3e
       0.024420463 -0.22134823 -0.04947517 0.16517077
000200 04 53 a5 3c 46 36 f3 bd 06 e5 da bc 4d 4e f5 3c
       0.020181186 -0.11875586 -0.026720535 0.029944563
000210 bb 0f 7f be 53 56 92 3b db 22 bc 3d 4d 82 8f bb
       -0.24908344 0.004465857 0.09186336 -0.0043795467
000220 0d 53 28 3d 23 ac 8f bc 96 4c 16 bc 5a c2 87 3e
       0.04109483 -0.017538136 -0.009173533 0.26515466
000230 35 1b 85 3d ab 91 61 bd 51 63 0d be 4b b2 c1 bd
       0.0649933 -0.05507056 -0.13807417 -0.09457835
000240 69 dd 2d bb 82 b3 8a be 3f 6c a4 3b a1 43 c8 3d
       -0.0026529676 -0.2709008 0.0050177868 0.09778524
000250 f3 36 85 bb ce 50 12 be 09 e3 90 3d 2d ed 9a 3d
       -0.0040653883 -0.14288637 0.070745535 0.07564769
000260 16 17 6b be fd 69 9c bd 36 9f 1f bc f2 ce 16 3e
       -0.22958025 -0.07637403 -0.009742549 0.14727381
000270 3a 4b 11 3e b4 0d 09 3d 19 01 0c 3e f9 8f 45 be
       0.14188853 0.033460334 0.13672294 -0.19293202
000280 ef ad 62 3b 8c 39 2c bd 10 ec 5d bd 9d ce 4e 3e
       0.0034588536 -0.04204707 -0.054180205 0.20196004
000290 f8 99 26 3e 27 a4 e8 3d d5 3c 19 3d cf ef 54 bd
       0.16269672 0.113594346 0.03741153 -0.05198651
0002a0 08 96 31 3e 99 cf fa bd b7 be 58 3d 62 9a b6 bd
       0.17342389 -0.12246627 0.052916255 -0.08916165
0002b0 4f aa a1 3d 0e 11 70 be e0 a6 65 be 9b b2 70 3d
       0.07893812 -0.23444006 -0.22426939 0.05876408
0002c0 01 87 dc 3d e1 0f 85 bd 63 23 4b bd c7 88 3e 3e
       0.107679375 -0.06497169 -0.049594294 0.18606864
0002d0 da d4 2a be 36 40 a0 3d 31 c8 83 bd eb 08 2c 3d
       -0.16682759 0.07824747 -0.06434668 0.042000692
0002e0 f4 eb 19 3e 95 be df bc 98 fd ca bd 95 09 9e bd
       0.15031415 -0.027312556 -0.099116504 -0.077166714
0002f0 c9 86 46 3d e7 fa 59 bd 54 aa 22 3d 01 5e bb bd
       0.048468385 -0.053217795 0.03971322 -0.09148789
000300 64 07 29 be ec 51 6d 3c ea ee 44 3e b3 2f 93 3d
       -0.16506726 0.014484864 0.19231763 0.07186832
000310 45 81 72 3e b3 48 08 3d b8 b3 a3 3e 8d 81 c1 bd
       0.23682125 0.033272456 0.31973052 -0.09448538
000320 51 c1 23 bd f9 33 41 3c f0 3f 06 be 6b 06 48 3d
       -0.039979283 0.011792176 -0.13110328 0.048834246
000330 68 49 af 3d 48 ac 31 3e b7 53 30 3e 4e 20 fd bc
       0.08558923 0.17350876 0.17219435 -0.030899193
000340 bc b8 1a 3e 34 97 a9 3d cc 1e d8 bd c6 51 97 be
       0.15109533 0.08280793 -0.10552749 -0.29554576
000350 82 c5 b2 bd 35 d6 a0 bd 5f 7d d7 bd e6 09 a0 bd
       -0.08729078 -0.07853357 -0.105219595 -0.07814388
000360 2d 47 87 be eb 28 38 3e 80 38 55 3e 4f c7 82 bc
       -0.2642149 0.17984359 0.20822334 -0.015964178
000370 c3 17 48 bc 14 b4 11 3d 10 d8 48 be 13 b4 bd 3d
       -0.0122126965 0.035572127 -0.19613671 0.09262862
000380 b7 47 03 be 23 1c e6 bd c9 f5 0f 3e 17 36 b0 3d
       -0.12820326 -0.112358354 0.14058603 0.08604067
000390 7d e4 68 3e 44 0e 98 bd 39 4b 69 3d 51 9e 92 3a
       0.22743411 -0.07424596 0.056956504 0.0011186098
0003a0 65 21 79 3c 2e 1a e6 bc a9 3e c0 3c d4 41 55 bc
       0.015205716 -0.028088655 0.023467379 -0.013016183
0003b0 cb e3 51 be f7 9a fc bc 67 db 26 bd ba 36 dc 3d
       -0.20497052 -0.030835612 -0.040736582 0.10752626
0003c0 af 50 c1 3d 6e 96 88 3d cf e6 8d bd 02 3d 6e 3e
       0.09439217 0.06669317 -0.06928789 0.2326546
0003d0 de e8 fa bd ac 03 4b 3e d7 69 46 3d 1d b2 95 3d
       -0.12251447 0.1982562 0.04844078 0.07309363
0003e0 3f a3 0a be fa 28 a1 3c 30 25 24 be 72 1d 38 3d
       -0.13538836 0.01967286 -0.16029811 0.044949956
0003f0 a5 5a 95 3e 36 cd a3 be c4 da 0f 3d 28 5a 24 3d
       0.2917072 -0.319925 0.03512074 0.040125042

rnn.rnn_cell.bias_ih f4 [64]
000000 40 bd 92 bd f7 83 d2 bd 12 e3 ce bd 5b b8 eb 3d
       -0.07165003 -0.102790765 -0.10101904 0.115097724
000010 1f e2 c7 bd 66 9f 84 bb 11 ce 03 3d 61 bf cd bd
       -0.09759926 -0.004047322 0.032178942 -0.10046268
000020 88 92 79 bd 77 5d c7 3d 13 e0 bf 3c b5 dd 31 3d
       -0.06093076 0.09734624 0.023422277 0.043424327
000030 11 65 94 3d 5a 52 36 3d ed 15 21 3d 3b 1f 9d 3c
       0.072458394 0.04451213 0.03932755 0.01917993
000040 66 9e 16 bd 34 3d da bd 69 f3 d4 bd 17 c1 54 bd
       -0.036772154 -0.10656205 -0.10397989 -0.051941957
000050 bc 68 54 bd 34 66 dc 3d 1e 35 21 bb 5f 0a 0e be
       -0.051857695 0.10761681 -0.002459831 -0.13871144
000060 f3 bb 54 3d 2e 8a ed bd e7 d9 6e 3d 91 fd c6 bd
       0.051937055 -0.11598621 0.058313277 -0.09716333
000070 a9 e0 e6 bd 4b ab f1 3c f1 02 42 be 4c a7 c5 bb
       -0.11273319 0.029500624 -0.18946435 -0.006031906
000080 a9 bc 5f 3c e5 d1 6d 3d fc 49 8f 3d 25 27 07 3d
       0.01365582 0.0580615 0.06996533 0.032996316
000090 42 1b 82 3d cb a8 f8 3d 9f 78 4c bd cd 70 0d bd
       0.06352855 0.1214157 -0.04991972 -0.034531403
0000a0 a6 0e 86 bd 23 a0 8f 3d 40 c3 9b 3d 63 54 5d 3d
       -0.06545763 0.070129655 0.076056 0.054035556
0000b0 ea 34 6b 3d 72 e1 90 3a 98 a7 9c bd c9 30 7d 3d
       0.05742351 0.0011053516 -0.076491535 0.061814103
0000c0 ad 93 79 bd ce d9 22 3d e8 fa e4 bd 1e 7a 49 3d
       -0.06093185 0.039758496 -0.11180669 0.049188726
0000d0 b0 85 d7 bd 4b 0b f0 bd af 9a d5 bd f0 44 f8 bc
       -0.10523546 -0.11720904 -0.10429894 -0.03030631
0000e0 43 6d 93 3d 1d 68 a6 3c 1f 5a 20 3d 4d 32 e3 bd
       0.071985744 0.020313317 0.039148446 -0.110935785
0000f0 a2 ec 9a bb 5e 6e 5f 3d 08 a5 a6 3b 71 d4 ea bc
       -0.004727916 0.054548614 0.005085591 -0.028665753

rnn.rnn_cell.bias_hh f4 [64]
000000 04 c5 e0 3c 72 f4 11 3d 60 d9 c0 bd 38 29 3b 3d
       0.027437694 0.03563351 -0.09416461 0.045693606
000010 c9 a6 96 3b a8 5c c6 3d 2c be 85 bc 53 23 0a 3c
       0.004597519 0.096856415 -0.016326033 0.0084312735
000020 e1 bc 6b bd 45 79 99 bd 29 3a 5d 3d 6b 61 5a bd
       -0.057553176 -0.074938335 0.054010544 -0.05331556
000030 a7 10 8b bd fc 18 59 bd 82 4d 83 bd 6e ca dd 3d
       -0.067902856 -0.053002343 -0.06411268 0.10829626
000040 2d 4d fb 3c 98 e1 18 3d f0 c9 18 3d 85 e9 39 3d
       0.030676449 0.037324518 0.037301958 0.045388717
000050 ab 67 d9 3d cf ff 59 3d 5a cf 62 bd 82 4b 58 3d
       0.10615476 0.053222474 -0.055373527 0.052806385
000060 6d 3d cd 3d ac ad dd bd 84 22 a7 bd e6 2b 17 3c
       0.10021482 -0.10824141 -0.0816088 0.009226775
000070 c3 b8 a1 3d 0e ee 04 3d f3 ee 42 3d 58 34 b9 bd
       0.078965686 0.03245359 0.04759116 -0.09043187
000080 3b 89 01 be bd 4f c5 3d ee 84 bf bd ea d6 a2 bd
       -0.12650006 0.096343495 -0.09351526 -0.07951148
000090 01 32 c5 bd 82 aa 15 3e 20 b5 d1 3d 71 3d 86 bd
       -0.09628678 0.14615825 0.10239625 -0.06554688
0000a0 14 68 f3 3d c5 89 fd bd 1e 64 97 bd 23 db 5e 3c
       0.11885086 -0.12379793 -0.07392143 0.013602051
0000b0 4a 08 ca 3d b4 9f c5 bd 31 e7 c8 bb fe 4d b8 bd
       0.09864862 -0.096496016 -0.006131076 -0.08999251
0000c0 15 96 21 3d 31 2a dd bd 9c 66 fc 3c 75 10 d7 bd
       0.03944977 -0.10799063 0.030810647 -0.10501186
0000d0 cc 99 a6 3d 33 f5 b1 3d cd a1 c0 3d 59 16 95 3b
       0.08134803 0.08689346 0.09405861 0.004549783
0000e0 35 b2 3b 3c f1 b5 45 bc 63 fe fb bd 63 ed f4 bd
       0.011456062 -0.012067304 -0.1230438 -0.119593404
0000f0 14 05 2d 3d 6c 85 fc 3d 18 a8 ce bb 9c 59 92 bd
       0.04224117 0.12330136 -0.0063066594 -0.07145998

fc1.weight f4 [64, 64]
000000 cf ba fe bd cb 4b 4a bd 9c 81 c8 3d 7d 0c e4 bd
       -0.12437975 -0.049388688 0.09790346 -0.111351945
000010 e2 8a dd 3d 2e 0f 13 be 10 e7 6b be 4b 97 0f be
       0.108175054 -0.1436126 -0.23037362 -0.14022557
000020 f5 62 f2 bd 9a 95 73 bd b1 57 08 be 24 f2 0c 3c
       -0.11835281 -0.059468843 -0.13314702 0.008602653
000030 1a 3c 04 3e b6 dc 45 be b4 a8 bc 3d b5 09 c5 bd
       0.12913552 -0.19322476 0.09211865 -0.09620992
000040 8c a9 d1 3d 75 ee ce 3b eb f4 b6 bd 05 03 b3 3c
       0.102374166 0.0063150474 -0.08933433 0.021852026
000050 16 d7 21 be c6 0f 1d bd b4 d2 65 bd 6a ef 92 3d
       -0.15804705 -0.03834512 -0.056109145 0.07174571
000060 fa 09 7a bd bc f0 75 3d b8 0e 52 bd 4b 39 83 bd
       -0.06104467 0.060044035 -0.05128357 -0.06407412
000070 a6 00 c7 3c 42 8a 1c 3d 3f 7c 0b 3e af 32 e1 bd
       0.024292301 0.03821779 0.13621615 -0.10995995
000080 ee 76 84 3d 71 5e 9e 3d 45 1f 55 bc fa fd 4e bc
       0.064679965 0.07732857 -0.0130079435 -0.012633795
000090 88 68 18 3e ee d3 bc bd a8 05 6c 3c 7e c3 e4 bd
       0.14883626 -0.0922011 0.014405645 -0.111701
0000a0 d0 bd 08 bd 94 3f 3a 3d 6f 2c 61 3d 4d 4f 04 be
       -0.033384144 0.04547079 0.054974016 -0.12920876
0000b0 c1 78 60 3d 0c 20 18 3e ec 5e 1a 3d 17 c2 fa bc
       0.05480266 0.14855975 0.03768818 -0.030610127
0000c0 42 e4 19 3e 3d e2 bf 3b 38 2c b0 bc fc 19 84 bd
       0.1502848 0.005855827 -0.02150546 -0.064502686
0000d0 f8 03 cc bd 06 d0 0e 3d 05 5e 00 bc 92 5a be bb
       -0.099616945 0.034866355 -0.007834916 -0.0058091367
0000e0 9a 6b 5a bc cf 81 78 3e 2c 4a 55 bd 77 d3 2a 3e
       -0.013331318 0.24268268 -0.05207269 0.1668223
0000f0 01 70 b4 3c fa fe 9c bd 3d 3e c1 bd 62 54 cf 3d
       0.022026064 -0.076658204 -0.09435699 0.101235166
000100 b6 81 44 bd ae 0b b6 3d c6 68 93 bc 79 75 9b 3d
       -0.047975264 0.088889465 -0.017994296 0.075907655
000110 e1 3e dd 3c 58 6f 33 bd 42 8a ac 3d dc 5a 31 bd
       0.027007522 -0.043807358 0.08424808 -0.04329954
000120 0c 00 ef bc ac 41 09 be 1b 18 eb 3d 82 d7 78 bd
       -0.029174827 -0.13403958 0.11479207 -0.0607524
000130 45 10 83 bd c3 1c 4a 3e c0 6f be 3c 4a 33 9d 3d
       -0.063995875 0.19737534 0.023246646 0.07675798
000140 23 60 ca 3d 68 a4 3c 3d 30 91 33 3e 1e a3 96 bd
       0.09881618 0.046055228 0.17535853 -0.07355331
000150 f1 2c b2 3b ba ba f5 3d b4 c0 d5 bb 7c cb 73 3d
       0.0054374863 0.11998506 -0.006523216 0.05952023
000160 58 a2 7e 3e 27 9f 4f bc 09 0f 8e ba 56 74 8d bd
       0.24866617 -0.012672222 -0.0010838221 -0.06906955
000170 78 c8 88 3d 80 82 ba 3d 3f 8b 5d 3d dd 5e bf 3d
       0.066788614 0.09106922 0.054087874 0.093442656
000180 80 05 75 bd 74 c1 27 3d c9 41 31 3d a3 98 23 be
       -0.0598197 0.040955976 0.04327563 -0.15976195
000190 21 02 58 3d 27 11 a8 3d 1f 69 be bc f8 29 ff bd
       0.052736405 0.082063965 -0.023243485 -0.12459177
0001a0 3e 3a 9b bd e4 56 53 bd 67 fc be 3c 22 03 08 3e
       -0.07579468 -0.051596537 0.023313714 0.13282445
0001b0 30 f5 ec bd be 52 81 3d 66 5b ce 3d 99 55 8e 3d
       -0.11570203 0.0631461 0.100760266 0.0694992
0001c0 f2 9e 24 be bf 2b aa 3d 64 68 37 3d 54 b9 de 3d
       -0.16076258 0.08309125 0.04477729 0.10875192
0001d0 62 4a 23 3d 64 fa a0 3c 3b dd 3b bd 50 ef ad 3d
       0.03986586 0.019650646 -0.04586528 0.08492911
0001e0 9e 36 0e be 12 02 c7 bd b6 e5 44 bd b5 8c 33 3d
       -0.13888022 -0.09717192 -0.048070632 0.04383536
0001f0 31 eb 03 be 87 eb e7 bd f5 14 05 bd c4 d6 89 bd
       -0.12882687 -0.1132422 -0.03249069 -0.067304164
000200 55 63 30 bd 0f a3 c1 3c 5b d9 04 3d ad b4 41 bd
       -0.04306348 0.023637323 0.03243385 -0.047291446
000210 b1 48 17 3c d2 1d d3 bd 02 18 a4 bd 94 a7 2d 3e
       0.00923364 -0.10308422 -0.080123916 0.16958457
000220 bf e3 4b 3d 47 fc 01 3e d2 b8 4d 3e f9 0a fb bc
       0.049777742 0.12693892 0.20090035 -0.03064488
000230 19 13 30 bd 7c 93 bc bd 4a 26 ba 3d 18 2a aa 3c
       -0.042986963 -0.09207818 0.09089334 0.020772025
000240 cc b1 08 be ec 7b b5 3d 28 f3 a6 bd 03 a2 8f bd
       -0.13349074 0.08861527 -0.08151847 -0.07013323
000250 da 08 c0 bd cc 1f 05 be 4f 4f 0c 3e 95 92 db 3d
       -0.09376688 -0.13000411 0.13702129 0.10721318
000260 60 fb 66 bc 6a 4f 17 3d b4 0e 41 3e c8 f8 d2 bc
       -0.014098018 0.03694097 0.18853265 -0.025753394
000270 53 f3 ba bd b8 4b 24 bd c0 8a 64 3d e3 b5 75 bc
       -0.09128442 -0.040111274 0.055796385 -0.014996978
000280 55 af 0d be 43 f4 92 bd b9 fa 3a 3e bd af 5a 3d
       -0.13836415 -0.071754955 0.18259706 0.053390253
000290 ab 31 a4 bd 62 92 f6 3d 93 d0 5c 3d 2f 18 54 bd
       -0.08017286 0.12039639 0.05390985 -0.051780876
0002a0 d6 b0 71 be db 9b 0d 3e c9 8b 0b be b6 72 20 3e
       -0.23602614 0.13828985 -0.13627543 0.15668759
0002b0 97 f7 d4 bd fd 1b 04 3e b6 29 38 bc af cd e1 bc
       -0.103987865 0.12901302 -0.011240413 -0.027563898
0002c0 13 2e 93 be 52 f9 14 3c c1 af 9e bd 42 b3 35 bd
       -0.2874609 0.009092646 -0.07748366 -0.044360407
0002d0 0c 97 ac 3d 7c 93 5c be 33 d0 20 3e 2c 82 d6 bd
       0.084272474 -0.21540636 0.15704422 -0.10474047
0002e0 74 48 fc bd 74 ff 1b 3e 3f e3 08 3e 41 da cf bd
       -0.12318507 0.15234166 0.13367938 -0.101490505
0002f0 16 42 38 be c5 ce 9b bb 57 e9 fd 3d bb 73 fe bd
       -0.1799396 -0.0047548735 0.12398022 -0.124244176
000300 5a 37 94 3d a1 69 d8 bc 39 e9 44 3d 97 73 99 3d
       0.0723712 -0.026417555 0.04807398 0.0749275
000310 c1 55 ae 3b b1 3e d3 3d c4 21 fc 3b e9 4a 1a 3d
       0.0053202813 0.10314692 0.007694455 0.037669096
000320 7a b6 8d bd 8b 10 54 be dd 05 56 3e b1 b5 c4 bd
       -0.0691957 -0.20709436 0.20900674 -0.096049674
000330 03 97 3f bd 85 42 34 bd f3 d4 ad bd 11 71 7e bd
       -0.046774875 -0.04400875 -0.084878825 -0.062119547
000340 64 31 64 be f8 4c 25 be 31 61 6d bd d4 41 23 3e
       -0.22284466 -0.16142642 -0.057954017 0.1594308
000350 e5 34 0b bd 9d 89 8b bc f4 28 b3 bc 6f c8 79 3d
       -0.03398599 -0.017033393 -0.021870114 0.060982164
000360 8c a4 9c 3d 6a 18 1a be cd 28 0b 3e 48 3a fe 3c
       0.07648572 -0.15048376 0.13589783 0.03103365
000370 8b d4 b6 3d 1f cd 93 3d 4d 18 a4 bb ed d9 d4 3d
       0.08927258 0.07216858 -0.0050077797 0.103931285
000380 61 15 ce bb 12 1e 5f bc 33 f1 45 bd a1 72 ce 3d
       -0.0062891697 -0.013618009 -0.04832573 0.100804575
000390 0a a2 35 3e c4 fd bf 3c c1 19 de bc e1 a9 07 be
       0.17737594 0.023436435 -0.02711189 -0.13248397
0003a0 a1 56 99 3d 26 74 44 3d 40 6d aa 3d 5c 9d 6c bc
       0.07487226 0.04796233 0.08321619 -0.014441814
0003b0 16 6d 2d be 40 34 03 3d f7 d4 3e 3d 9c 87 52 3d
       -0.16936144 0.03203225 0.046589818 0.05139886
0003c0 48 7e e7 bc 63 20 7f 3e c2 e6 83 bd d1 65 fc 3d
       -0.028258458 0.24914698 -0.06440498 0.123241074
0003d0 2a 72 8b bd a1 03 ce 3d d7 45 f2 bb 4b 24 8e 3c
       -0.068088844 0.10059286 -0.0073935795 0.01735129
0003e0 ea 95 6a bd 7d 64 96 bd 22 b3 79 be 43 2a 8e bd
       -0.057271875 -0.07343385 -0.2438474 -0.069416545
0003f0 d9 4b b9 bd 2f 9f 7f be a0 20 b8 bd 71 a3 7b 3d
       -0.0904767 -0.24963067 -0.08990598 0.061435167

fc1.bias f4 [64]
000000 9f 4a c7 3c 75 1e d0 3b 95 51 43 bd 34 17 9e bd
       0.024327574 0.006351287 -0.047685225 -0.077192694
000010 d8 53 24 bc 3b 0e a2 3d bf a3 a7 3d 07 e0 b1 3d
       -0.0100297555 0.079128705 0.08185529 0.08685308
000020 1d cb 4a 3d a1 cf 9d 3d 38 ad 0b be 19 d0 d1 3c
       0.04951011 0.07705618 -0.13640296 0.025611924
000030 1e bd 4f 3c 6c d9 36 3e 89 aa ea 3d dc ae 4f 3e
       0.012679366 0.17856377 0.11458308 0.20281547
000040 b5 90 93 3c c0 5b 77 bc f8 65 3b bc 15 36 6b 3c
       0.018013338 -0.0150975585 -0.011437885 0.014356156
000050 c5 96 35 3e f0 e5 d9 3d 76 64 26 3c 93 88 dd bc
       0.17733295 0.1063956 0.010155788 -0.027042663
000060 5c 27 7a 3d e1 04 9c bd 87 59 1a 3b bf dd fc 3d
       0.061072692 -0.07618118 0.0023551898 0.12346982
000070 1b 80 ca 3d 38 5c 7a bc f4 9c 02 3e 19 88 45 3e
       0.098877154 -0.015280776 0.12755185 0.19290198
000080 27 a7 ef 3d 31 28 42 3d 45 b3 d4 3d 41 d0 d2 3d
       0.11701804 0.04740161 0.103857554 0.102936275
000090 25 27 bd bb f4 18 f5 bd b0 e2 67 3d 46 ed ee 3d
       -0.0057724887 -0.1196765 0.05661267 0.1166635
0000a0 12 4b 9b 3d 43 7a a9 bd 65 b3 b2 3c ce ae e7 3c
       0.07582678 -0.08275273 0.021814058 0.028281596
0000b0 18 d8 19 3c 23 bd 89 3d da b8 08 bb 4e bd d5 3d
       0.0093899 0.06725528 -0.0020862133 0.10436498
0000c0 e6 20 71 3d 0f ff e7 3b 5a 26 cd 3d 24 eb 6d 3c
       0.058869265 0.007079966 0.100170806 0.014521394
0000d0 a2 cc d3 ba 67 df 0d bd f8 92 88 3d 72 dc 64 bd
       -0.0016159008 -0.03463688 0.06668657 -0.055874296
0000e0 7a 52 92 bd 15 f0 e9 3d 0c 5b 22 bc f6 53 fc 3c
       -0.071446374 0.11422745 -0.009909403 0.030801754
0000f0 73 48 8a bd fd c7 36 3e 69 6b 8d bd 76 06 d9 3b
       -0.067521 0.17849727 -0.069052525 0.0066230847

fc2.weight f4 [18, 64]
000000 35 81 0a be 73 ad 37 3e 0f 10 ca 3d 77 d1 28 3e
       -0.13525851 0.1793726 0.09866344 0.16486154
000010 54 b5 a7 be 83 80 dc 3d 5c 5e 41 be 8a cc a6 be
       -0.3275553 0.10766699 -0.18883651 -0.32577926
000020 95 62 c0 3c e7 27 ef 3d 28 ea 01 be af 84 09 3e
       0.023484508 0.11677533 -0.1268698 0.13429521
000030 c4 92 54 bb ec 95 bb bc 85 ac 32 bb d2 47 cb 3d
       -0.0032436112 -0.022898637 -0.0027263474 0.09925808
000040 d3 cd 89 3d 13 8c 81 3d 21 1b 09 be 96 80 6c be
       0.06728711 0.06325545 -0.13389255 -0.23095927
000050 68 9a 13 bd f7 fb 86 3d d4 5a 1c 3d c6 a7 b6 be
       -0.036035925 0.06591027 0.038172558 -0.35674876
000060 27 f8 ea 3d ca 19 d0 3d a6 d0 15 3e 3c ef e9 bd
       0.114731126 0.10161169 0.14630374 -0.114225835
000070 2f e2 9a be 1c fb a1 3d 8b 8d 90 bd 12 b2 83 3d
       -0.3025069 0.079092234 -0.07058247 0.064304486
000080 7e d3 1e 3e 0a 42 a1 3d 40 38 14 3e 1c cc 1c 3e
       0.15510365 0.07873924 0.14474583 0.15312237
000090 27 2b 2a bd 1d cb e0 3d 44 72 06 3e ae 9c 00 be
       -0.04154506 0.10976241 0.13129526 -0.12559769
0000a0 7f e6 9a 3d 45 5a f0 bd 01 b5 91 bd 28 4b 25 3d
       0.07563495 -0.117359675 -0.07114602 0.040354878
0000b0 d1 07 11 3e e4 00 c1 bd a2 9d 5e be 6d 09 c0 3d
       0.14163138 -0.09423998 -0.2173982 0.09376798
0000c0 6d 9b 2b 3d f4 ac 5b be 6b f6 ab be 58 67 32 bc
       0.041896272 -0.21452695 -0.3358644 -0.010888897
0000d0 eb fe 59 be 7f 28 09 bb 0b d9 66 bd 62 ff 12 be
       -0.2128865 -0.0020928679 -0.056359332 -0.14355233
0000e0 44 89 85 3e f3 dc f4 3d 6a 89 a0 bd 94 ac 4e be
       0.26081288 0.11956205 -0.0783871 -0.20183021
0000f0 59 41 e5 bd 3c 15 71 bd a1 77 ed 3d 87 b1 56 be
       -0.11194105 -0.05885814 0.11595083 -0.20966159
000100 f6 ef d6 3d 05 8e 10 be 73 4e 5e be f6 94 08 3e
       0.10494988 -0.14116676 -0.21709614 0.13338074
000110 38 de 13 be f7 77 dd bc 2a 8d 5f be 07 d7 c0 3d
       -0.14440238 -0.027034743 -0.21831194 0.09416013
000120 7e 6c 9f be d1 de 1b be 02 53 19 3e e5 e3 c9 bd
       -0.3113746 -0.15221716 0.14973071 -0.098579206
000130 fb e5 65 be 01 8a 94 be 5b 50 3c bd d2 3d 2b be
       -0.22451012 -0.2901154 -0.04597507 -0.16722801
000140 b7 ab 08 be 79 ce 6e be d5 2f 7c be dd 28 c9 be
       -0.13346754 -0.2332095 -0.24627621 -0.3928899
000150 38 bf 0d 3d 1b 98 26 be 60 13 bb 3d 5b f9 d8 bd
       0.03460619 -0.16268961 0.09134555 -0.10594436
000160 8e de 0c be 0c fa 68 be 88 f0 93 be 75 6a 8c 3d
       -0.13756773 -0.22751635 -0.28894448 0.068562426
000170 4b 35 03 be eb 4f a8 3d c0 a9 66 be 4f 07 89 be
       -0.12813298 0.08218368 -0.22525692 -0.2676339
000180 07 35 bf bd 12 4a cd 3d 14 73 d1 3d 2c ef a7 bd
       -0.09336286 0.100238934 0.102270275 -0.08199915
000190 68 4a 88 3d 5e 70 da bd 91 3b 3e be 51 7b a2 bc
       0.06654817 -0.106659636 -0.1857741 -0.019834192
0001a0 12 38 29 bc 05 6c a5 3d 42 88 22 3d d8 75 4c 3d
       -0.01032831 0.08077244 0.039680727 0.049917072
0001b0 dd 8e 1f 3d 45 cc 9e 3d 9a b9 d8 3d 01 31 53 3b
       0.038954604 0.07753805 0.10582276 0.0032225254
0001c0 9f 9b 5b be ee ae 4f bd 0c db 28 3d 4a 60 e4 3d
       -0.21446083 -0.050703935 0.041224524 0.11151178
0001d0 14 1c bb be 72 a5 31 bd 85 70 09 3e 1d 8a b3 be
       -0.3654486 -0.04337067 0.13421829 -0.3506631
0001e0 0b 03 41 3d 65 88 0c bd 62 c3 94 be 1b c1 01 bd
       0.047122043 -0.034309763 -0.29055315 -0.0316783
0001f0 e1 9a d7 bd 4a 9f da be 13 ce 11 be 5e cc fd bd
       -0.10527588 -0.42699653 -0.14238767 -0.123924956
000200 9a f9 86 be a4 a7 e7 bc a3 2d 52 3e 57 92 5d bd
       -0.26362306 -0.02827818 0.20525222 -0.05409464
000210 6c a5 0e 3d 10 b0 4a 3d 7e 3f da 3c f2 23 a6 bd
       0.034825727 0.049484313 0.026641604 -0.08112325
000220 30 e9 91 3d 08 75 96 bd 44 20 99 bd 5b 62 d5 3c
       0.07124555 -0.07346541 -0.07476857 0.026047876
000230 6f 8c b0 bd f9 f4 2e 3c 94 ca 0c 3b 01 e2 19 3e
       -0.086205356 0.010678523 0.002148305 0.1502762
000240 ee e3 e6 3d 9a d7 b4 3d 3c b2 16 3d 34 72 d1 3c
       0.11273943 0.08830185 0.03679107 0.025567152
000250 d9 60 9e 3d b6 59 0f 3c 75 c9 d8 3c 6a 48 a6 3d
       0.07733316 0.008749416 0.02646325 0.08119281
000260 53 c6 d1 3c 89 d3 c7 3d f2 42 a2 3c e3 a7 3f be
       0.025607264 0.09757144 0.019807313 -0.18716387
000270 78 71 c1 3d af 6d d9 bd a5 de b4 bd 1e 20 02 3d
       0.094454706 -0.106166236 -0.088315286 0.03176891
000280 d1 cb 36 3d 93 58 a8 bd 5d a7 6a bd ac 2f 04 3d
       0.04462797 -0.08220019 -0.057288516 0.032272026
000290 45 b0 6a bd 20 6b d1 bd d1 90 15 3e 71 25 95 3d
       -0.05729701 -0.102255106 0.14606024 0.07282532
0002a0 03 e1 c2 3d 85 16 3e 3b 99 68 b8 bd 00 35 ab bd
       0.09515574 0.0029005122 -0.090043254 -0.08359718
0002b0 b7 54 73 bd 66 8e 11 be a8 b0 7d be c5 c7 4c 3d
       -0.059406962 -0.14214477 -0.2477442 0.049995203
0002c0 66 e8 15 3e 4d fd b0 3d 89 70 fc bd 4c 30 97 bc
       0.14639434 0.08642063 -0.12326152 -0.018455647
0002d0 31 69 3d 3d ef 88 a5 bc e9 b5 d6 3c 61 98 45 bd
       0.046242896 -0.020206897 0.026209788 -0.048241023
0002e0 aa 35 e0 3a 30 a2 c0 b9 89 38 b7 3d 66 45 48 3c
       0.0017105837 -0.00036741933 0.0894633 0.012223577
0002f0 81 fe 30 bd aa 67 51 3d 26 74 33 bd 3a d1 d3 3d
       -0.043211464 0.051124252 -0.04381194 0.10342641
000300 63 76 b8 bb 71 67 1b be 18 63 6f bd da ef 2b bd
       -0.005629347 -0.15176179 -0.058444113 -0.041976787
000310 35 80 0f be a9 db 60 3d b7 10 7e 3d 86 f9 2e bd
       -0.14013751 0.054896984 0.06202766 -0.042718433
000320 9d 89 b2 3d 7f c5 cd bc 52 38 ae bc be ac 1f be
       0.08717654 -0.025118588 -0.02126709 -0.1559324
000330 27 51 82 3d c7 7e 9d 3d 77 44 4d be dc 2d 97 3d
       0.06363135 0.076901965 -0.20045649 0.07381794
000340 ef 01 bf 3d b9 d9 86 bc cc 96 b9 3d 06 94 dd 3d
       0.09326541 -0.01646124 0.09061965 0.10819249
000350 58 7e 9a bd 0d ca 20 be 80 ea 48 be c0 d2 99 3d
       -0.075436294 -0.15702076 -0.19620705 0.075109005
000360 6c 16 1c be dd 4e c4 bd 15 2c 93 3c 10 42 a5 be
       -0.15242928 -0.095853545 0.017965356 -0.32276964
000370 1e 63 0c 3e 95 29 54 bc 2a 65 a2 bd 32 cb ba bc
       0.13709685 -0.012949367 -0.07929452 -0.02280197
000380 93 97 41 bc a3 58 c7 bd f0 9b 8a bd 49 a8 57 bd
       -0.011815923 -0.09733703 -0.06768024 -0.052650724
000390 ca 35 39 bd fa 03 22 be 9b 29 af bd fd 2a 05 3e
       -0.045217313 -0.1582183 -0.085528575 0.1300468
0003a0 a1 60 db 3d d0 0c bd bd 9b 6a c7 bd 88 8e 0e bd
       0.1071179 -0.092309594 -0.0973713 -0.034803897
0003b0 61 f5 05 bc c0 44 9d bd 7f ff 17 be 5b 7b 9e 3d
       -0.008176179 -0.07679129 -0.14843558 0.07738372
0003c0 ad 28 6a bd 70 86 77 3d 61 df 9a 3c ff 45 63 3d
       -0.057167698 0.060430944 0.018905343 0.055486675
0003d0 69 c0 ce 3d 4f cf 94 be d0 3b cf 3d d8 d7 3a bd
       0.10095293 -0.29064414 0.1011883 -0.045616
0003e0 f1 89 9c bd fd 1c a4 bd 4b 1e dc bc f5 53 68 3d
       -0.07643498 -0.080133416 -0.026869914 0.056720693
0003f0 d6 37 9c 3d de 68 80 3d ba ee b8 bd a3 01 81 3d
       0.07627837 0.06270002 -0.090299085 0.0629914

fc2.bias f4 [18]
000000 46 ea 3b 3d 02 bb 0c bd 6b a2 f0 bd 9c b2 97 3c
       0.045877717 -0.034358032 -0.11749729 0.018517785
000010 e7 0a 24 bd 9f db 35 3d 95 8f ad bd 2d 4e bf 3d
       -0.04004946 0.0443989 -0.08474652 0.09341083
000020 9d d6 89 3c e5 64 44 bd 4a f7 08 3d a4 9d dc 3c
       0.016825968 -0.047947783 0.03343896 0.026930638
000030 f5 0b a4 bd 1e 5f b1 3d 1a e6 84 be 15 c4 21 bc
       -0.08010093 0.0866072 -0.25956804 -0.00987341
000040 7a 45 36 3e 39 34 97 3d
       0.1779994 0.073830076
